// -----// IR Dump After AutoInputConversionPipelinePass (iree-auto-input-conversion) //----- //
module {
  func.func @test_simple_argmax_4x16(%arg0: tensor<4x16x128256xf16>) -> (tensor<4x16xf16>, tensor<4x16xi32>) {
    %cst = arith.constant 0xFC00 : f16
    %c0_i32 = arith.constant 0 : i32
    %c0 = arith.constant 0 : index
    %0 = tensor.empty() : tensor<4x16xf16>
    %1 = tensor.empty() : tensor<4x16xi32>
    %2 = linalg.fill ins(%cst : f16) outs(%0 : tensor<4x16xf16>) -> tensor<4x16xf16>
    %3 = linalg.fill ins(%c0_i32 : i32) outs(%1 : tensor<4x16xi32>) -> tensor<4x16xi32>
    %4:2 = iree_linalg_ext.arg_compare dimension(2) ins(%arg0 : tensor<4x16x128256xf16>) outs(%2, %3 : tensor<4x16xf16>, tensor<4x16xi32>) {
    ^bb0(%arg1: f16, %arg2: f16):
      %5 = arith.cmpf ogt, %arg1, %arg2 : f16
      iree_linalg_ext.yield %5 : i1
    } -> tensor<4x16xf16>, tensor<4x16xi32>
    return %4#0, %4#1 : tensor<4x16xf16>, tensor<4x16xi32>
  }
}


// -----// IR Dump After IREEImportPublicPass (iree-import-public) //----- //
module {
  util.func public @test_simple_argmax_4x16(%arg0: tensor<4x16x128256xf16>) -> (tensor<4x16xf16>, tensor<4x16xi32>) {
    %cst = arith.constant 0xFC00 : f16
    %c0_i32 = arith.constant 0 : i32
    %c0 = arith.constant 0 : index
    %0 = tensor.empty() : tensor<4x16xf16>
    %1 = tensor.empty() : tensor<4x16xi32>
    %2 = linalg.fill ins(%cst : f16) outs(%0 : tensor<4x16xf16>) -> tensor<4x16xf16>
    %3 = linalg.fill ins(%c0_i32 : i32) outs(%1 : tensor<4x16xi32>) -> tensor<4x16xi32>
    %4:2 = iree_linalg_ext.arg_compare dimension(2) ins(%arg0 : tensor<4x16x128256xf16>) outs(%2, %3 : tensor<4x16xf16>, tensor<4x16xi32>) {
    ^bb0(%arg1: f16, %arg2: f16):
      %5 = arith.cmpf ogt, %arg1, %arg2 : f16
      iree_linalg_ext.yield %5 : i1
    } -> tensor<4x16xf16>, tensor<4x16xi32>
    util.return %4#0, %4#1 : tensor<4x16xf16>, tensor<4x16xi32>
  }
}


// -----// IR Dump After ImportMLProgramPass (iree-import-ml-program) //----- //
module {
  util.func public @test_simple_argmax_4x16(%arg0: tensor<4x16x128256xf16>) -> (tensor<4x16xf16>, tensor<4x16xi32>) {
    %cst = arith.constant 0xFC00 : f16
    %c0_i32 = arith.constant 0 : i32
    %c0 = arith.constant 0 : index
    %0 = tensor.empty() : tensor<4x16xf16>
    %1 = tensor.empty() : tensor<4x16xi32>
    %2 = linalg.fill ins(%cst : f16) outs(%0 : tensor<4x16xf16>) -> tensor<4x16xf16>
    %3 = linalg.fill ins(%c0_i32 : i32) outs(%1 : tensor<4x16xi32>) -> tensor<4x16xi32>
    %4:2 = iree_linalg_ext.arg_compare dimension(2) ins(%arg0 : tensor<4x16x128256xf16>) outs(%2, %3 : tensor<4x16xf16>, tensor<4x16xi32>) {
    ^bb0(%arg1: f16, %arg2: f16):
      %5 = arith.cmpf ogt, %arg1, %arg2 : f16
      iree_linalg_ext.yield %5 : i1
    } -> tensor<4x16xf16>, tensor<4x16xi32>
    util.return %4#0, %4#1 : tensor<4x16xf16>, tensor<4x16xi32>
  }
}


// -----// IR Dump After SanitizeModuleNamesPass (iree-sanitize-module-names) //----- //
module {
  util.func public @test_simple_argmax_4x16(%arg0: tensor<4x16x128256xf16>) -> (tensor<4x16xf16>, tensor<4x16xi32>) {
    %cst = arith.constant 0xFC00 : f16
    %c0_i32 = arith.constant 0 : i32
    %c0 = arith.constant 0 : index
    %0 = tensor.empty() : tensor<4x16xf16>
    %1 = tensor.empty() : tensor<4x16xi32>
    %2 = linalg.fill ins(%cst : f16) outs(%0 : tensor<4x16xf16>) -> tensor<4x16xf16>
    %3 = linalg.fill ins(%c0_i32 : i32) outs(%1 : tensor<4x16xi32>) -> tensor<4x16xi32>
    %4:2 = iree_linalg_ext.arg_compare dimension(2) ins(%arg0 : tensor<4x16x128256xf16>) outs(%2, %3 : tensor<4x16xf16>, tensor<4x16xi32>) {
    ^bb0(%arg1: f16, %arg2: f16):
      %5 = arith.cmpf ogt, %arg1, %arg2 : f16
      iree_linalg_ext.yield %5 : i1
    } -> tensor<4x16xf16>, tensor<4x16xi32>
    util.return %4#0, %4#1 : tensor<4x16xf16>, tensor<4x16xi32>
  }
}


// -----// IR Dump After ConvertShardToFlowPass (iree-convert-shard-to-flow) //----- //
module {
  util.func public @test_simple_argmax_4x16(%arg0: tensor<4x16x128256xf16>) -> (tensor<4x16xf16>, tensor<4x16xi32>) {
    %cst = arith.constant 0xFC00 : f16
    %c0_i32 = arith.constant 0 : i32
    %0 = tensor.empty() : tensor<4x16xf16>
    %1 = tensor.empty() : tensor<4x16xi32>
    %2 = linalg.fill ins(%cst : f16) outs(%0 : tensor<4x16xf16>) -> tensor<4x16xf16>
    %3 = linalg.fill ins(%c0_i32 : i32) outs(%1 : tensor<4x16xi32>) -> tensor<4x16xi32>
    %4:2 = iree_linalg_ext.arg_compare dimension(2) ins(%arg0 : tensor<4x16x128256xf16>) outs(%2, %3 : tensor<4x16xf16>, tensor<4x16xi32>) {
    ^bb0(%arg1: f16, %arg2: f16):
      %5 = arith.cmpf ogt, %arg1, %arg2 : f16
      iree_linalg_ext.yield %5 : i1
    } -> tensor<4x16xf16>, tensor<4x16xi32>
    util.return %4#0, %4#1 : tensor<4x16xf16>, tensor<4x16xi32>
  }
}


// -----// IR Dump After DemoteF64ToF32Pass (iree-input-conversion-demote-f64-to-f32) //----- //
module {
  util.func public @test_simple_argmax_4x16(%arg0: tensor<4x16x128256xf16>) -> (tensor<4x16xf16>, tensor<4x16xi32>) {
    %cst = arith.constant 0xFC00 : f16
    %c0_i32 = arith.constant 0 : i32
    %0 = tensor.empty() : tensor<4x16xf16>
    %1 = tensor.empty() : tensor<4x16xi32>
    %2 = linalg.fill ins(%cst : f16) outs(%0 : tensor<4x16xf16>) -> tensor<4x16xf16>
    %3 = linalg.fill ins(%c0_i32 : i32) outs(%1 : tensor<4x16xi32>) -> tensor<4x16xi32>
    %4:2 = iree_linalg_ext.arg_compare dimension(2) ins(%arg0 : tensor<4x16x128256xf16>) outs(%2, %3 : tensor<4x16xf16>, tensor<4x16xi32>) {
    ^bb0(%arg1: f16, %arg2: f16):
      %5 = arith.cmpf ogt, %arg1, %arg2 : f16
      iree_linalg_ext.yield %5 : i1
    } -> tensor<4x16xf16>, tensor<4x16xi32>
    util.return %4#0, %4#1 : tensor<4x16xf16>, tensor<4x16xi32>
  }
}


// -----// IR Dump After ConvertStreamableOpsPass (iree-abi-convert-streamable-ops) //----- //
module {
  util.func public @test_simple_argmax_4x16(%arg0: tensor<4x16x128256xf16>) -> (tensor<4x16xf16>, tensor<4x16xi32>) {
    %cst = arith.constant 0xFC00 : f16
    %c0_i32 = arith.constant 0 : i32
    %0 = tensor.empty() : tensor<4x16xf16>
    %1 = tensor.empty() : tensor<4x16xi32>
    %2 = linalg.fill ins(%cst : f16) outs(%0 : tensor<4x16xf16>) -> tensor<4x16xf16>
    %3 = linalg.fill ins(%c0_i32 : i32) outs(%1 : tensor<4x16xi32>) -> tensor<4x16xi32>
    %4:2 = iree_linalg_ext.arg_compare dimension(2) ins(%arg0 : tensor<4x16x128256xf16>) outs(%2, %3 : tensor<4x16xf16>, tensor<4x16xi32>) {
    ^bb0(%arg1: f16, %arg2: f16):
      %5 = arith.cmpf ogt, %arg1, %arg2 : f16
      iree_linalg_ext.yield %5 : i1
    } -> tensor<4x16xf16>, tensor<4x16xi32>
    util.return %4#0, %4#1 : tensor<4x16xf16>, tensor<4x16xi32>
  }
}


// -----// IR Dump After WrapEntryPointsPass (iree-abi-wrap-entry-points) //----- //
module {
  util.func public @test_simple_argmax_4x16(%arg0: !hal.buffer_view) -> (!hal.buffer_view, !hal.buffer_view) attributes {iree.abi.stub, iree.reflection = {iree.abi.declaration = "sync func @test_simple_argmax_4x16(%input0: tensor<4x16x128256xf16>) -> (%output0: tensor<4x16xf16>, %output1: tensor<4x16xi32>)"}} {
    %0 = hal.tensor.import %arg0 "input0" : !hal.buffer_view -> tensor<4x16x128256xf16>
    %1:2 = util.call @_test_simple_argmax_4x16(%0) : (tensor<4x16x128256xf16>) -> (tensor<4x16xf16>, tensor<4x16xi32>)
    %2 = hal.tensor.export %1#0 "output0" : tensor<4x16xf16> -> !hal.buffer_view
    %3 = hal.tensor.export %1#1 "output1" : tensor<4x16xi32> -> !hal.buffer_view
    util.return %2, %3 : !hal.buffer_view, !hal.buffer_view
  }
  util.func private @_test_simple_argmax_4x16(%arg0: tensor<4x16x128256xf16>) -> (tensor<4x16xf16>, tensor<4x16xi32>) attributes {hal.abi.convention = #hal.abi.convention<synchronous>} {
    %cst = arith.constant 0xFC00 : f16
    %c0_i32 = arith.constant 0 : i32
    %0 = tensor.empty() : tensor<4x16xf16>
    %1 = tensor.empty() : tensor<4x16xi32>
    %2 = linalg.fill ins(%cst : f16) outs(%0 : tensor<4x16xf16>) -> tensor<4x16xf16>
    %3 = linalg.fill ins(%c0_i32 : i32) outs(%1 : tensor<4x16xi32>) -> tensor<4x16xi32>
    %4:2 = iree_linalg_ext.arg_compare dimension(2) ins(%arg0 : tensor<4x16x128256xf16>) outs(%2, %3 : tensor<4x16xf16>, tensor<4x16xi32>) {
    ^bb0(%arg1: f16, %arg2: f16):
      %5 = arith.cmpf ogt, %arg1, %arg2 : f16
      iree_linalg_ext.yield %5 : i1
    } -> tensor<4x16xf16>, tensor<4x16xi32>
    util.return %4#0, %4#1 : tensor<4x16xf16>, tensor<4x16xi32>
  }
}


// -----// IR Dump After Canonicalizer (canonicalize) //----- //
util.func private @_test_simple_argmax_4x16(%arg0: tensor<4x16x128256xf16>) -> (tensor<4x16xf16>, tensor<4x16xi32>) attributes {hal.abi.convention = #hal.abi.convention<synchronous>} {
  %cst = arith.constant 0xFC00 : f16
  %c0_i32 = arith.constant 0 : i32
  %0 = tensor.empty() : tensor<4x16xf16>
  %1 = tensor.empty() : tensor<4x16xi32>
  %2 = linalg.fill ins(%cst : f16) outs(%0 : tensor<4x16xf16>) -> tensor<4x16xf16>
  %3 = linalg.fill ins(%c0_i32 : i32) outs(%1 : tensor<4x16xi32>) -> tensor<4x16xi32>
  %4:2 = iree_linalg_ext.arg_compare dimension(2) ins(%arg0 : tensor<4x16x128256xf16>) outs(%2, %3 : tensor<4x16xf16>, tensor<4x16xi32>) {
  ^bb0(%arg1: f16, %arg2: f16):
    %5 = arith.cmpf ogt, %arg1, %arg2 : f16
    iree_linalg_ext.yield %5 : i1
  } -> tensor<4x16xf16>, tensor<4x16xi32>
  util.return %4#0, %4#1 : tensor<4x16xf16>, tensor<4x16xi32>
}

// -----// IR Dump After Canonicalizer (canonicalize) //----- //
util.func public @test_simple_argmax_4x16(%arg0: !hal.buffer_view) -> (!hal.buffer_view, !hal.buffer_view) attributes {iree.abi.stub, iree.reflection = {iree.abi.declaration = "sync func @test_simple_argmax_4x16(%input0: tensor<4x16x128256xf16>) -> (%output0: tensor<4x16xf16>, %output1: tensor<4x16xi32>)"}} {
  %0 = hal.tensor.import %arg0 "input0" : !hal.buffer_view -> tensor<4x16x128256xf16>
  %1:2 = util.call @_test_simple_argmax_4x16(%0) : (tensor<4x16x128256xf16>) -> (tensor<4x16xf16>, tensor<4x16xi32>)
  %2 = hal.tensor.export %1#0 "output0" : tensor<4x16xf16> -> !hal.buffer_view
  %3 = hal.tensor.export %1#1 "output1" : tensor<4x16xi32> -> !hal.buffer_view
  util.return %2, %3 : !hal.buffer_view, !hal.buffer_view
}

// -----// IR Dump After Canonicalizer (canonicalize) //----- //
util.func public @test_simple_argmax_4x16(%arg0: !hal.buffer_view) -> (!hal.buffer_view, !hal.buffer_view) attributes {iree.abi.stub, iree.reflection = {iree.abi.declaration = "sync func @test_simple_argmax_4x16(%input0: tensor<4x16x128256xf16>) -> (%output0: tensor<4x16xf16>, %output1: tensor<4x16xi32>)"}} {
  %c0_i32 = arith.constant 0 : i32
  %cst = arith.constant 0xFC00 : f16
  %0 = hal.tensor.import %arg0 "input0" : !hal.buffer_view -> tensor<4x16x128256xf16>
  %1 = tensor.empty() : tensor<4x16xf16>
  %2 = tensor.empty() : tensor<4x16xi32>
  %3 = linalg.fill ins(%cst : f16) outs(%1 : tensor<4x16xf16>) -> tensor<4x16xf16>
  %4 = linalg.fill ins(%c0_i32 : i32) outs(%2 : tensor<4x16xi32>) -> tensor<4x16xi32>
  %5:2 = iree_linalg_ext.arg_compare dimension(2) ins(%0 : tensor<4x16x128256xf16>) outs(%3, %4 : tensor<4x16xf16>, tensor<4x16xi32>) {
  ^bb0(%arg1: f16, %arg2: f16):
    %8 = arith.cmpf ogt, %arg1, %arg2 : f16
    iree_linalg_ext.yield %8 : i1
  } -> tensor<4x16xf16>, tensor<4x16xi32>
  %6 = hal.tensor.export %5#0 "output0" : tensor<4x16xf16> -> !hal.buffer_view
  %7 = hal.tensor.export %5#1 "output1" : tensor<4x16xi32> -> !hal.buffer_view
  util.return %6, %7 : !hal.buffer_view, !hal.buffer_view
}

// -----// IR Dump After Inliner (inline) //----- //
module {
  util.func public @test_simple_argmax_4x16(%arg0: !hal.buffer_view) -> (!hal.buffer_view, !hal.buffer_view) attributes {iree.abi.stub, iree.reflection = {iree.abi.declaration = "sync func @test_simple_argmax_4x16(%input0: tensor<4x16x128256xf16>) -> (%output0: tensor<4x16xf16>, %output1: tensor<4x16xi32>)"}} {
    %c0_i32 = arith.constant 0 : i32
    %cst = arith.constant 0xFC00 : f16
    %0 = hal.tensor.import %arg0 "input0" : !hal.buffer_view -> tensor<4x16x128256xf16>
    %1 = tensor.empty() : tensor<4x16xf16>
    %2 = tensor.empty() : tensor<4x16xi32>
    %3 = linalg.fill ins(%cst : f16) outs(%1 : tensor<4x16xf16>) -> tensor<4x16xf16>
    %4 = linalg.fill ins(%c0_i32 : i32) outs(%2 : tensor<4x16xi32>) -> tensor<4x16xi32>
    %5:2 = iree_linalg_ext.arg_compare dimension(2) ins(%0 : tensor<4x16x128256xf16>) outs(%3, %4 : tensor<4x16xf16>, tensor<4x16xi32>) {
    ^bb0(%arg1: f16, %arg2: f16):
      %8 = arith.cmpf ogt, %arg1, %arg2 : f16
      iree_linalg_ext.yield %8 : i1
    } -> tensor<4x16xf16>, tensor<4x16xi32>
    %6 = hal.tensor.export %5#0 "output0" : tensor<4x16xf16> -> !hal.buffer_view
    %7 = hal.tensor.export %5#1 "output1" : tensor<4x16xi32> -> !hal.buffer_view
    util.return %6, %7 : !hal.buffer_view, !hal.buffer_view
  }
}


// -----// IR Dump After Canonicalizer (canonicalize) //----- //
util.func public @test_simple_argmax_4x16(%arg0: !hal.buffer_view) -> (!hal.buffer_view, !hal.buffer_view) attributes {iree.abi.stub, iree.reflection = {iree.abi.declaration = "sync func @test_simple_argmax_4x16(%input0: tensor<4x16x128256xf16>) -> (%output0: tensor<4x16xf16>, %output1: tensor<4x16xi32>)"}} {
  %c0_i32 = arith.constant 0 : i32
  %cst = arith.constant 0xFC00 : f16
  %0 = hal.tensor.import %arg0 "input0" : !hal.buffer_view -> tensor<4x16x128256xf16>
  %1 = tensor.empty() : tensor<4x16xf16>
  %2 = tensor.empty() : tensor<4x16xi32>
  %3 = linalg.fill ins(%cst : f16) outs(%1 : tensor<4x16xf16>) -> tensor<4x16xf16>
  %4 = linalg.fill ins(%c0_i32 : i32) outs(%2 : tensor<4x16xi32>) -> tensor<4x16xi32>
  %5:2 = iree_linalg_ext.arg_compare dimension(2) ins(%0 : tensor<4x16x128256xf16>) outs(%3, %4 : tensor<4x16xf16>, tensor<4x16xi32>) {
  ^bb0(%arg1: f16, %arg2: f16):
    %8 = arith.cmpf ogt, %arg1, %arg2 : f16
    iree_linalg_ext.yield %8 : i1
  } -> tensor<4x16xf16>, tensor<4x16xi32>
  %6 = hal.tensor.export %5#0 "output0" : tensor<4x16xf16> -> !hal.buffer_view
  %7 = hal.tensor.export %5#1 "output1" : tensor<4x16xi32> -> !hal.buffer_view
  util.return %6, %7 : !hal.buffer_view, !hal.buffer_view
}

// -----// IR Dump After CSE (cse) //----- //
util.func public @test_simple_argmax_4x16(%arg0: !hal.buffer_view) -> (!hal.buffer_view, !hal.buffer_view) attributes {iree.abi.stub, iree.reflection = {iree.abi.declaration = "sync func @test_simple_argmax_4x16(%input0: tensor<4x16x128256xf16>) -> (%output0: tensor<4x16xf16>, %output1: tensor<4x16xi32>)"}} {
  %c0_i32 = arith.constant 0 : i32
  %cst = arith.constant 0xFC00 : f16
  %0 = hal.tensor.import %arg0 "input0" : !hal.buffer_view -> tensor<4x16x128256xf16>
  %1 = tensor.empty() : tensor<4x16xf16>
  %2 = tensor.empty() : tensor<4x16xi32>
  %3 = linalg.fill ins(%cst : f16) outs(%1 : tensor<4x16xf16>) -> tensor<4x16xf16>
  %4 = linalg.fill ins(%c0_i32 : i32) outs(%2 : tensor<4x16xi32>) -> tensor<4x16xi32>
  %5:2 = iree_linalg_ext.arg_compare dimension(2) ins(%0 : tensor<4x16x128256xf16>) outs(%3, %4 : tensor<4x16xf16>, tensor<4x16xi32>) {
  ^bb0(%arg1: f16, %arg2: f16):
    %8 = arith.cmpf ogt, %arg1, %arg2 : f16
    iree_linalg_ext.yield %8 : i1
  } -> tensor<4x16xf16>, tensor<4x16xi32>
  %6 = hal.tensor.export %5#0 "output0" : tensor<4x16xf16> -> !hal.buffer_view
  %7 = hal.tensor.export %5#1 "output1" : tensor<4x16xi32> -> !hal.buffer_view
  util.return %6, %7 : !hal.buffer_view, !hal.buffer_view
}

// -----// IR Dump After SymbolDCE (symbol-dce) //----- //
module {
  util.func public @test_simple_argmax_4x16(%arg0: !hal.buffer_view) -> (!hal.buffer_view, !hal.buffer_view) attributes {iree.abi.stub, iree.reflection = {iree.abi.declaration = "sync func @test_simple_argmax_4x16(%input0: tensor<4x16x128256xf16>) -> (%output0: tensor<4x16xf16>, %output1: tensor<4x16xi32>)"}} {
    %c0_i32 = arith.constant 0 : i32
    %cst = arith.constant 0xFC00 : f16
    %0 = hal.tensor.import %arg0 "input0" : !hal.buffer_view -> tensor<4x16x128256xf16>
    %1 = tensor.empty() : tensor<4x16xf16>
    %2 = tensor.empty() : tensor<4x16xi32>
    %3 = linalg.fill ins(%cst : f16) outs(%1 : tensor<4x16xf16>) -> tensor<4x16xf16>
    %4 = linalg.fill ins(%c0_i32 : i32) outs(%2 : tensor<4x16xi32>) -> tensor<4x16xi32>
    %5:2 = iree_linalg_ext.arg_compare dimension(2) ins(%0 : tensor<4x16x128256xf16>) outs(%3, %4 : tensor<4x16xf16>, tensor<4x16xi32>) {
    ^bb0(%arg1: f16, %arg2: f16):
      %8 = arith.cmpf ogt, %arg1, %arg2 : f16
      iree_linalg_ext.yield %8 : i1
    } -> tensor<4x16xf16>, tensor<4x16xi32>
    %6 = hal.tensor.export %5#0 "output0" : tensor<4x16xf16> -> !hal.buffer_view
    %7 = hal.tensor.export %5#1 "output1" : tensor<4x16xi32> -> !hal.buffer_view
    util.return %6, %7 : !hal.buffer_view, !hal.buffer_view
  }
}


// -----// IR Dump After AssignTargetDevicesPass (iree-hal-assign-target-devices) //----- //
module attributes {hal.device.targets = [#hal.device.alias<"hip"> : !hal.device]} {
  util.func public @test_simple_argmax_4x16(%arg0: !hal.buffer_view) -> (!hal.buffer_view, !hal.buffer_view) attributes {iree.abi.stub, iree.reflection = {iree.abi.declaration = "sync func @test_simple_argmax_4x16(%input0: tensor<4x16x128256xf16>) -> (%output0: tensor<4x16xf16>, %output1: tensor<4x16xi32>)"}} {
    %c0_i32 = arith.constant 0 : i32
    %cst = arith.constant 0xFC00 : f16
    %0 = hal.tensor.import %arg0 "input0" : !hal.buffer_view -> tensor<4x16x128256xf16>
    %1 = tensor.empty() : tensor<4x16xf16>
    %2 = tensor.empty() : tensor<4x16xi32>
    %3 = linalg.fill ins(%cst : f16) outs(%1 : tensor<4x16xf16>) -> tensor<4x16xf16>
    %4 = linalg.fill ins(%c0_i32 : i32) outs(%2 : tensor<4x16xi32>) -> tensor<4x16xi32>
    %5:2 = iree_linalg_ext.arg_compare dimension(2) ins(%0 : tensor<4x16x128256xf16>) outs(%3, %4 : tensor<4x16xf16>, tensor<4x16xi32>) {
    ^bb0(%arg1: f16, %arg2: f16):
      %8 = arith.cmpf ogt, %arg1, %arg2 : f16
      iree_linalg_ext.yield %8 : i1
    } -> tensor<4x16xf16>, tensor<4x16xi32>
    %6 = hal.tensor.export %5#0 "output0" : tensor<4x16xf16> -> !hal.buffer_view
    %7 = hal.tensor.export %5#1 "output1" : tensor<4x16xi32> -> !hal.buffer_view
    util.return %6, %7 : !hal.buffer_view, !hal.buffer_view
  }
}


// -----// IR Dump After MaterializeTargetDevicesPass (iree-hal-materialize-target-devices) //----- //
module attributes {stream.affinity.default = #hal.device.affinity<@__device_0>} {
  util.global private @__device_0 = #hal.device.alias<"hip"> : !hal.device
  util.func public @test_simple_argmax_4x16(%arg0: !hal.buffer_view) -> (!hal.buffer_view, !hal.buffer_view) attributes {iree.abi.stub, iree.reflection = {iree.abi.declaration = "sync func @test_simple_argmax_4x16(%input0: tensor<4x16x128256xf16>) -> (%output0: tensor<4x16xf16>, %output1: tensor<4x16xi32>)"}} {
    %c0_i32 = arith.constant 0 : i32
    %cst = arith.constant 0xFC00 : f16
    %0 = hal.tensor.import %arg0 "input0" : !hal.buffer_view -> tensor<4x16x128256xf16>
    %1 = tensor.empty() : tensor<4x16xf16>
    %2 = tensor.empty() : tensor<4x16xi32>
    %3 = linalg.fill ins(%cst : f16) outs(%1 : tensor<4x16xf16>) -> tensor<4x16xf16>
    %4 = linalg.fill ins(%c0_i32 : i32) outs(%2 : tensor<4x16xi32>) -> tensor<4x16xi32>
    %5:2 = iree_linalg_ext.arg_compare dimension(2) ins(%0 : tensor<4x16x128256xf16>) outs(%3, %4 : tensor<4x16xf16>, tensor<4x16xi32>) {
    ^bb0(%arg1: f16, %arg2: f16):
      %8 = arith.cmpf ogt, %arg1, %arg2 : f16
      iree_linalg_ext.yield %8 : i1
    } -> tensor<4x16xf16>, tensor<4x16xi32>
    %6 = hal.tensor.export %5#0 "output0" : tensor<4x16xf16> -> !hal.buffer_view
    %7 = hal.tensor.export %5#1 "output1" : tensor<4x16xi32> -> !hal.buffer_view
    util.return %6, %7 : !hal.buffer_view, !hal.buffer_view
  }
}


// -----// IR Dump After ResolveDevicePromisesPass (iree-hal-resolve-device-promises) //----- //
module attributes {stream.affinity.default = #hal.device.affinity<@__device_0>} {
  util.global private @__device_0 = #hal.device.alias<"hip"> : !hal.device
  util.func public @test_simple_argmax_4x16(%arg0: !hal.buffer_view) -> (!hal.buffer_view, !hal.buffer_view) attributes {iree.abi.stub, iree.reflection = {iree.abi.declaration = "sync func @test_simple_argmax_4x16(%input0: tensor<4x16x128256xf16>) -> (%output0: tensor<4x16xf16>, %output1: tensor<4x16xi32>)"}} {
    %c0_i32 = arith.constant 0 : i32
    %cst = arith.constant 0xFC00 : f16
    %0 = hal.tensor.import %arg0 "input0" : !hal.buffer_view -> tensor<4x16x128256xf16>
    %1 = tensor.empty() : tensor<4x16xf16>
    %2 = tensor.empty() : tensor<4x16xi32>
    %3 = linalg.fill ins(%cst : f16) outs(%1 : tensor<4x16xf16>) -> tensor<4x16xf16>
    %4 = linalg.fill ins(%c0_i32 : i32) outs(%2 : tensor<4x16xi32>) -> tensor<4x16xi32>
    %5:2 = iree_linalg_ext.arg_compare dimension(2) ins(%0 : tensor<4x16x128256xf16>) outs(%3, %4 : tensor<4x16xf16>, tensor<4x16xi32>) {
    ^bb0(%arg1: f16, %arg2: f16):
      %8 = arith.cmpf ogt, %arg1, %arg2 : f16
      iree_linalg_ext.yield %8 : i1
    } -> tensor<4x16xf16>, tensor<4x16xi32>
    %6 = hal.tensor.export %5#0 "output0" : tensor<4x16xf16> -> !hal.buffer_view
    %7 = hal.tensor.export %5#1 "output1" : tensor<4x16xi32> -> !hal.buffer_view
    util.return %6, %7 : !hal.buffer_view, !hal.buffer_view
  }
}


// -----// IR Dump After ResolveDeviceAliasesPass (iree-hal-resolve-device-aliases) //----- //
#executable_target_rocm_hsaco_fb = #hal.executable.target<"rocm", "rocm-hsaco-fb", {abi = "hip", iree.encoding.resolver = #iree_gpu.gpu_encoding_resolver<>, iree_codegen.default_tuning_spec = #rocm.builtin.tuning_module<"iree_default_tuning_spec_gfx942.mlir">, iree_codegen.target_info = #iree_gpu.target<arch = "gfx942", features = "", wgp = <compute =  fp64|fp32|fp16|int64|int32|int16|int8, storage =  b64|b32|b16|b8, subgroup =  shuffle|arithmetic, dot =  dp4xi8toi32, mma = [<MFMA_F32_16x16x16_BF16>, <MFMA_F32_32x32x8_BF16>, <MFMA_F32_16x16x32_F8E5M2FNUZ>, <MFMA_F32_16x16x32_F8E5M2FNUZ_F8E4M3FNUZ>, <MFMA_F32_16x16x32_F8E4M3FNUZ>, <MFMA_F32_16x16x32_F8E4M3FNUZ_F8E5M2FNUZ>, <MFMA_F32_32x32x16_F8E5M2FNUZ>, <MFMA_F32_32x32x16_F8E5M2FNUZ_F8E4M3FNUZ>, <MFMA_F32_32x32x16_F8E4M3FNUZ>, <MFMA_F32_32x32x16_F8E4M3FNUZ_F8E5M2FNUZ>, <MFMA_I32_16x16x32_I8>, <MFMA_I32_32x32x16_I8>, <MFMA_F64_16x16x4_F64>, <MFMA_F32_16x16x4_F32>, <MFMA_F32_16x16x16_F16>, <MFMA_F32_32x32x8_F16>], subgroup_size_choices = [64], max_workgroup_sizes = [1024, 1024, 1024], max_thread_count_per_workgroup = 1024, max_workgroup_memory_bytes = 65536, max_workgroup_counts = [2147483647, 2147483647, 2147483647], max_load_instruction_bits = 128, simds_per_wgp = 4, vgpr_space_bits = 16384, dma_sizes = [32]>>, ukernels = "none"}>
#device_target_hip = #hal.device.target<"hip", [#executable_target_rocm_hsaco_fb]> : !hal.device
module attributes {stream.affinity.default = #hal.device.affinity<@__device_0>} {
  util.global private @__device_0 = #device_target_hip
  util.func public @test_simple_argmax_4x16(%arg0: !hal.buffer_view) -> (!hal.buffer_view, !hal.buffer_view) attributes {iree.abi.stub, iree.reflection = {iree.abi.declaration = "sync func @test_simple_argmax_4x16(%input0: tensor<4x16x128256xf16>) -> (%output0: tensor<4x16xf16>, %output1: tensor<4x16xi32>)"}} {
    %c0_i32 = arith.constant 0 : i32
    %cst = arith.constant 0xFC00 : f16
    %0 = hal.tensor.import %arg0 "input0" : !hal.buffer_view -> tensor<4x16x128256xf16>
    %1 = tensor.empty() : tensor<4x16xf16>
    %2 = tensor.empty() : tensor<4x16xi32>
    %3 = linalg.fill ins(%cst : f16) outs(%1 : tensor<4x16xf16>) -> tensor<4x16xf16>
    %4 = linalg.fill ins(%c0_i32 : i32) outs(%2 : tensor<4x16xi32>) -> tensor<4x16xi32>
    %5:2 = iree_linalg_ext.arg_compare dimension(2) ins(%0 : tensor<4x16x128256xf16>) outs(%3, %4 : tensor<4x16xf16>, tensor<4x16xi32>) {
    ^bb0(%arg1: f16, %arg2: f16):
      %8 = arith.cmpf ogt, %arg1, %arg2 : f16
      iree_linalg_ext.yield %8 : i1
    } -> tensor<4x16xf16>, tensor<4x16xi32>
    %6 = hal.tensor.export %5#0 "output0" : tensor<4x16xf16> -> !hal.buffer_view
    %7 = hal.tensor.export %5#1 "output1" : tensor<4x16xi32> -> !hal.buffer_view
    util.return %6, %7 : !hal.buffer_view, !hal.buffer_view
  }
}


// -----// IR Dump After VerifyDevicesPass (iree-hal-verify-devices) //----- //
#executable_target_rocm_hsaco_fb = #hal.executable.target<"rocm", "rocm-hsaco-fb", {abi = "hip", iree.encoding.resolver = #iree_gpu.gpu_encoding_resolver<>, iree_codegen.default_tuning_spec = #rocm.builtin.tuning_module<"iree_default_tuning_spec_gfx942.mlir">, iree_codegen.target_info = #iree_gpu.target<arch = "gfx942", features = "", wgp = <compute =  fp64|fp32|fp16|int64|int32|int16|int8, storage =  b64|b32|b16|b8, subgroup =  shuffle|arithmetic, dot =  dp4xi8toi32, mma = [<MFMA_F32_16x16x16_BF16>, <MFMA_F32_32x32x8_BF16>, <MFMA_F32_16x16x32_F8E5M2FNUZ>, <MFMA_F32_16x16x32_F8E5M2FNUZ_F8E4M3FNUZ>, <MFMA_F32_16x16x32_F8E4M3FNUZ>, <MFMA_F32_16x16x32_F8E4M3FNUZ_F8E5M2FNUZ>, <MFMA_F32_32x32x16_F8E5M2FNUZ>, <MFMA_F32_32x32x16_F8E5M2FNUZ_F8E4M3FNUZ>, <MFMA_F32_32x32x16_F8E4M3FNUZ>, <MFMA_F32_32x32x16_F8E4M3FNUZ_F8E5M2FNUZ>, <MFMA_I32_16x16x32_I8>, <MFMA_I32_32x32x16_I8>, <MFMA_F64_16x16x4_F64>, <MFMA_F32_16x16x4_F32>, <MFMA_F32_16x16x16_F16>, <MFMA_F32_32x32x8_F16>], subgroup_size_choices = [64], max_workgroup_sizes = [1024, 1024, 1024], max_thread_count_per_workgroup = 1024, max_workgroup_memory_bytes = 65536, max_workgroup_counts = [2147483647, 2147483647, 2147483647], max_load_instruction_bits = 128, simds_per_wgp = 4, vgpr_space_bits = 16384, dma_sizes = [32]>>, ukernels = "none"}>
#device_target_hip = #hal.device.target<"hip", [#executable_target_rocm_hsaco_fb]> : !hal.device
module attributes {stream.affinity.default = #hal.device.affinity<@__device_0>} {
  util.global private @__device_0 = #device_target_hip
  util.func public @test_simple_argmax_4x16(%arg0: !hal.buffer_view) -> (!hal.buffer_view, !hal.buffer_view) attributes {iree.abi.stub, iree.reflection = {iree.abi.declaration = "sync func @test_simple_argmax_4x16(%input0: tensor<4x16x128256xf16>) -> (%output0: tensor<4x16xf16>, %output1: tensor<4x16xi32>)"}} {
    %c0_i32 = arith.constant 0 : i32
    %cst = arith.constant 0xFC00 : f16
    %0 = hal.tensor.import %arg0 "input0" : !hal.buffer_view -> tensor<4x16x128256xf16>
    %1 = tensor.empty() : tensor<4x16xf16>
    %2 = tensor.empty() : tensor<4x16xi32>
    %3 = linalg.fill ins(%cst : f16) outs(%1 : tensor<4x16xf16>) -> tensor<4x16xf16>
    %4 = linalg.fill ins(%c0_i32 : i32) outs(%2 : tensor<4x16xi32>) -> tensor<4x16xi32>
    %5:2 = iree_linalg_ext.arg_compare dimension(2) ins(%0 : tensor<4x16x128256xf16>) outs(%3, %4 : tensor<4x16xf16>, tensor<4x16xi32>) {
    ^bb0(%arg1: f16, %arg2: f16):
      %8 = arith.cmpf ogt, %arg1, %arg2 : f16
      iree_linalg_ext.yield %8 : i1
    } -> tensor<4x16xf16>, tensor<4x16xi32>
    %6 = hal.tensor.export %5#0 "output0" : tensor<4x16xf16> -> !hal.buffer_view
    %7 = hal.tensor.export %5#1 "output1" : tensor<4x16xi32> -> !hal.buffer_view
    util.return %6, %7 : !hal.buffer_view, !hal.buffer_view
  }
}


// -----// IR Dump After AttrBasedPipelinePass (iree-preprocessing-attr-based-pipeline) //----- //
util.func public @test_simple_argmax_4x16(%arg0: !hal.buffer_view) -> (!hal.buffer_view, !hal.buffer_view) attributes {iree.abi.stub, iree.reflection = {iree.abi.declaration = "sync func @test_simple_argmax_4x16(%input0: tensor<4x16x128256xf16>) -> (%output0: tensor<4x16xf16>, %output1: tensor<4x16xi32>)"}} {
  %c0_i32 = arith.constant 0 : i32
  %cst = arith.constant 0xFC00 : f16
  %0 = hal.tensor.import %arg0 "input0" : !hal.buffer_view -> tensor<4x16x128256xf16>
  %1 = tensor.empty() : tensor<4x16xf16>
  %2 = tensor.empty() : tensor<4x16xi32>
  %3 = linalg.fill ins(%cst : f16) outs(%1 : tensor<4x16xf16>) -> tensor<4x16xf16>
  %4 = linalg.fill ins(%c0_i32 : i32) outs(%2 : tensor<4x16xi32>) -> tensor<4x16xi32>
  %5:2 = iree_linalg_ext.arg_compare dimension(2) ins(%0 : tensor<4x16x128256xf16>) outs(%3, %4 : tensor<4x16xf16>, tensor<4x16xi32>) {
  ^bb0(%arg1: f16, %arg2: f16):
    %8 = arith.cmpf ogt, %arg1, %arg2 : f16
    iree_linalg_ext.yield %8 : i1
  } -> tensor<4x16xf16>, tensor<4x16xi32>
  %6 = hal.tensor.export %5#0 "output0" : tensor<4x16xf16> -> !hal.buffer_view
  %7 = hal.tensor.export %5#1 "output1" : tensor<4x16xi32> -> !hal.buffer_view
  util.return %6, %7 : !hal.buffer_view, !hal.buffer_view
}

// -----// IR Dump After WarnOnUninitializedValuesPass (iree-global-opt-warn-on-uninitialized-values) //----- //
util.func public @test_simple_argmax_4x16(%arg0: !hal.buffer_view) -> (!hal.buffer_view, !hal.buffer_view) attributes {iree.abi.stub, iree.reflection = {iree.abi.declaration = "sync func @test_simple_argmax_4x16(%input0: tensor<4x16x128256xf16>) -> (%output0: tensor<4x16xf16>, %output1: tensor<4x16xi32>)"}} {
  %c0_i32 = arith.constant 0 : i32
  %cst = arith.constant 0xFC00 : f16
  %0 = hal.tensor.import %arg0 "input0" : !hal.buffer_view -> tensor<4x16x128256xf16>
  %1 = tensor.empty() : tensor<4x16xf16>
  %2 = tensor.empty() : tensor<4x16xi32>
  %3 = linalg.fill ins(%cst : f16) outs(%1 : tensor<4x16xf16>) -> tensor<4x16xf16>
  %4 = linalg.fill ins(%c0_i32 : i32) outs(%2 : tensor<4x16xi32>) -> tensor<4x16xi32>
  %5:2 = iree_linalg_ext.arg_compare dimension(2) ins(%0 : tensor<4x16x128256xf16>) outs(%3, %4 : tensor<4x16xf16>, tensor<4x16xi32>) {
  ^bb0(%arg1: f16, %arg2: f16):
    %8 = arith.cmpf ogt, %arg1, %arg2 : f16
    iree_linalg_ext.yield %8 : i1
  } -> tensor<4x16xf16>, tensor<4x16xi32>
  %6 = hal.tensor.export %5#0 "output0" : tensor<4x16xf16> -> !hal.buffer_view
  %7 = hal.tensor.export %5#1 "output1" : tensor<4x16xi32> -> !hal.buffer_view
  util.return %6, %7 : !hal.buffer_view, !hal.buffer_view
}

// -----// IR Dump After StripDebugOpsPass (iree-util-strip-debug-ops) //----- //
util.func public @test_simple_argmax_4x16(%arg0: !hal.buffer_view) -> (!hal.buffer_view, !hal.buffer_view) attributes {iree.abi.stub, iree.reflection = {iree.abi.declaration = "sync func @test_simple_argmax_4x16(%input0: tensor<4x16x128256xf16>) -> (%output0: tensor<4x16xf16>, %output1: tensor<4x16xi32>)"}} {
  %c0_i32 = arith.constant 0 : i32
  %cst = arith.constant 0xFC00 : f16
  %0 = hal.tensor.import %arg0 "input0" : !hal.buffer_view -> tensor<4x16x128256xf16>
  %1 = tensor.empty() : tensor<4x16xf16>
  %2 = tensor.empty() : tensor<4x16xi32>
  %3 = linalg.fill ins(%cst : f16) outs(%1 : tensor<4x16xf16>) -> tensor<4x16xf16>
  %4 = linalg.fill ins(%c0_i32 : i32) outs(%2 : tensor<4x16xi32>) -> tensor<4x16xi32>
  %5:2 = iree_linalg_ext.arg_compare dimension(2) ins(%0 : tensor<4x16x128256xf16>) outs(%3, %4 : tensor<4x16xf16>, tensor<4x16xi32>) {
  ^bb0(%arg1: f16, %arg2: f16):
    %8 = arith.cmpf ogt, %arg1, %arg2 : f16
    iree_linalg_ext.yield %8 : i1
  } -> tensor<4x16xf16>, tensor<4x16xi32>
  %6 = hal.tensor.export %5#0 "output0" : tensor<4x16xf16> -> !hal.buffer_view
  %7 = hal.tensor.export %5#1 "output1" : tensor<4x16xi32> -> !hal.buffer_view
  util.return %6, %7 : !hal.buffer_view, !hal.buffer_view
}

// -----// IR Dump After OptimizeIntArithmeticPass (iree-util-optimize-int-arithmetic) //----- //
util.func public @test_simple_argmax_4x16(%arg0: !hal.buffer_view) -> (!hal.buffer_view, !hal.buffer_view) attributes {iree.abi.stub, iree.reflection = {iree.abi.declaration = "sync func @test_simple_argmax_4x16(%input0: tensor<4x16x128256xf16>) -> (%output0: tensor<4x16xf16>, %output1: tensor<4x16xi32>)"}} {
  %c0_i32 = arith.constant 0 : i32
  %cst = arith.constant 0xFC00 : f16
  %0 = hal.tensor.import %arg0 "input0" : !hal.buffer_view -> tensor<4x16x128256xf16>
  %1 = tensor.empty() : tensor<4x16xf16>
  %2 = tensor.empty() : tensor<4x16xi32>
  %3 = linalg.fill ins(%cst : f16) outs(%1 : tensor<4x16xf16>) -> tensor<4x16xf16>
  %4 = linalg.fill ins(%c0_i32 : i32) outs(%2 : tensor<4x16xi32>) -> tensor<4x16xi32>
  %5:2 = iree_linalg_ext.arg_compare dimension(2) ins(%0 : tensor<4x16x128256xf16>) outs(%3, %4 : tensor<4x16xf16>, tensor<4x16xi32>) {
  ^bb0(%arg1: f16, %arg2: f16):
    %8 = arith.cmpf ogt, %arg1, %arg2 : f16
    iree_linalg_ext.yield %8 : i1
  } -> tensor<4x16xf16>, tensor<4x16xi32>
  %6 = hal.tensor.export %5#0 "output0" : tensor<4x16xf16> -> !hal.buffer_view
  %7 = hal.tensor.export %5#1 "output1" : tensor<4x16xi32> -> !hal.buffer_view
  util.return %6, %7 : !hal.buffer_view, !hal.buffer_view
}

// -----// IR Dump After LinalgQuantizedConvToConvPass (iree-global-opt-quantized-conv-to-conv) //----- //
util.func public @test_simple_argmax_4x16(%arg0: !hal.buffer_view) -> (!hal.buffer_view, !hal.buffer_view) attributes {iree.abi.stub, iree.reflection = {iree.abi.declaration = "sync func @test_simple_argmax_4x16(%input0: tensor<4x16x128256xf16>) -> (%output0: tensor<4x16xf16>, %output1: tensor<4x16xi32>)"}} {
  %c0_i32 = arith.constant 0 : i32
  %cst = arith.constant 0xFC00 : f16
  %0 = hal.tensor.import %arg0 "input0" : !hal.buffer_view -> tensor<4x16x128256xf16>
  %1 = tensor.empty() : tensor<4x16xf16>
  %2 = tensor.empty() : tensor<4x16xi32>
  %3 = linalg.fill ins(%cst : f16) outs(%1 : tensor<4x16xf16>) -> tensor<4x16xf16>
  %4 = linalg.fill ins(%c0_i32 : i32) outs(%2 : tensor<4x16xi32>) -> tensor<4x16xi32>
  %5:2 = iree_linalg_ext.arg_compare dimension(2) ins(%0 : tensor<4x16x128256xf16>) outs(%3, %4 : tensor<4x16xf16>, tensor<4x16xi32>) {
  ^bb0(%arg1: f16, %arg2: f16):
    %8 = arith.cmpf ogt, %arg1, %arg2 : f16
    iree_linalg_ext.yield %8 : i1
  } -> tensor<4x16xf16>, tensor<4x16xi32>
  %6 = hal.tensor.export %5#0 "output0" : tensor<4x16xf16> -> !hal.buffer_view
  %7 = hal.tensor.export %5#1 "output1" : tensor<4x16xi32> -> !hal.buffer_view
  util.return %6, %7 : !hal.buffer_view, !hal.buffer_view
}

// -----// IR Dump After LinalgQuantizedMatmulToMatmulPass (iree-global-opt-quantized-matmul-to-matmul) //----- //
util.func public @test_simple_argmax_4x16(%arg0: !hal.buffer_view) -> (!hal.buffer_view, !hal.buffer_view) attributes {iree.abi.stub, iree.reflection = {iree.abi.declaration = "sync func @test_simple_argmax_4x16(%input0: tensor<4x16x128256xf16>) -> (%output0: tensor<4x16xf16>, %output1: tensor<4x16xi32>)"}} {
  %c0_i32 = arith.constant 0 : i32
  %cst = arith.constant 0xFC00 : f16
  %0 = hal.tensor.import %arg0 "input0" : !hal.buffer_view -> tensor<4x16x128256xf16>
  %1 = tensor.empty() : tensor<4x16xf16>
  %2 = tensor.empty() : tensor<4x16xi32>
  %3 = linalg.fill ins(%cst : f16) outs(%1 : tensor<4x16xf16>) -> tensor<4x16xf16>
  %4 = linalg.fill ins(%c0_i32 : i32) outs(%2 : tensor<4x16xi32>) -> tensor<4x16xi32>
  %5:2 = iree_linalg_ext.arg_compare dimension(2) ins(%0 : tensor<4x16x128256xf16>) outs(%3, %4 : tensor<4x16xf16>, tensor<4x16xi32>) {
  ^bb0(%arg1: f16, %arg2: f16):
    %8 = arith.cmpf ogt, %arg1, %arg2 : f16
    iree_linalg_ext.yield %8 : i1
  } -> tensor<4x16xf16>, tensor<4x16xi32>
  %6 = hal.tensor.export %5#0 "output0" : tensor<4x16xf16> -> !hal.buffer_view
  %7 = hal.tensor.export %5#1 "output1" : tensor<4x16xi32> -> !hal.buffer_view
  util.return %6, %7 : !hal.buffer_view, !hal.buffer_view
}

// -----// IR Dump After CanonicalizePass (iree-flow-canonicalize) //----- //
util.func public @test_simple_argmax_4x16(%arg0: !hal.buffer_view) -> (!hal.buffer_view, !hal.buffer_view) attributes {iree.abi.stub, iree.reflection = {iree.abi.declaration = "sync func @test_simple_argmax_4x16(%input0: tensor<4x16x128256xf16>) -> (%output0: tensor<4x16xf16>, %output1: tensor<4x16xi32>)"}} {
  %c0_i32 = arith.constant 0 : i32
  %cst = arith.constant 0xFC00 : f16
  %0 = hal.tensor.import %arg0 "input0" : !hal.buffer_view -> tensor<4x16x128256xf16>
  %1 = tensor.empty() : tensor<4x16xf16>
  %2 = tensor.empty() : tensor<4x16xi32>
  %3 = linalg.fill ins(%cst : f16) outs(%1 : tensor<4x16xf16>) -> tensor<4x16xf16>
  %4 = linalg.fill ins(%c0_i32 : i32) outs(%2 : tensor<4x16xi32>) -> tensor<4x16xi32>
  %5:2 = iree_linalg_ext.arg_compare dimension(2) ins(%0 : tensor<4x16x128256xf16>) outs(%3, %4 : tensor<4x16xf16>, tensor<4x16xi32>) {
  ^bb0(%arg1: f16, %arg2: f16):
    %8 = arith.cmpf ogt, %arg1, %arg2 : f16
    iree_linalg_ext.yield %8 : i1
  } -> tensor<4x16xf16>, tensor<4x16xi32>
  %6 = hal.tensor.export %5#0 "output0" : tensor<4x16xf16> -> !hal.buffer_view
  %7 = hal.tensor.export %5#1 "output1" : tensor<4x16xi32> -> !hal.buffer_view
  util.return %6, %7 : !hal.buffer_view, !hal.buffer_view
}

// -----// IR Dump After RemoveZeroExtentTensorsPass (iree-global-opt-remove-zero-extent-tensors) //----- //
util.func public @test_simple_argmax_4x16(%arg0: !hal.buffer_view) -> (!hal.buffer_view, !hal.buffer_view) attributes {iree.abi.stub, iree.reflection = {iree.abi.declaration = "sync func @test_simple_argmax_4x16(%input0: tensor<4x16x128256xf16>) -> (%output0: tensor<4x16xf16>, %output1: tensor<4x16xi32>)"}} {
  %c0_i32 = arith.constant 0 : i32
  %cst = arith.constant 0xFC00 : f16
  %0 = hal.tensor.import %arg0 "input0" : !hal.buffer_view -> tensor<4x16x128256xf16>
  %1 = tensor.empty() : tensor<4x16xf16>
  %2 = tensor.empty() : tensor<4x16xi32>
  %3 = linalg.fill ins(%cst : f16) outs(%1 : tensor<4x16xf16>) -> tensor<4x16xf16>
  %4 = linalg.fill ins(%c0_i32 : i32) outs(%2 : tensor<4x16xi32>) -> tensor<4x16xi32>
  %5:2 = iree_linalg_ext.arg_compare dimension(2) ins(%0 : tensor<4x16x128256xf16>) outs(%3, %4 : tensor<4x16xf16>, tensor<4x16xi32>) {
  ^bb0(%arg1: f16, %arg2: f16):
    %8 = arith.cmpf ogt, %arg1, %arg2 : f16
    iree_linalg_ext.yield %8 : i1
  } -> tensor<4x16xf16>, tensor<4x16xi32>
  %6 = hal.tensor.export %5#0 "output0" : tensor<4x16xf16> -> !hal.buffer_view
  %7 = hal.tensor.export %5#1 "output1" : tensor<4x16xi32> -> !hal.buffer_view
  util.return %6, %7 : !hal.buffer_view, !hal.buffer_view
}

// -----// IR Dump After DetachElementwiseFromNamedOpsPass (iree-global-opt-detach-elementwise-from-named-ops) //----- //
util.func public @test_simple_argmax_4x16(%arg0: !hal.buffer_view) -> (!hal.buffer_view, !hal.buffer_view) attributes {iree.abi.stub, iree.reflection = {iree.abi.declaration = "sync func @test_simple_argmax_4x16(%input0: tensor<4x16x128256xf16>) -> (%output0: tensor<4x16xf16>, %output1: tensor<4x16xi32>)"}} {
  %c0_i32 = arith.constant 0 : i32
  %cst = arith.constant 0xFC00 : f16
  %0 = hal.tensor.import %arg0 "input0" : !hal.buffer_view -> tensor<4x16x128256xf16>
  %1 = tensor.empty() : tensor<4x16xf16>
  %2 = tensor.empty() : tensor<4x16xi32>
  %3 = linalg.fill ins(%cst : f16) outs(%1 : tensor<4x16xf16>) -> tensor<4x16xf16>
  %4 = linalg.fill ins(%c0_i32 : i32) outs(%2 : tensor<4x16xi32>) -> tensor<4x16xi32>
  %5:2 = iree_linalg_ext.arg_compare dimension(2) ins(%0 : tensor<4x16x128256xf16>) outs(%3, %4 : tensor<4x16xf16>, tensor<4x16xi32>) {
  ^bb0(%arg1: f16, %arg2: f16):
    %8 = arith.cmpf ogt, %arg1, %arg2 : f16
    iree_linalg_ext.yield %8 : i1
  } -> tensor<4x16xf16>, tensor<4x16xi32>
  %6 = hal.tensor.export %5#0 "output0" : tensor<4x16xf16> -> !hal.buffer_view
  %7 = hal.tensor.export %5#1 "output1" : tensor<4x16xi32> -> !hal.buffer_view
  util.return %6, %7 : !hal.buffer_view, !hal.buffer_view
}

// -----// IR Dump After SimplifyDepthwiseConvPass (simplify-depthwise-conv) //----- //
util.func public @test_simple_argmax_4x16(%arg0: !hal.buffer_view) -> (!hal.buffer_view, !hal.buffer_view) attributes {iree.abi.stub, iree.reflection = {iree.abi.declaration = "sync func @test_simple_argmax_4x16(%input0: tensor<4x16x128256xf16>) -> (%output0: tensor<4x16xf16>, %output1: tensor<4x16xi32>)"}} {
  %c0_i32 = arith.constant 0 : i32
  %cst = arith.constant 0xFC00 : f16
  %0 = hal.tensor.import %arg0 "input0" : !hal.buffer_view -> tensor<4x16x128256xf16>
  %1 = tensor.empty() : tensor<4x16xf16>
  %2 = tensor.empty() : tensor<4x16xi32>
  %3 = linalg.fill ins(%cst : f16) outs(%1 : tensor<4x16xf16>) -> tensor<4x16xf16>
  %4 = linalg.fill ins(%c0_i32 : i32) outs(%2 : tensor<4x16xi32>) -> tensor<4x16xi32>
  %5:2 = iree_linalg_ext.arg_compare dimension(2) ins(%0 : tensor<4x16x128256xf16>) outs(%3, %4 : tensor<4x16xf16>, tensor<4x16xi32>) {
  ^bb0(%arg1: f16, %arg2: f16):
    %8 = arith.cmpf ogt, %arg1, %arg2 : f16
    iree_linalg_ext.yield %8 : i1
  } -> tensor<4x16xf16>, tensor<4x16xi32>
  %6 = hal.tensor.export %5#0 "output0" : tensor<4x16xf16> -> !hal.buffer_view
  %7 = hal.tensor.export %5#1 "output1" : tensor<4x16xi32> -> !hal.buffer_view
  util.return %6, %7 : !hal.buffer_view, !hal.buffer_view
}

// -----// IR Dump After EraseUnusedLinalgOperandsPass (iree-global-opt-erase-unused-linalg-operands) //----- //
#executable_target_rocm_hsaco_fb = #hal.executable.target<"rocm", "rocm-hsaco-fb", {abi = "hip", iree.encoding.resolver = #iree_gpu.gpu_encoding_resolver<>, iree_codegen.default_tuning_spec = #rocm.builtin.tuning_module<"iree_default_tuning_spec_gfx942.mlir">, iree_codegen.target_info = #iree_gpu.target<arch = "gfx942", features = "", wgp = <compute =  fp64|fp32|fp16|int64|int32|int16|int8, storage =  b64|b32|b16|b8, subgroup =  shuffle|arithmetic, dot =  dp4xi8toi32, mma = [<MFMA_F32_16x16x16_BF16>, <MFMA_F32_32x32x8_BF16>, <MFMA_F32_16x16x32_F8E5M2FNUZ>, <MFMA_F32_16x16x32_F8E5M2FNUZ_F8E4M3FNUZ>, <MFMA_F32_16x16x32_F8E4M3FNUZ>, <MFMA_F32_16x16x32_F8E4M3FNUZ_F8E5M2FNUZ>, <MFMA_F32_32x32x16_F8E5M2FNUZ>, <MFMA_F32_32x32x16_F8E5M2FNUZ_F8E4M3FNUZ>, <MFMA_F32_32x32x16_F8E4M3FNUZ>, <MFMA_F32_32x32x16_F8E4M3FNUZ_F8E5M2FNUZ>, <MFMA_I32_16x16x32_I8>, <MFMA_I32_32x32x16_I8>, <MFMA_F64_16x16x4_F64>, <MFMA_F32_16x16x4_F32>, <MFMA_F32_16x16x16_F16>, <MFMA_F32_32x32x8_F16>], subgroup_size_choices = [64], max_workgroup_sizes = [1024, 1024, 1024], max_thread_count_per_workgroup = 1024, max_workgroup_memory_bytes = 65536, max_workgroup_counts = [2147483647, 2147483647, 2147483647], max_load_instruction_bits = 128, simds_per_wgp = 4, vgpr_space_bits = 16384, dma_sizes = [32]>>, ukernels = "none"}>
#device_target_hip = #hal.device.target<"hip", [#executable_target_rocm_hsaco_fb]> : !hal.device
module attributes {stream.affinity.default = #hal.device.affinity<@__device_0>} {
  util.global private @__device_0 = #device_target_hip
  util.func public @test_simple_argmax_4x16(%arg0: !hal.buffer_view) -> (!hal.buffer_view, !hal.buffer_view) attributes {iree.abi.stub, iree.reflection = {iree.abi.declaration = "sync func @test_simple_argmax_4x16(%input0: tensor<4x16x128256xf16>) -> (%output0: tensor<4x16xf16>, %output1: tensor<4x16xi32>)"}} {
    %c0_i32 = arith.constant 0 : i32
    %cst = arith.constant 0xFC00 : f16
    %0 = hal.tensor.import %arg0 "input0" : !hal.buffer_view -> tensor<4x16x128256xf16>
    %1 = tensor.empty() : tensor<4x16xf16>
    %2 = tensor.empty() : tensor<4x16xi32>
    %3 = linalg.fill ins(%cst : f16) outs(%1 : tensor<4x16xf16>) -> tensor<4x16xf16>
    %4 = linalg.fill ins(%c0_i32 : i32) outs(%2 : tensor<4x16xi32>) -> tensor<4x16xi32>
    %5:2 = iree_linalg_ext.arg_compare dimension(2) ins(%0 : tensor<4x16x128256xf16>) outs(%3, %4 : tensor<4x16xf16>, tensor<4x16xi32>) {
    ^bb0(%arg1: f16, %arg2: f16):
      %8 = arith.cmpf ogt, %arg1, %arg2 : f16
      iree_linalg_ext.yield %8 : i1
    } -> tensor<4x16xf16>, tensor<4x16xi32>
    %6 = hal.tensor.export %5#0 "output0" : tensor<4x16xf16> -> !hal.buffer_view
    %7 = hal.tensor.export %5#1 "output1" : tensor<4x16xi32> -> !hal.buffer_view
    util.return %6, %7 : !hal.buffer_view, !hal.buffer_view
  }
}


// -----// IR Dump After ExpandTensorShapesPass (iree-global-opt-expand-tensor-shapes) //----- //
#executable_target_rocm_hsaco_fb = #hal.executable.target<"rocm", "rocm-hsaco-fb", {abi = "hip", iree.encoding.resolver = #iree_gpu.gpu_encoding_resolver<>, iree_codegen.default_tuning_spec = #rocm.builtin.tuning_module<"iree_default_tuning_spec_gfx942.mlir">, iree_codegen.target_info = #iree_gpu.target<arch = "gfx942", features = "", wgp = <compute =  fp64|fp32|fp16|int64|int32|int16|int8, storage =  b64|b32|b16|b8, subgroup =  shuffle|arithmetic, dot =  dp4xi8toi32, mma = [<MFMA_F32_16x16x16_BF16>, <MFMA_F32_32x32x8_BF16>, <MFMA_F32_16x16x32_F8E5M2FNUZ>, <MFMA_F32_16x16x32_F8E5M2FNUZ_F8E4M3FNUZ>, <MFMA_F32_16x16x32_F8E4M3FNUZ>, <MFMA_F32_16x16x32_F8E4M3FNUZ_F8E5M2FNUZ>, <MFMA_F32_32x32x16_F8E5M2FNUZ>, <MFMA_F32_32x32x16_F8E5M2FNUZ_F8E4M3FNUZ>, <MFMA_F32_32x32x16_F8E4M3FNUZ>, <MFMA_F32_32x32x16_F8E4M3FNUZ_F8E5M2FNUZ>, <MFMA_I32_16x16x32_I8>, <MFMA_I32_32x32x16_I8>, <MFMA_F64_16x16x4_F64>, <MFMA_F32_16x16x4_F32>, <MFMA_F32_16x16x16_F16>, <MFMA_F32_32x32x8_F16>], subgroup_size_choices = [64], max_workgroup_sizes = [1024, 1024, 1024], max_thread_count_per_workgroup = 1024, max_workgroup_memory_bytes = 65536, max_workgroup_counts = [2147483647, 2147483647, 2147483647], max_load_instruction_bits = 128, simds_per_wgp = 4, vgpr_space_bits = 16384, dma_sizes = [32]>>, ukernels = "none"}>
#device_target_hip = #hal.device.target<"hip", [#executable_target_rocm_hsaco_fb]> : !hal.device
module attributes {stream.affinity.default = #hal.device.affinity<@__device_0>} {
  util.global private @__device_0 = #device_target_hip
  util.func public @test_simple_argmax_4x16(%arg0: !hal.buffer_view) -> (!hal.buffer_view, !hal.buffer_view) attributes {iree.abi.stub, iree.reflection = {iree.abi.declaration = "sync func @test_simple_argmax_4x16(%input0: tensor<4x16x128256xf16>) -> (%output0: tensor<4x16xf16>, %output1: tensor<4x16xi32>)"}} {
    %c0_i32 = arith.constant 0 : i32
    %cst = arith.constant 0xFC00 : f16
    %0 = hal.tensor.import %arg0 "input0" : !hal.buffer_view -> tensor<4x16x128256xf16>
    %1 = tensor.empty() : tensor<4x16xf16>
    %2 = tensor.empty() : tensor<4x16xi32>
    %3 = linalg.fill ins(%cst : f16) outs(%1 : tensor<4x16xf16>) -> tensor<4x16xf16>
    %4 = linalg.fill ins(%c0_i32 : i32) outs(%2 : tensor<4x16xi32>) -> tensor<4x16xi32>
    %5:2 = iree_linalg_ext.arg_compare dimension(2) ins(%0 : tensor<4x16x128256xf16>) outs(%3, %4 : tensor<4x16xf16>, tensor<4x16xi32>) {
    ^bb0(%arg1: f16, %arg2: f16):
      %8 = arith.cmpf ogt, %arg1, %arg2 : f16
      iree_linalg_ext.yield %8 : i1
    } -> tensor<4x16xf16>, tensor<4x16xi32>
    %6 = hal.tensor.export %5#0 "output0" : tensor<4x16xf16> -> !hal.buffer_view
    %7 = hal.tensor.export %5#1 "output1" : tensor<4x16xi32> -> !hal.buffer_view
    util.return %6, %7 : !hal.buffer_view, !hal.buffer_view
  }
}


// -----// IR Dump After ConvertElementwiseToLinalgPass (convert-elementwise-to-linalg) //----- //
util.func public @test_simple_argmax_4x16(%arg0: !hal.buffer_view) -> (!hal.buffer_view, !hal.buffer_view) attributes {iree.abi.stub, iree.reflection = {iree.abi.declaration = "sync func @test_simple_argmax_4x16(%input0: tensor<4x16x128256xf16>) -> (%output0: tensor<4x16xf16>, %output1: tensor<4x16xi32>)"}} {
  %c0_i32 = arith.constant 0 : i32
  %cst = arith.constant 0xFC00 : f16
  %0 = hal.tensor.import %arg0 "input0" : !hal.buffer_view -> tensor<4x16x128256xf16>
  %1 = tensor.empty() : tensor<4x16xf16>
  %2 = tensor.empty() : tensor<4x16xi32>
  %3 = linalg.fill ins(%cst : f16) outs(%1 : tensor<4x16xf16>) -> tensor<4x16xf16>
  %4 = linalg.fill ins(%c0_i32 : i32) outs(%2 : tensor<4x16xi32>) -> tensor<4x16xi32>
  %5:2 = iree_linalg_ext.arg_compare dimension(2) ins(%0 : tensor<4x16x128256xf16>) outs(%3, %4 : tensor<4x16xf16>, tensor<4x16xi32>) {
  ^bb0(%arg1: f16, %arg2: f16):
    %8 = arith.cmpf ogt, %arg1, %arg2 : f16
    iree_linalg_ext.yield %8 : i1
  } -> tensor<4x16xf16>, tensor<4x16xi32>
  %6 = hal.tensor.export %5#0 "output0" : tensor<4x16xf16> -> !hal.buffer_view
  %7 = hal.tensor.export %5#1 "output1" : tensor<4x16xi32> -> !hal.buffer_view
  util.return %6, %7 : !hal.buffer_view, !hal.buffer_view
}

// -----// IR Dump After RaiseSpecialOpsPass (iree-global-opt-raise-special-ops) //----- //
util.func public @test_simple_argmax_4x16(%arg0: !hal.buffer_view) -> (!hal.buffer_view, !hal.buffer_view) attributes {iree.abi.stub, iree.reflection = {iree.abi.declaration = "sync func @test_simple_argmax_4x16(%input0: tensor<4x16x128256xf16>) -> (%output0: tensor<4x16xf16>, %output1: tensor<4x16xi32>)"}} {
  %c0_i32 = arith.constant 0 : i32
  %cst = arith.constant 0xFC00 : f16
  %0 = hal.tensor.import %arg0 "input0" : !hal.buffer_view -> tensor<4x16x128256xf16>
  %1 = tensor.empty() : tensor<4x16xf16>
  %2 = tensor.empty() : tensor<4x16xi32>
  %3 = linalg.fill ins(%cst : f16) outs(%1 : tensor<4x16xf16>) -> tensor<4x16xf16>
  %4 = linalg.fill ins(%c0_i32 : i32) outs(%2 : tensor<4x16xi32>) -> tensor<4x16xi32>
  %5:2 = iree_linalg_ext.arg_compare dimension(2) ins(%0 : tensor<4x16x128256xf16>) outs(%3, %4 : tensor<4x16xf16>, tensor<4x16xi32>) {
  ^bb0(%arg1: f16, %arg2: f16):
    %8 = arith.cmpf ogt, %arg1, %arg2 : f16
    iree_linalg_ext.yield %8 : i1
  } -> tensor<4x16xf16>, tensor<4x16xi32>
  %6 = hal.tensor.export %5#0 "output0" : tensor<4x16xf16> -> !hal.buffer_view
  %7 = hal.tensor.export %5#1 "output1" : tensor<4x16xi32> -> !hal.buffer_view
  util.return %6, %7 : !hal.buffer_view, !hal.buffer_view
}

// -----// IR Dump After DecomposeConcatPass (iree-global-opt-decompose-concat) //----- //
util.func public @test_simple_argmax_4x16(%arg0: !hal.buffer_view) -> (!hal.buffer_view, !hal.buffer_view) attributes {iree.abi.stub, iree.reflection = {iree.abi.declaration = "sync func @test_simple_argmax_4x16(%input0: tensor<4x16x128256xf16>) -> (%output0: tensor<4x16xf16>, %output1: tensor<4x16xi32>)"}} {
  %c0_i32 = arith.constant 0 : i32
  %cst = arith.constant 0xFC00 : f16
  %0 = hal.tensor.import %arg0 "input0" : !hal.buffer_view -> tensor<4x16x128256xf16>
  %1 = tensor.empty() : tensor<4x16xf16>
  %2 = tensor.empty() : tensor<4x16xi32>
  %3 = linalg.fill ins(%cst : f16) outs(%1 : tensor<4x16xf16>) -> tensor<4x16xf16>
  %4 = linalg.fill ins(%c0_i32 : i32) outs(%2 : tensor<4x16xi32>) -> tensor<4x16xi32>
  %5:2 = iree_linalg_ext.arg_compare dimension(2) ins(%0 : tensor<4x16x128256xf16>) outs(%3, %4 : tensor<4x16xf16>, tensor<4x16xi32>) {
  ^bb0(%arg1: f16, %arg2: f16):
    %8 = arith.cmpf ogt, %arg1, %arg2 : f16
    iree_linalg_ext.yield %8 : i1
  } -> tensor<4x16xf16>, tensor<4x16xi32>
  %6 = hal.tensor.export %5#0 "output0" : tensor<4x16xf16> -> !hal.buffer_view
  %7 = hal.tensor.export %5#1 "output1" : tensor<4x16xi32> -> !hal.buffer_view
  util.return %6, %7 : !hal.buffer_view, !hal.buffer_view
}

// -----// IR Dump After GeneralizeLinalgNamedOpsPass (iree-global-opt-generalize-linalg-named-ops) //----- //
util.func public @test_simple_argmax_4x16(%arg0: !hal.buffer_view) -> (!hal.buffer_view, !hal.buffer_view) attributes {iree.abi.stub, iree.reflection = {iree.abi.declaration = "sync func @test_simple_argmax_4x16(%input0: tensor<4x16x128256xf16>) -> (%output0: tensor<4x16xf16>, %output1: tensor<4x16xi32>)"}} {
  %c0_i32 = arith.constant 0 : i32
  %cst = arith.constant 0xFC00 : f16
  %0 = hal.tensor.import %arg0 "input0" : !hal.buffer_view -> tensor<4x16x128256xf16>
  %1 = tensor.empty() : tensor<4x16xf16>
  %2 = tensor.empty() : tensor<4x16xi32>
  %3 = linalg.fill ins(%cst : f16) outs(%1 : tensor<4x16xf16>) -> tensor<4x16xf16>
  %4 = linalg.fill ins(%c0_i32 : i32) outs(%2 : tensor<4x16xi32>) -> tensor<4x16xi32>
  %5:2 = iree_linalg_ext.arg_compare dimension(2) ins(%0 : tensor<4x16x128256xf16>) outs(%3, %4 : tensor<4x16xf16>, tensor<4x16xi32>) {
  ^bb0(%arg1: f16, %arg2: f16):
    %8 = arith.cmpf ogt, %arg1, %arg2 : f16
    iree_linalg_ext.yield %8 : i1
  } -> tensor<4x16xf16>, tensor<4x16xi32>
  %6 = hal.tensor.export %5#0 "output0" : tensor<4x16xf16> -> !hal.buffer_view
  %7 = hal.tensor.export %5#1 "output1" : tensor<4x16xi32> -> !hal.buffer_view
  util.return %6, %7 : !hal.buffer_view, !hal.buffer_view
}

// -----// IR Dump After InsertTensorBarriersPass (iree-dispatch-creation-insert-tensor-barriers) //----- //
util.func public @test_simple_argmax_4x16(%arg0: !hal.buffer_view) -> (!hal.buffer_view, !hal.buffer_view) attributes {iree.abi.stub, iree.reflection = {iree.abi.declaration = "sync func @test_simple_argmax_4x16(%input0: tensor<4x16x128256xf16>) -> (%output0: tensor<4x16xf16>, %output1: tensor<4x16xi32>)"}} {
  %c0_i32 = arith.constant 0 : i32
  %cst = arith.constant 0xFC00 : f16
  %0 = hal.tensor.import %arg0 "input0" : !hal.buffer_view -> tensor<4x16x128256xf16>
  %1 = iree_tensor_ext.compute_barrier.start %0 : tensor<4x16x128256xf16> -> tensor<4x16x128256xf16>
  %2 = tensor.empty() : tensor<4x16xf16>
  %3 = tensor.empty() : tensor<4x16xi32>
  %4 = linalg.fill ins(%cst : f16) outs(%2 : tensor<4x16xf16>) -> tensor<4x16xf16>
  %5 = linalg.fill ins(%c0_i32 : i32) outs(%3 : tensor<4x16xi32>) -> tensor<4x16xi32>
  %6:2 = iree_linalg_ext.arg_compare dimension(2) ins(%1 : tensor<4x16x128256xf16>) outs(%4, %5 : tensor<4x16xf16>, tensor<4x16xi32>) {
  ^bb0(%arg1: f16, %arg2: f16):
    %11 = arith.cmpf ogt, %arg1, %arg2 : f16
    iree_linalg_ext.yield %11 : i1
  } -> tensor<4x16xf16>, tensor<4x16xi32>
  %7 = iree_tensor_ext.compute_barrier.end %6#1 : tensor<4x16xi32> -> tensor<4x16xi32>
  %8 = iree_tensor_ext.compute_barrier.end %6#0 : tensor<4x16xf16> -> tensor<4x16xf16>
  %9 = hal.tensor.export %8 "output0" : tensor<4x16xf16> -> !hal.buffer_view
  %10 = hal.tensor.export %7 "output1" : tensor<4x16xi32> -> !hal.buffer_view
  util.return %9, %10 : !hal.buffer_view, !hal.buffer_view
}

// -----// IR Dump After FoldUnitExtentDimsPass (iree-dispatch-creation-fold-unit-extent-dims) //----- //
#executable_target_rocm_hsaco_fb = #hal.executable.target<"rocm", "rocm-hsaco-fb", {abi = "hip", iree.encoding.resolver = #iree_gpu.gpu_encoding_resolver<>, iree_codegen.default_tuning_spec = #rocm.builtin.tuning_module<"iree_default_tuning_spec_gfx942.mlir">, iree_codegen.target_info = #iree_gpu.target<arch = "gfx942", features = "", wgp = <compute =  fp64|fp32|fp16|int64|int32|int16|int8, storage =  b64|b32|b16|b8, subgroup =  shuffle|arithmetic, dot =  dp4xi8toi32, mma = [<MFMA_F32_16x16x16_BF16>, <MFMA_F32_32x32x8_BF16>, <MFMA_F32_16x16x32_F8E5M2FNUZ>, <MFMA_F32_16x16x32_F8E5M2FNUZ_F8E4M3FNUZ>, <MFMA_F32_16x16x32_F8E4M3FNUZ>, <MFMA_F32_16x16x32_F8E4M3FNUZ_F8E5M2FNUZ>, <MFMA_F32_32x32x16_F8E5M2FNUZ>, <MFMA_F32_32x32x16_F8E5M2FNUZ_F8E4M3FNUZ>, <MFMA_F32_32x32x16_F8E4M3FNUZ>, <MFMA_F32_32x32x16_F8E4M3FNUZ_F8E5M2FNUZ>, <MFMA_I32_16x16x32_I8>, <MFMA_I32_32x32x16_I8>, <MFMA_F64_16x16x4_F64>, <MFMA_F32_16x16x4_F32>, <MFMA_F32_16x16x16_F16>, <MFMA_F32_32x32x8_F16>], subgroup_size_choices = [64], max_workgroup_sizes = [1024, 1024, 1024], max_thread_count_per_workgroup = 1024, max_workgroup_memory_bytes = 65536, max_workgroup_counts = [2147483647, 2147483647, 2147483647], max_load_instruction_bits = 128, simds_per_wgp = 4, vgpr_space_bits = 16384, dma_sizes = [32]>>, ukernels = "none"}>
#device_target_hip = #hal.device.target<"hip", [#executable_target_rocm_hsaco_fb]> : !hal.device
module attributes {stream.affinity.default = #hal.device.affinity<@__device_0>} {
  util.global private @__device_0 = #device_target_hip
  util.func public @test_simple_argmax_4x16(%arg0: !hal.buffer_view) -> (!hal.buffer_view, !hal.buffer_view) attributes {iree.abi.stub, iree.reflection = {iree.abi.declaration = "sync func @test_simple_argmax_4x16(%input0: tensor<4x16x128256xf16>) -> (%output0: tensor<4x16xf16>, %output1: tensor<4x16xi32>)"}} {
    %c0_i32 = arith.constant 0 : i32
    %cst = arith.constant 0xFC00 : f16
    %0 = hal.tensor.import %arg0 "input0" : !hal.buffer_view -> tensor<4x16x128256xf16>
    %1 = iree_tensor_ext.compute_barrier.start %0 : tensor<4x16x128256xf16> -> tensor<4x16x128256xf16>
    %2 = tensor.empty() : tensor<4x16xf16>
    %3 = tensor.empty() : tensor<4x16xi32>
    %4 = linalg.fill ins(%cst : f16) outs(%2 : tensor<4x16xf16>) -> tensor<4x16xf16>
    %5 = linalg.fill ins(%c0_i32 : i32) outs(%3 : tensor<4x16xi32>) -> tensor<4x16xi32>
    %6:2 = iree_linalg_ext.arg_compare dimension(2) ins(%1 : tensor<4x16x128256xf16>) outs(%4, %5 : tensor<4x16xf16>, tensor<4x16xi32>) {
    ^bb0(%arg1: f16, %arg2: f16):
      %11 = arith.cmpf ogt, %arg1, %arg2 : f16
      iree_linalg_ext.yield %11 : i1
    } -> tensor<4x16xf16>, tensor<4x16xi32>
    %7 = iree_tensor_ext.compute_barrier.end %6#1 : tensor<4x16xi32> -> tensor<4x16xi32>
    %8 = iree_tensor_ext.compute_barrier.end %6#0 : tensor<4x16xf16> -> tensor<4x16xf16>
    %9 = hal.tensor.export %8 "output0" : tensor<4x16xf16> -> !hal.buffer_view
    %10 = hal.tensor.export %7 "output1" : tensor<4x16xi32> -> !hal.buffer_view
    util.return %9, %10 : !hal.buffer_view, !hal.buffer_view
  }
}


// -----// IR Dump After DemoteContractionInputsToBF16Pass (iree-global-opt-demote-contraction-inputs-to-bf16) //----- //
util.func public @test_simple_argmax_4x16(%arg0: !hal.buffer_view) -> (!hal.buffer_view, !hal.buffer_view) attributes {iree.abi.stub, iree.reflection = {iree.abi.declaration = "sync func @test_simple_argmax_4x16(%input0: tensor<4x16x128256xf16>) -> (%output0: tensor<4x16xf16>, %output1: tensor<4x16xi32>)"}} {
  %c0_i32 = arith.constant 0 : i32
  %cst = arith.constant 0xFC00 : f16
  %0 = hal.tensor.import %arg0 "input0" : !hal.buffer_view -> tensor<4x16x128256xf16>
  %1 = iree_tensor_ext.compute_barrier.start %0 : tensor<4x16x128256xf16> -> tensor<4x16x128256xf16>
  %2 = tensor.empty() : tensor<4x16xf16>
  %3 = tensor.empty() : tensor<4x16xi32>
  %4 = linalg.fill ins(%cst : f16) outs(%2 : tensor<4x16xf16>) -> tensor<4x16xf16>
  %5 = linalg.fill ins(%c0_i32 : i32) outs(%3 : tensor<4x16xi32>) -> tensor<4x16xi32>
  %6:2 = iree_linalg_ext.arg_compare dimension(2) ins(%1 : tensor<4x16x128256xf16>) outs(%4, %5 : tensor<4x16xf16>, tensor<4x16xi32>) {
  ^bb0(%arg1: f16, %arg2: f16):
    %11 = arith.cmpf ogt, %arg1, %arg2 : f16
    iree_linalg_ext.yield %11 : i1
  } -> tensor<4x16xf16>, tensor<4x16xi32>
  %7 = iree_tensor_ext.compute_barrier.end %6#1 : tensor<4x16xi32> -> tensor<4x16xi32>
  %8 = iree_tensor_ext.compute_barrier.end %6#0 : tensor<4x16xf16> -> tensor<4x16xf16>
  %9 = hal.tensor.export %8 "output0" : tensor<4x16xf16> -> !hal.buffer_view
  %10 = hal.tensor.export %7 "output1" : tensor<4x16xi32> -> !hal.buffer_view
  util.return %9, %10 : !hal.buffer_view, !hal.buffer_view
}

// -----// IR Dump After CanonicalizePass (iree-flow-canonicalize) //----- //
util.func public @test_simple_argmax_4x16(%arg0: !hal.buffer_view) -> (!hal.buffer_view, !hal.buffer_view) attributes {iree.abi.stub, iree.reflection = {iree.abi.declaration = "sync func @test_simple_argmax_4x16(%input0: tensor<4x16x128256xf16>) -> (%output0: tensor<4x16xf16>, %output1: tensor<4x16xi32>)"}} {
  %c0_i32 = arith.constant 0 : i32
  %cst = arith.constant 0xFC00 : f16
  %0 = hal.tensor.import %arg0 "input0" : !hal.buffer_view -> tensor<4x16x128256xf16>
  %1 = iree_tensor_ext.compute_barrier.start %0 : tensor<4x16x128256xf16> -> tensor<4x16x128256xf16>
  %2 = tensor.empty() : tensor<4x16xf16>
  %3 = tensor.empty() : tensor<4x16xi32>
  %4 = linalg.fill ins(%cst : f16) outs(%2 : tensor<4x16xf16>) -> tensor<4x16xf16>
  %5 = linalg.fill ins(%c0_i32 : i32) outs(%3 : tensor<4x16xi32>) -> tensor<4x16xi32>
  %6:2 = iree_linalg_ext.arg_compare dimension(2) ins(%1 : tensor<4x16x128256xf16>) outs(%4, %5 : tensor<4x16xf16>, tensor<4x16xi32>) {
  ^bb0(%arg1: f16, %arg2: f16):
    %11 = arith.cmpf ogt, %arg1, %arg2 : f16
    iree_linalg_ext.yield %11 : i1
  } -> tensor<4x16xf16>, tensor<4x16xi32>
  %7 = iree_tensor_ext.compute_barrier.end %6#1 : tensor<4x16xi32> -> tensor<4x16xi32>
  %8 = iree_tensor_ext.compute_barrier.end %6#0 : tensor<4x16xf16> -> tensor<4x16xf16>
  %9 = hal.tensor.export %8 "output0" : tensor<4x16xf16> -> !hal.buffer_view
  %10 = hal.tensor.export %7 "output1" : tensor<4x16xi32> -> !hal.buffer_view
  util.return %9, %10 : !hal.buffer_view, !hal.buffer_view
}

// -----// IR Dump After CSE (cse) //----- //
util.func public @test_simple_argmax_4x16(%arg0: !hal.buffer_view) -> (!hal.buffer_view, !hal.buffer_view) attributes {iree.abi.stub, iree.reflection = {iree.abi.declaration = "sync func @test_simple_argmax_4x16(%input0: tensor<4x16x128256xf16>) -> (%output0: tensor<4x16xf16>, %output1: tensor<4x16xi32>)"}} {
  %c0_i32 = arith.constant 0 : i32
  %cst = arith.constant 0xFC00 : f16
  %0 = hal.tensor.import %arg0 "input0" : !hal.buffer_view -> tensor<4x16x128256xf16>
  %1 = iree_tensor_ext.compute_barrier.start %0 : tensor<4x16x128256xf16> -> tensor<4x16x128256xf16>
  %2 = tensor.empty() : tensor<4x16xf16>
  %3 = tensor.empty() : tensor<4x16xi32>
  %4 = linalg.fill ins(%cst : f16) outs(%2 : tensor<4x16xf16>) -> tensor<4x16xf16>
  %5 = linalg.fill ins(%c0_i32 : i32) outs(%3 : tensor<4x16xi32>) -> tensor<4x16xi32>
  %6:2 = iree_linalg_ext.arg_compare dimension(2) ins(%1 : tensor<4x16x128256xf16>) outs(%4, %5 : tensor<4x16xf16>, tensor<4x16xi32>) {
  ^bb0(%arg1: f16, %arg2: f16):
    %11 = arith.cmpf ogt, %arg1, %arg2 : f16
    iree_linalg_ext.yield %11 : i1
  } -> tensor<4x16xf16>, tensor<4x16xi32>
  %7 = iree_tensor_ext.compute_barrier.end %6#1 : tensor<4x16xi32> -> tensor<4x16xi32>
  %8 = iree_tensor_ext.compute_barrier.end %6#0 : tensor<4x16xf16> -> tensor<4x16xf16>
  %9 = hal.tensor.export %8 "output0" : tensor<4x16xf16> -> !hal.buffer_view
  %10 = hal.tensor.export %7 "output1" : tensor<4x16xi32> -> !hal.buffer_view
  util.return %9, %10 : !hal.buffer_view, !hal.buffer_view
}

// -----// IR Dump After PropagateLinalgTransposePass (iree-global-opt-propagate-linalg-transpose) //----- //
util.func public @test_simple_argmax_4x16(%arg0: !hal.buffer_view) -> (!hal.buffer_view, !hal.buffer_view) attributes {iree.abi.stub, iree.reflection = {iree.abi.declaration = "sync func @test_simple_argmax_4x16(%input0: tensor<4x16x128256xf16>) -> (%output0: tensor<4x16xf16>, %output1: tensor<4x16xi32>)"}} {
  %c0_i32 = arith.constant 0 : i32
  %cst = arith.constant 0xFC00 : f16
  %0 = hal.tensor.import %arg0 "input0" : !hal.buffer_view -> tensor<4x16x128256xf16>
  %1 = iree_tensor_ext.compute_barrier.start %0 : tensor<4x16x128256xf16> -> tensor<4x16x128256xf16>
  %2 = tensor.empty() : tensor<4x16xf16>
  %3 = tensor.empty() : tensor<4x16xi32>
  %4 = linalg.fill ins(%cst : f16) outs(%2 : tensor<4x16xf16>) -> tensor<4x16xf16>
  %5 = linalg.fill ins(%c0_i32 : i32) outs(%3 : tensor<4x16xi32>) -> tensor<4x16xi32>
  %6:2 = iree_linalg_ext.arg_compare dimension(2) ins(%1 : tensor<4x16x128256xf16>) outs(%4, %5 : tensor<4x16xf16>, tensor<4x16xi32>) {
  ^bb0(%arg1: f16, %arg2: f16):
    %11 = arith.cmpf ogt, %arg1, %arg2 : f16
    iree_linalg_ext.yield %11 : i1
  } -> tensor<4x16xf16>, tensor<4x16xi32>
  %7 = iree_tensor_ext.compute_barrier.end %6#1 : tensor<4x16xi32> -> tensor<4x16xi32>
  %8 = iree_tensor_ext.compute_barrier.end %6#0 : tensor<4x16xf16> -> tensor<4x16xf16>
  %9 = hal.tensor.export %8 "output0" : tensor<4x16xf16> -> !hal.buffer_view
  %10 = hal.tensor.export %7 "output1" : tensor<4x16xi32> -> !hal.buffer_view
  util.return %9, %10 : !hal.buffer_view, !hal.buffer_view
}

// -----// IR Dump After CanonicalizePass (iree-flow-canonicalize) //----- //
util.func public @test_simple_argmax_4x16(%arg0: !hal.buffer_view) -> (!hal.buffer_view, !hal.buffer_view) attributes {iree.abi.stub, iree.reflection = {iree.abi.declaration = "sync func @test_simple_argmax_4x16(%input0: tensor<4x16x128256xf16>) -> (%output0: tensor<4x16xf16>, %output1: tensor<4x16xi32>)"}} {
  %c0_i32 = arith.constant 0 : i32
  %cst = arith.constant 0xFC00 : f16
  %0 = hal.tensor.import %arg0 "input0" : !hal.buffer_view -> tensor<4x16x128256xf16>
  %1 = iree_tensor_ext.compute_barrier.start %0 : tensor<4x16x128256xf16> -> tensor<4x16x128256xf16>
  %2 = tensor.empty() : tensor<4x16xf16>
  %3 = tensor.empty() : tensor<4x16xi32>
  %4 = linalg.fill ins(%cst : f16) outs(%2 : tensor<4x16xf16>) -> tensor<4x16xf16>
  %5 = linalg.fill ins(%c0_i32 : i32) outs(%3 : tensor<4x16xi32>) -> tensor<4x16xi32>
  %6:2 = iree_linalg_ext.arg_compare dimension(2) ins(%1 : tensor<4x16x128256xf16>) outs(%4, %5 : tensor<4x16xf16>, tensor<4x16xi32>) {
  ^bb0(%arg1: f16, %arg2: f16):
    %11 = arith.cmpf ogt, %arg1, %arg2 : f16
    iree_linalg_ext.yield %11 : i1
  } -> tensor<4x16xf16>, tensor<4x16xi32>
  %7 = iree_tensor_ext.compute_barrier.end %6#1 : tensor<4x16xi32> -> tensor<4x16xi32>
  %8 = iree_tensor_ext.compute_barrier.end %6#0 : tensor<4x16xf16> -> tensor<4x16xf16>
  %9 = hal.tensor.export %8 "output0" : tensor<4x16xf16> -> !hal.buffer_view
  %10 = hal.tensor.export %7 "output1" : tensor<4x16xi32> -> !hal.buffer_view
  util.return %9, %10 : !hal.buffer_view, !hal.buffer_view
}

// -----// IR Dump After CSE (cse) //----- //
util.func public @test_simple_argmax_4x16(%arg0: !hal.buffer_view) -> (!hal.buffer_view, !hal.buffer_view) attributes {iree.abi.stub, iree.reflection = {iree.abi.declaration = "sync func @test_simple_argmax_4x16(%input0: tensor<4x16x128256xf16>) -> (%output0: tensor<4x16xf16>, %output1: tensor<4x16xi32>)"}} {
  %c0_i32 = arith.constant 0 : i32
  %cst = arith.constant 0xFC00 : f16
  %0 = hal.tensor.import %arg0 "input0" : !hal.buffer_view -> tensor<4x16x128256xf16>
  %1 = iree_tensor_ext.compute_barrier.start %0 : tensor<4x16x128256xf16> -> tensor<4x16x128256xf16>
  %2 = tensor.empty() : tensor<4x16xf16>
  %3 = tensor.empty() : tensor<4x16xi32>
  %4 = linalg.fill ins(%cst : f16) outs(%2 : tensor<4x16xf16>) -> tensor<4x16xf16>
  %5 = linalg.fill ins(%c0_i32 : i32) outs(%3 : tensor<4x16xi32>) -> tensor<4x16xi32>
  %6:2 = iree_linalg_ext.arg_compare dimension(2) ins(%1 : tensor<4x16x128256xf16>) outs(%4, %5 : tensor<4x16xf16>, tensor<4x16xi32>) {
  ^bb0(%arg1: f16, %arg2: f16):
    %11 = arith.cmpf ogt, %arg1, %arg2 : f16
    iree_linalg_ext.yield %11 : i1
  } -> tensor<4x16xf16>, tensor<4x16xi32>
  %7 = iree_tensor_ext.compute_barrier.end %6#1 : tensor<4x16xi32> -> tensor<4x16xi32>
  %8 = iree_tensor_ext.compute_barrier.end %6#0 : tensor<4x16xf16> -> tensor<4x16xf16>
  %9 = hal.tensor.export %8 "output0" : tensor<4x16xf16> -> !hal.buffer_view
  %10 = hal.tensor.export %7 "output1" : tensor<4x16xi32> -> !hal.buffer_view
  util.return %9, %10 : !hal.buffer_view, !hal.buffer_view
}

// -----// IR Dump After ConvertStridedContractionToContractionPass (iree-global-opt-convert-strided-contraction-to-contraction) //----- //
#executable_target_rocm_hsaco_fb = #hal.executable.target<"rocm", "rocm-hsaco-fb", {abi = "hip", iree.encoding.resolver = #iree_gpu.gpu_encoding_resolver<>, iree_codegen.default_tuning_spec = #rocm.builtin.tuning_module<"iree_default_tuning_spec_gfx942.mlir">, iree_codegen.target_info = #iree_gpu.target<arch = "gfx942", features = "", wgp = <compute =  fp64|fp32|fp16|int64|int32|int16|int8, storage =  b64|b32|b16|b8, subgroup =  shuffle|arithmetic, dot =  dp4xi8toi32, mma = [<MFMA_F32_16x16x16_BF16>, <MFMA_F32_32x32x8_BF16>, <MFMA_F32_16x16x32_F8E5M2FNUZ>, <MFMA_F32_16x16x32_F8E5M2FNUZ_F8E4M3FNUZ>, <MFMA_F32_16x16x32_F8E4M3FNUZ>, <MFMA_F32_16x16x32_F8E4M3FNUZ_F8E5M2FNUZ>, <MFMA_F32_32x32x16_F8E5M2FNUZ>, <MFMA_F32_32x32x16_F8E5M2FNUZ_F8E4M3FNUZ>, <MFMA_F32_32x32x16_F8E4M3FNUZ>, <MFMA_F32_32x32x16_F8E4M3FNUZ_F8E5M2FNUZ>, <MFMA_I32_16x16x32_I8>, <MFMA_I32_32x32x16_I8>, <MFMA_F64_16x16x4_F64>, <MFMA_F32_16x16x4_F32>, <MFMA_F32_16x16x16_F16>, <MFMA_F32_32x32x8_F16>], subgroup_size_choices = [64], max_workgroup_sizes = [1024, 1024, 1024], max_thread_count_per_workgroup = 1024, max_workgroup_memory_bytes = 65536, max_workgroup_counts = [2147483647, 2147483647, 2147483647], max_load_instruction_bits = 128, simds_per_wgp = 4, vgpr_space_bits = 16384, dma_sizes = [32]>>, ukernels = "none"}>
#device_target_hip = #hal.device.target<"hip", [#executable_target_rocm_hsaco_fb]> : !hal.device
module attributes {stream.affinity.default = #hal.device.affinity<@__device_0>} {
  util.global private @__device_0 = #device_target_hip
  util.func public @test_simple_argmax_4x16(%arg0: !hal.buffer_view) -> (!hal.buffer_view, !hal.buffer_view) attributes {iree.abi.stub, iree.reflection = {iree.abi.declaration = "sync func @test_simple_argmax_4x16(%input0: tensor<4x16x128256xf16>) -> (%output0: tensor<4x16xf16>, %output1: tensor<4x16xi32>)"}} {
    %c0_i32 = arith.constant 0 : i32
    %cst = arith.constant 0xFC00 : f16
    %0 = hal.tensor.import %arg0 "input0" : !hal.buffer_view -> tensor<4x16x128256xf16>
    %1 = iree_tensor_ext.compute_barrier.start %0 : tensor<4x16x128256xf16> -> tensor<4x16x128256xf16>
    %2 = tensor.empty() : tensor<4x16xf16>
    %3 = tensor.empty() : tensor<4x16xi32>
    %4 = linalg.fill ins(%cst : f16) outs(%2 : tensor<4x16xf16>) -> tensor<4x16xf16>
    %5 = linalg.fill ins(%c0_i32 : i32) outs(%3 : tensor<4x16xi32>) -> tensor<4x16xi32>
    %6:2 = iree_linalg_ext.arg_compare dimension(2) ins(%1 : tensor<4x16x128256xf16>) outs(%4, %5 : tensor<4x16xf16>, tensor<4x16xi32>) {
    ^bb0(%arg1: f16, %arg2: f16):
      %11 = arith.cmpf ogt, %arg1, %arg2 : f16
      iree_linalg_ext.yield %11 : i1
    } -> tensor<4x16xf16>, tensor<4x16xi32>
    %7 = iree_tensor_ext.compute_barrier.end %6#1 : tensor<4x16xi32> -> tensor<4x16xi32>
    %8 = iree_tensor_ext.compute_barrier.end %6#0 : tensor<4x16xf16> -> tensor<4x16xf16>
    %9 = hal.tensor.export %8 "output0" : tensor<4x16xf16> -> !hal.buffer_view
    %10 = hal.tensor.export %7 "output1" : tensor<4x16xi32> -> !hal.buffer_view
    util.return %9, %10 : !hal.buffer_view, !hal.buffer_view
  }
}


// -----// IR Dump After GeneralizeLinalgNamedOpsPass (iree-global-opt-generalize-linalg-named-ops) //----- //
util.func public @test_simple_argmax_4x16(%arg0: !hal.buffer_view) -> (!hal.buffer_view, !hal.buffer_view) attributes {iree.abi.stub, iree.reflection = {iree.abi.declaration = "sync func @test_simple_argmax_4x16(%input0: tensor<4x16x128256xf16>) -> (%output0: tensor<4x16xf16>, %output1: tensor<4x16xi32>)"}} {
  %c0_i32 = arith.constant 0 : i32
  %cst = arith.constant 0xFC00 : f16
  %0 = hal.tensor.import %arg0 "input0" : !hal.buffer_view -> tensor<4x16x128256xf16>
  %1 = iree_tensor_ext.compute_barrier.start %0 : tensor<4x16x128256xf16> -> tensor<4x16x128256xf16>
  %2 = tensor.empty() : tensor<4x16xf16>
  %3 = tensor.empty() : tensor<4x16xi32>
  %4 = linalg.fill ins(%cst : f16) outs(%2 : tensor<4x16xf16>) -> tensor<4x16xf16>
  %5 = linalg.fill ins(%c0_i32 : i32) outs(%3 : tensor<4x16xi32>) -> tensor<4x16xi32>
  %6:2 = iree_linalg_ext.arg_compare dimension(2) ins(%1 : tensor<4x16x128256xf16>) outs(%4, %5 : tensor<4x16xf16>, tensor<4x16xi32>) {
  ^bb0(%arg1: f16, %arg2: f16):
    %11 = arith.cmpf ogt, %arg1, %arg2 : f16
    iree_linalg_ext.yield %11 : i1
  } -> tensor<4x16xf16>, tensor<4x16xi32>
  %7 = iree_tensor_ext.compute_barrier.end %6#1 : tensor<4x16xi32> -> tensor<4x16xi32>
  %8 = iree_tensor_ext.compute_barrier.end %6#0 : tensor<4x16xf16> -> tensor<4x16xf16>
  %9 = hal.tensor.export %8 "output0" : tensor<4x16xf16> -> !hal.buffer_view
  %10 = hal.tensor.export %7 "output1" : tensor<4x16xi32> -> !hal.buffer_view
  util.return %9, %10 : !hal.buffer_view, !hal.buffer_view
}

// -----// IR Dump After GlobalLoopInvariantCodeMotionPass (iree-global-opt-loop-invariant-code-motion) //----- //
util.func public @test_simple_argmax_4x16(%arg0: !hal.buffer_view) -> (!hal.buffer_view, !hal.buffer_view) attributes {iree.abi.stub, iree.reflection = {iree.abi.declaration = "sync func @test_simple_argmax_4x16(%input0: tensor<4x16x128256xf16>) -> (%output0: tensor<4x16xf16>, %output1: tensor<4x16xi32>)"}} {
  %c0_i32 = arith.constant 0 : i32
  %cst = arith.constant 0xFC00 : f16
  %0 = hal.tensor.import %arg0 "input0" : !hal.buffer_view -> tensor<4x16x128256xf16>
  %1 = iree_tensor_ext.compute_barrier.start %0 : tensor<4x16x128256xf16> -> tensor<4x16x128256xf16>
  %2 = tensor.empty() : tensor<4x16xf16>
  %3 = tensor.empty() : tensor<4x16xi32>
  %4 = linalg.fill ins(%cst : f16) outs(%2 : tensor<4x16xf16>) -> tensor<4x16xf16>
  %5 = linalg.fill ins(%c0_i32 : i32) outs(%3 : tensor<4x16xi32>) -> tensor<4x16xi32>
  %6:2 = iree_linalg_ext.arg_compare dimension(2) ins(%1 : tensor<4x16x128256xf16>) outs(%4, %5 : tensor<4x16xf16>, tensor<4x16xi32>) {
  ^bb0(%arg1: f16, %arg2: f16):
    %11 = arith.cmpf ogt, %arg1, %arg2 : f16
    iree_linalg_ext.yield %11 : i1
  } -> tensor<4x16xf16>, tensor<4x16xi32>
  %7 = iree_tensor_ext.compute_barrier.end %6#1 : tensor<4x16xi32> -> tensor<4x16xi32>
  %8 = iree_tensor_ext.compute_barrier.end %6#0 : tensor<4x16xf16> -> tensor<4x16xf16>
  %9 = hal.tensor.export %8 "output0" : tensor<4x16xf16> -> !hal.buffer_view
  %10 = hal.tensor.export %7 "output1" : tensor<4x16xi32> -> !hal.buffer_view
  util.return %9, %10 : !hal.buffer_view, !hal.buffer_view
}

// -----// IR Dump After CanonicalizePass (iree-flow-canonicalize) //----- //
util.func public @test_simple_argmax_4x16(%arg0: !hal.buffer_view) -> (!hal.buffer_view, !hal.buffer_view) attributes {iree.abi.stub, iree.reflection = {iree.abi.declaration = "sync func @test_simple_argmax_4x16(%input0: tensor<4x16x128256xf16>) -> (%output0: tensor<4x16xf16>, %output1: tensor<4x16xi32>)"}} {
  %c0_i32 = arith.constant 0 : i32
  %cst = arith.constant 0xFC00 : f16
  %0 = hal.tensor.import %arg0 "input0" : !hal.buffer_view -> tensor<4x16x128256xf16>
  %1 = iree_tensor_ext.compute_barrier.start %0 : tensor<4x16x128256xf16> -> tensor<4x16x128256xf16>
  %2 = tensor.empty() : tensor<4x16xf16>
  %3 = tensor.empty() : tensor<4x16xi32>
  %4 = linalg.fill ins(%cst : f16) outs(%2 : tensor<4x16xf16>) -> tensor<4x16xf16>
  %5 = linalg.fill ins(%c0_i32 : i32) outs(%3 : tensor<4x16xi32>) -> tensor<4x16xi32>
  %6:2 = iree_linalg_ext.arg_compare dimension(2) ins(%1 : tensor<4x16x128256xf16>) outs(%4, %5 : tensor<4x16xf16>, tensor<4x16xi32>) {
  ^bb0(%arg1: f16, %arg2: f16):
    %11 = arith.cmpf ogt, %arg1, %arg2 : f16
    iree_linalg_ext.yield %11 : i1
  } -> tensor<4x16xf16>, tensor<4x16xi32>
  %7 = iree_tensor_ext.compute_barrier.end %6#1 : tensor<4x16xi32> -> tensor<4x16xi32>
  %8 = iree_tensor_ext.compute_barrier.end %6#0 : tensor<4x16xf16> -> tensor<4x16xf16>
  %9 = hal.tensor.export %8 "output0" : tensor<4x16xf16> -> !hal.buffer_view
  %10 = hal.tensor.export %7 "output1" : tensor<4x16xi32> -> !hal.buffer_view
  util.return %9, %10 : !hal.buffer_view, !hal.buffer_view
}

// -----// IR Dump After CSE (cse) //----- //
util.func public @test_simple_argmax_4x16(%arg0: !hal.buffer_view) -> (!hal.buffer_view, !hal.buffer_view) attributes {iree.abi.stub, iree.reflection = {iree.abi.declaration = "sync func @test_simple_argmax_4x16(%input0: tensor<4x16x128256xf16>) -> (%output0: tensor<4x16xf16>, %output1: tensor<4x16xi32>)"}} {
  %c0_i32 = arith.constant 0 : i32
  %cst = arith.constant 0xFC00 : f16
  %0 = hal.tensor.import %arg0 "input0" : !hal.buffer_view -> tensor<4x16x128256xf16>
  %1 = iree_tensor_ext.compute_barrier.start %0 : tensor<4x16x128256xf16> -> tensor<4x16x128256xf16>
  %2 = tensor.empty() : tensor<4x16xf16>
  %3 = tensor.empty() : tensor<4x16xi32>
  %4 = linalg.fill ins(%cst : f16) outs(%2 : tensor<4x16xf16>) -> tensor<4x16xf16>
  %5 = linalg.fill ins(%c0_i32 : i32) outs(%3 : tensor<4x16xi32>) -> tensor<4x16xi32>
  %6:2 = iree_linalg_ext.arg_compare dimension(2) ins(%1 : tensor<4x16x128256xf16>) outs(%4, %5 : tensor<4x16xf16>, tensor<4x16xi32>) {
  ^bb0(%arg1: f16, %arg2: f16):
    %11 = arith.cmpf ogt, %arg1, %arg2 : f16
    iree_linalg_ext.yield %11 : i1
  } -> tensor<4x16xf16>, tensor<4x16xi32>
  %7 = iree_tensor_ext.compute_barrier.end %6#1 : tensor<4x16xi32> -> tensor<4x16xi32>
  %8 = iree_tensor_ext.compute_barrier.end %6#0 : tensor<4x16xf16> -> tensor<4x16xf16>
  %9 = hal.tensor.export %8 "output0" : tensor<4x16xf16> -> !hal.buffer_view
  %10 = hal.tensor.export %7 "output1" : tensor<4x16xi32> -> !hal.buffer_view
  util.return %9, %10 : !hal.buffer_view, !hal.buffer_view
}

// -----// IR Dump After SimplifyGlobalAccessesPass (iree-util-simplify-global-accesses) //----- //
util.func public @test_simple_argmax_4x16(%arg0: !hal.buffer_view) -> (!hal.buffer_view, !hal.buffer_view) attributes {iree.abi.stub, iree.reflection = {iree.abi.declaration = "sync func @test_simple_argmax_4x16(%input0: tensor<4x16x128256xf16>) -> (%output0: tensor<4x16xf16>, %output1: tensor<4x16xi32>)"}} {
  %c0_i32 = arith.constant 0 : i32
  %cst = arith.constant 0xFC00 : f16
  %0 = hal.tensor.import %arg0 "input0" : !hal.buffer_view -> tensor<4x16x128256xf16>
  %1 = iree_tensor_ext.compute_barrier.start %0 : tensor<4x16x128256xf16> -> tensor<4x16x128256xf16>
  %2 = tensor.empty() : tensor<4x16xf16>
  %3 = tensor.empty() : tensor<4x16xi32>
  %4 = linalg.fill ins(%cst : f16) outs(%2 : tensor<4x16xf16>) -> tensor<4x16xf16>
  %5 = linalg.fill ins(%c0_i32 : i32) outs(%3 : tensor<4x16xi32>) -> tensor<4x16xi32>
  %6:2 = iree_linalg_ext.arg_compare dimension(2) ins(%1 : tensor<4x16x128256xf16>) outs(%4, %5 : tensor<4x16xf16>, tensor<4x16xi32>) {
  ^bb0(%arg1: f16, %arg2: f16):
    %11 = arith.cmpf ogt, %arg1, %arg2 : f16
    iree_linalg_ext.yield %11 : i1
  } -> tensor<4x16xf16>, tensor<4x16xi32>
  %7 = iree_tensor_ext.compute_barrier.end %6#1 : tensor<4x16xi32> -> tensor<4x16xi32>
  %8 = iree_tensor_ext.compute_barrier.end %6#0 : tensor<4x16xf16> -> tensor<4x16xf16>
  %9 = hal.tensor.export %8 "output0" : tensor<4x16xf16> -> !hal.buffer_view
  %10 = hal.tensor.export %7 "output1" : tensor<4x16xi32> -> !hal.buffer_view
  util.return %9, %10 : !hal.buffer_view, !hal.buffer_view
}

// -----// IR Dump After ApplyPatternsPass (iree-util-apply-patterns) //----- //
util.func public @test_simple_argmax_4x16(%arg0: !hal.buffer_view) -> (!hal.buffer_view, !hal.buffer_view) attributes {iree.abi.stub, iree.reflection = {iree.abi.declaration = "sync func @test_simple_argmax_4x16(%input0: tensor<4x16x128256xf16>) -> (%output0: tensor<4x16xf16>, %output1: tensor<4x16xi32>)"}} {
  %c0_i32 = arith.constant 0 : i32
  %cst = arith.constant 0xFC00 : f16
  %0 = hal.tensor.import %arg0 "input0" : !hal.buffer_view -> tensor<4x16x128256xf16>
  %1 = iree_tensor_ext.compute_barrier.start %0 : tensor<4x16x128256xf16> -> tensor<4x16x128256xf16>
  %2 = tensor.empty() : tensor<4x16xf16>
  %3 = tensor.empty() : tensor<4x16xi32>
  %4 = linalg.fill ins(%cst : f16) outs(%2 : tensor<4x16xf16>) -> tensor<4x16xf16>
  %5 = linalg.fill ins(%c0_i32 : i32) outs(%3 : tensor<4x16xi32>) -> tensor<4x16xi32>
  %6:2 = iree_linalg_ext.arg_compare dimension(2) ins(%1 : tensor<4x16x128256xf16>) outs(%4, %5 : tensor<4x16xf16>, tensor<4x16xi32>) {
  ^bb0(%arg1: f16, %arg2: f16):
    %11 = arith.cmpf ogt, %arg1, %arg2 : f16
    iree_linalg_ext.yield %11 : i1
  } -> tensor<4x16xf16>, tensor<4x16xi32>
  %7 = iree_tensor_ext.compute_barrier.end %6#1 : tensor<4x16xi32> -> tensor<4x16xi32>
  %8 = iree_tensor_ext.compute_barrier.end %6#0 : tensor<4x16xf16> -> tensor<4x16xf16>
  %9 = hal.tensor.export %8 "output0" : tensor<4x16xf16> -> !hal.buffer_view
  %10 = hal.tensor.export %7 "output1" : tensor<4x16xi32> -> !hal.buffer_view
  util.return %9, %10 : !hal.buffer_view, !hal.buffer_view
}

// -----// IR Dump After FoldGlobalsPass (iree-util-fold-globals) //----- //
#executable_target_rocm_hsaco_fb = #hal.executable.target<"rocm", "rocm-hsaco-fb", {abi = "hip", iree.encoding.resolver = #iree_gpu.gpu_encoding_resolver<>, iree_codegen.default_tuning_spec = #rocm.builtin.tuning_module<"iree_default_tuning_spec_gfx942.mlir">, iree_codegen.target_info = #iree_gpu.target<arch = "gfx942", features = "", wgp = <compute =  fp64|fp32|fp16|int64|int32|int16|int8, storage =  b64|b32|b16|b8, subgroup =  shuffle|arithmetic, dot =  dp4xi8toi32, mma = [<MFMA_F32_16x16x16_BF16>, <MFMA_F32_32x32x8_BF16>, <MFMA_F32_16x16x32_F8E5M2FNUZ>, <MFMA_F32_16x16x32_F8E5M2FNUZ_F8E4M3FNUZ>, <MFMA_F32_16x16x32_F8E4M3FNUZ>, <MFMA_F32_16x16x32_F8E4M3FNUZ_F8E5M2FNUZ>, <MFMA_F32_32x32x16_F8E5M2FNUZ>, <MFMA_F32_32x32x16_F8E5M2FNUZ_F8E4M3FNUZ>, <MFMA_F32_32x32x16_F8E4M3FNUZ>, <MFMA_F32_32x32x16_F8E4M3FNUZ_F8E5M2FNUZ>, <MFMA_I32_16x16x32_I8>, <MFMA_I32_32x32x16_I8>, <MFMA_F64_16x16x4_F64>, <MFMA_F32_16x16x4_F32>, <MFMA_F32_16x16x16_F16>, <MFMA_F32_32x32x8_F16>], subgroup_size_choices = [64], max_workgroup_sizes = [1024, 1024, 1024], max_thread_count_per_workgroup = 1024, max_workgroup_memory_bytes = 65536, max_workgroup_counts = [2147483647, 2147483647, 2147483647], max_load_instruction_bits = 128, simds_per_wgp = 4, vgpr_space_bits = 16384, dma_sizes = [32]>>, ukernels = "none"}>
#device_target_hip = #hal.device.target<"hip", [#executable_target_rocm_hsaco_fb]> : !hal.device
module attributes {stream.affinity.default = #hal.device.affinity<@__device_0>} {
  util.global private @__device_0 = #device_target_hip
  util.func public @test_simple_argmax_4x16(%arg0: !hal.buffer_view) -> (!hal.buffer_view, !hal.buffer_view) attributes {iree.abi.stub, iree.reflection = {iree.abi.declaration = "sync func @test_simple_argmax_4x16(%input0: tensor<4x16x128256xf16>) -> (%output0: tensor<4x16xf16>, %output1: tensor<4x16xi32>)"}} {
    %c0_i32 = arith.constant 0 : i32
    %cst = arith.constant 0xFC00 : f16
    %0 = hal.tensor.import %arg0 "input0" : !hal.buffer_view -> tensor<4x16x128256xf16>
    %1 = iree_tensor_ext.compute_barrier.start %0 : tensor<4x16x128256xf16> -> tensor<4x16x128256xf16>
    %2 = tensor.empty() : tensor<4x16xf16>
    %3 = tensor.empty() : tensor<4x16xi32>
    %4 = linalg.fill ins(%cst : f16) outs(%2 : tensor<4x16xf16>) -> tensor<4x16xf16>
    %5 = linalg.fill ins(%c0_i32 : i32) outs(%3 : tensor<4x16xi32>) -> tensor<4x16xi32>
    %6:2 = iree_linalg_ext.arg_compare dimension(2) ins(%1 : tensor<4x16x128256xf16>) outs(%4, %5 : tensor<4x16xf16>, tensor<4x16xi32>) {
    ^bb0(%arg1: f16, %arg2: f16):
      %11 = arith.cmpf ogt, %arg1, %arg2 : f16
      iree_linalg_ext.yield %11 : i1
    } -> tensor<4x16xf16>, tensor<4x16xi32>
    %7 = iree_tensor_ext.compute_barrier.end %6#1 : tensor<4x16xi32> -> tensor<4x16xi32>
    %8 = iree_tensor_ext.compute_barrier.end %6#0 : tensor<4x16xf16> -> tensor<4x16xf16>
    %9 = hal.tensor.export %8 "output0" : tensor<4x16xf16> -> !hal.buffer_view
    %10 = hal.tensor.export %7 "output1" : tensor<4x16xi32> -> !hal.buffer_view
    util.return %9, %10 : !hal.buffer_view, !hal.buffer_view
  }
}


// -----// IR Dump After IPOPass (iree-util-ipo) //----- //
#executable_target_rocm_hsaco_fb = #hal.executable.target<"rocm", "rocm-hsaco-fb", {abi = "hip", iree.encoding.resolver = #iree_gpu.gpu_encoding_resolver<>, iree_codegen.default_tuning_spec = #rocm.builtin.tuning_module<"iree_default_tuning_spec_gfx942.mlir">, iree_codegen.target_info = #iree_gpu.target<arch = "gfx942", features = "", wgp = <compute =  fp64|fp32|fp16|int64|int32|int16|int8, storage =  b64|b32|b16|b8, subgroup =  shuffle|arithmetic, dot =  dp4xi8toi32, mma = [<MFMA_F32_16x16x16_BF16>, <MFMA_F32_32x32x8_BF16>, <MFMA_F32_16x16x32_F8E5M2FNUZ>, <MFMA_F32_16x16x32_F8E5M2FNUZ_F8E4M3FNUZ>, <MFMA_F32_16x16x32_F8E4M3FNUZ>, <MFMA_F32_16x16x32_F8E4M3FNUZ_F8E5M2FNUZ>, <MFMA_F32_32x32x16_F8E5M2FNUZ>, <MFMA_F32_32x32x16_F8E5M2FNUZ_F8E4M3FNUZ>, <MFMA_F32_32x32x16_F8E4M3FNUZ>, <MFMA_F32_32x32x16_F8E4M3FNUZ_F8E5M2FNUZ>, <MFMA_I32_16x16x32_I8>, <MFMA_I32_32x32x16_I8>, <MFMA_F64_16x16x4_F64>, <MFMA_F32_16x16x4_F32>, <MFMA_F32_16x16x16_F16>, <MFMA_F32_32x32x8_F16>], subgroup_size_choices = [64], max_workgroup_sizes = [1024, 1024, 1024], max_thread_count_per_workgroup = 1024, max_workgroup_memory_bytes = 65536, max_workgroup_counts = [2147483647, 2147483647, 2147483647], max_load_instruction_bits = 128, simds_per_wgp = 4, vgpr_space_bits = 16384, dma_sizes = [32]>>, ukernels = "none"}>
#device_target_hip = #hal.device.target<"hip", [#executable_target_rocm_hsaco_fb]> : !hal.device
module attributes {stream.affinity.default = #hal.device.affinity<@__device_0>} {
  util.global private @__device_0 = #device_target_hip
  util.func public @test_simple_argmax_4x16(%arg0: !hal.buffer_view) -> (!hal.buffer_view, !hal.buffer_view) attributes {iree.abi.stub, iree.reflection = {iree.abi.declaration = "sync func @test_simple_argmax_4x16(%input0: tensor<4x16x128256xf16>) -> (%output0: tensor<4x16xf16>, %output1: tensor<4x16xi32>)"}} {
    %c0_i32 = arith.constant 0 : i32
    %cst = arith.constant 0xFC00 : f16
    %0 = hal.tensor.import %arg0 "input0" : !hal.buffer_view -> tensor<4x16x128256xf16>
    %1 = iree_tensor_ext.compute_barrier.start %0 : tensor<4x16x128256xf16> -> tensor<4x16x128256xf16>
    %2 = tensor.empty() : tensor<4x16xf16>
    %3 = tensor.empty() : tensor<4x16xi32>
    %4 = linalg.fill ins(%cst : f16) outs(%2 : tensor<4x16xf16>) -> tensor<4x16xf16>
    %5 = linalg.fill ins(%c0_i32 : i32) outs(%3 : tensor<4x16xi32>) -> tensor<4x16xi32>
    %6:2 = iree_linalg_ext.arg_compare dimension(2) ins(%1 : tensor<4x16x128256xf16>) outs(%4, %5 : tensor<4x16xf16>, tensor<4x16xi32>) {
    ^bb0(%arg1: f16, %arg2: f16):
      %11 = arith.cmpf ogt, %arg1, %arg2 : f16
      iree_linalg_ext.yield %11 : i1
    } -> tensor<4x16xf16>, tensor<4x16xi32>
    %7 = iree_tensor_ext.compute_barrier.end %6#1 : tensor<4x16xi32> -> tensor<4x16xi32>
    %8 = iree_tensor_ext.compute_barrier.end %6#0 : tensor<4x16xf16> -> tensor<4x16xf16>
    %9 = hal.tensor.export %8 "output0" : tensor<4x16xf16> -> !hal.buffer_view
    %10 = hal.tensor.export %7 "output1" : tensor<4x16xi32> -> !hal.buffer_view
    util.return %9, %10 : !hal.buffer_view, !hal.buffer_view
  }
}


// -----// IR Dump After OptimizeIntArithmeticPass (iree-util-optimize-int-arithmetic) //----- //
util.func public @test_simple_argmax_4x16(%arg0: !hal.buffer_view) -> (!hal.buffer_view, !hal.buffer_view) attributes {iree.abi.stub, iree.reflection = {iree.abi.declaration = "sync func @test_simple_argmax_4x16(%input0: tensor<4x16x128256xf16>) -> (%output0: tensor<4x16xf16>, %output1: tensor<4x16xi32>)"}} {
  %c0_i32 = arith.constant 0 : i32
  %cst = arith.constant 0xFC00 : f16
  %0 = hal.tensor.import %arg0 "input0" : !hal.buffer_view -> tensor<4x16x128256xf16>
  %1 = iree_tensor_ext.compute_barrier.start %0 : tensor<4x16x128256xf16> -> tensor<4x16x128256xf16>
  %2 = tensor.empty() : tensor<4x16xf16>
  %3 = tensor.empty() : tensor<4x16xi32>
  %4 = linalg.fill ins(%cst : f16) outs(%2 : tensor<4x16xf16>) -> tensor<4x16xf16>
  %5 = linalg.fill ins(%c0_i32 : i32) outs(%3 : tensor<4x16xi32>) -> tensor<4x16xi32>
  %6:2 = iree_linalg_ext.arg_compare dimension(2) ins(%1 : tensor<4x16x128256xf16>) outs(%4, %5 : tensor<4x16xf16>, tensor<4x16xi32>) {
  ^bb0(%arg1: f16, %arg2: f16):
    %11 = arith.cmpf ogt, %arg1, %arg2 : f16
    iree_linalg_ext.yield %11 : i1
  } -> tensor<4x16xf16>, tensor<4x16xi32>
  %7 = iree_tensor_ext.compute_barrier.end %6#1 : tensor<4x16xi32> -> tensor<4x16xi32>
  %8 = iree_tensor_ext.compute_barrier.end %6#0 : tensor<4x16xf16> -> tensor<4x16xf16>
  %9 = hal.tensor.export %8 "output0" : tensor<4x16xf16> -> !hal.buffer_view
  %10 = hal.tensor.export %7 "output1" : tensor<4x16xi32> -> !hal.buffer_view
  util.return %9, %10 : !hal.buffer_view, !hal.buffer_view
}

// -----// IR Dump After CanonicalizePass (iree-flow-canonicalize) //----- //
util.func public @test_simple_argmax_4x16(%arg0: !hal.buffer_view) -> (!hal.buffer_view, !hal.buffer_view) attributes {iree.abi.stub, iree.reflection = {iree.abi.declaration = "sync func @test_simple_argmax_4x16(%input0: tensor<4x16x128256xf16>) -> (%output0: tensor<4x16xf16>, %output1: tensor<4x16xi32>)"}} {
  %c0_i32 = arith.constant 0 : i32
  %cst = arith.constant 0xFC00 : f16
  %0 = hal.tensor.import %arg0 "input0" : !hal.buffer_view -> tensor<4x16x128256xf16>
  %1 = iree_tensor_ext.compute_barrier.start %0 : tensor<4x16x128256xf16> -> tensor<4x16x128256xf16>
  %2 = tensor.empty() : tensor<4x16xf16>
  %3 = tensor.empty() : tensor<4x16xi32>
  %4 = linalg.fill ins(%cst : f16) outs(%2 : tensor<4x16xf16>) -> tensor<4x16xf16>
  %5 = linalg.fill ins(%c0_i32 : i32) outs(%3 : tensor<4x16xi32>) -> tensor<4x16xi32>
  %6:2 = iree_linalg_ext.arg_compare dimension(2) ins(%1 : tensor<4x16x128256xf16>) outs(%4, %5 : tensor<4x16xf16>, tensor<4x16xi32>) {
  ^bb0(%arg1: f16, %arg2: f16):
    %11 = arith.cmpf ogt, %arg1, %arg2 : f16
    iree_linalg_ext.yield %11 : i1
  } -> tensor<4x16xf16>, tensor<4x16xi32>
  %7 = iree_tensor_ext.compute_barrier.end %6#1 : tensor<4x16xi32> -> tensor<4x16xi32>
  %8 = iree_tensor_ext.compute_barrier.end %6#0 : tensor<4x16xf16> -> tensor<4x16xf16>
  %9 = hal.tensor.export %8 "output0" : tensor<4x16xf16> -> !hal.buffer_view
  %10 = hal.tensor.export %7 "output1" : tensor<4x16xi32> -> !hal.buffer_view
  util.return %9, %10 : !hal.buffer_view, !hal.buffer_view
}

// -----// IR Dump After CSE (cse) //----- //
util.func public @test_simple_argmax_4x16(%arg0: !hal.buffer_view) -> (!hal.buffer_view, !hal.buffer_view) attributes {iree.abi.stub, iree.reflection = {iree.abi.declaration = "sync func @test_simple_argmax_4x16(%input0: tensor<4x16x128256xf16>) -> (%output0: tensor<4x16xf16>, %output1: tensor<4x16xi32>)"}} {
  %c0_i32 = arith.constant 0 : i32
  %cst = arith.constant 0xFC00 : f16
  %0 = hal.tensor.import %arg0 "input0" : !hal.buffer_view -> tensor<4x16x128256xf16>
  %1 = iree_tensor_ext.compute_barrier.start %0 : tensor<4x16x128256xf16> -> tensor<4x16x128256xf16>
  %2 = tensor.empty() : tensor<4x16xf16>
  %3 = tensor.empty() : tensor<4x16xi32>
  %4 = linalg.fill ins(%cst : f16) outs(%2 : tensor<4x16xf16>) -> tensor<4x16xf16>
  %5 = linalg.fill ins(%c0_i32 : i32) outs(%3 : tensor<4x16xi32>) -> tensor<4x16xi32>
  %6:2 = iree_linalg_ext.arg_compare dimension(2) ins(%1 : tensor<4x16x128256xf16>) outs(%4, %5 : tensor<4x16xf16>, tensor<4x16xi32>) {
  ^bb0(%arg1: f16, %arg2: f16):
    %11 = arith.cmpf ogt, %arg1, %arg2 : f16
    iree_linalg_ext.yield %11 : i1
  } -> tensor<4x16xf16>, tensor<4x16xi32>
  %7 = iree_tensor_ext.compute_barrier.end %6#1 : tensor<4x16xi32> -> tensor<4x16xi32>
  %8 = iree_tensor_ext.compute_barrier.end %6#0 : tensor<4x16xf16> -> tensor<4x16xf16>
  %9 = hal.tensor.export %8 "output0" : tensor<4x16xf16> -> !hal.buffer_view
  %10 = hal.tensor.export %7 "output1" : tensor<4x16xi32> -> !hal.buffer_view
  util.return %9, %10 : !hal.buffer_view, !hal.buffer_view
}

// -----// IR Dump After HoistIntoGlobalsPass (iree-util-hoist-into-globals) //----- //
#executable_target_rocm_hsaco_fb = #hal.executable.target<"rocm", "rocm-hsaco-fb", {abi = "hip", iree.encoding.resolver = #iree_gpu.gpu_encoding_resolver<>, iree_codegen.default_tuning_spec = #rocm.builtin.tuning_module<"iree_default_tuning_spec_gfx942.mlir">, iree_codegen.target_info = #iree_gpu.target<arch = "gfx942", features = "", wgp = <compute =  fp64|fp32|fp16|int64|int32|int16|int8, storage =  b64|b32|b16|b8, subgroup =  shuffle|arithmetic, dot =  dp4xi8toi32, mma = [<MFMA_F32_16x16x16_BF16>, <MFMA_F32_32x32x8_BF16>, <MFMA_F32_16x16x32_F8E5M2FNUZ>, <MFMA_F32_16x16x32_F8E5M2FNUZ_F8E4M3FNUZ>, <MFMA_F32_16x16x32_F8E4M3FNUZ>, <MFMA_F32_16x16x32_F8E4M3FNUZ_F8E5M2FNUZ>, <MFMA_F32_32x32x16_F8E5M2FNUZ>, <MFMA_F32_32x32x16_F8E5M2FNUZ_F8E4M3FNUZ>, <MFMA_F32_32x32x16_F8E4M3FNUZ>, <MFMA_F32_32x32x16_F8E4M3FNUZ_F8E5M2FNUZ>, <MFMA_I32_16x16x32_I8>, <MFMA_I32_32x32x16_I8>, <MFMA_F64_16x16x4_F64>, <MFMA_F32_16x16x4_F32>, <MFMA_F32_16x16x16_F16>, <MFMA_F32_32x32x8_F16>], subgroup_size_choices = [64], max_workgroup_sizes = [1024, 1024, 1024], max_thread_count_per_workgroup = 1024, max_workgroup_memory_bytes = 65536, max_workgroup_counts = [2147483647, 2147483647, 2147483647], max_load_instruction_bits = 128, simds_per_wgp = 4, vgpr_space_bits = 16384, dma_sizes = [32]>>, ukernels = "none"}>
#device_target_hip = #hal.device.target<"hip", [#executable_target_rocm_hsaco_fb]> : !hal.device
module attributes {stream.affinity.default = #hal.device.affinity<@__device_0>} {
  util.global private @__device_0 = #device_target_hip
  util.func public @test_simple_argmax_4x16(%arg0: !hal.buffer_view) -> (!hal.buffer_view, !hal.buffer_view) attributes {iree.abi.stub, iree.reflection = {iree.abi.declaration = "sync func @test_simple_argmax_4x16(%input0: tensor<4x16x128256xf16>) -> (%output0: tensor<4x16xf16>, %output1: tensor<4x16xi32>)"}} {
    %c0_i32 = arith.constant 0 : i32
    %cst = arith.constant 0xFC00 : f16
    %0 = hal.tensor.import %arg0 "input0" : !hal.buffer_view -> tensor<4x16x128256xf16>
    %1 = iree_tensor_ext.compute_barrier.start %0 : tensor<4x16x128256xf16> -> tensor<4x16x128256xf16>
    %2 = tensor.empty() : tensor<4x16xf16>
    %3 = tensor.empty() : tensor<4x16xi32>
    %4 = linalg.fill ins(%cst : f16) outs(%2 : tensor<4x16xf16>) -> tensor<4x16xf16>
    %5 = linalg.fill ins(%c0_i32 : i32) outs(%3 : tensor<4x16xi32>) -> tensor<4x16xi32>
    %6:2 = iree_linalg_ext.arg_compare dimension(2) ins(%1 : tensor<4x16x128256xf16>) outs(%4, %5 : tensor<4x16xf16>, tensor<4x16xi32>) {
    ^bb0(%arg1: f16, %arg2: f16):
      %11 = arith.cmpf ogt, %arg1, %arg2 : f16
      iree_linalg_ext.yield %11 : i1
    } -> tensor<4x16xf16>, tensor<4x16xi32>
    %7 = iree_tensor_ext.compute_barrier.end %6#1 : tensor<4x16xi32> -> tensor<4x16xi32>
    %8 = iree_tensor_ext.compute_barrier.end %6#0 : tensor<4x16xf16> -> tensor<4x16xf16>
    %9 = hal.tensor.export %8 "output0" : tensor<4x16xf16> -> !hal.buffer_view
    %10 = hal.tensor.export %7 "output1" : tensor<4x16xi32> -> !hal.buffer_view
    util.return %9, %10 : !hal.buffer_view, !hal.buffer_view
  }
}


// -----// IR Dump After JitGlobalsPass (iree-consteval-jit-globals) //----- //
#executable_target_rocm_hsaco_fb = #hal.executable.target<"rocm", "rocm-hsaco-fb", {abi = "hip", iree.encoding.resolver = #iree_gpu.gpu_encoding_resolver<>, iree_codegen.default_tuning_spec = #rocm.builtin.tuning_module<"iree_default_tuning_spec_gfx942.mlir">, iree_codegen.target_info = #iree_gpu.target<arch = "gfx942", features = "", wgp = <compute =  fp64|fp32|fp16|int64|int32|int16|int8, storage =  b64|b32|b16|b8, subgroup =  shuffle|arithmetic, dot =  dp4xi8toi32, mma = [<MFMA_F32_16x16x16_BF16>, <MFMA_F32_32x32x8_BF16>, <MFMA_F32_16x16x32_F8E5M2FNUZ>, <MFMA_F32_16x16x32_F8E5M2FNUZ_F8E4M3FNUZ>, <MFMA_F32_16x16x32_F8E4M3FNUZ>, <MFMA_F32_16x16x32_F8E4M3FNUZ_F8E5M2FNUZ>, <MFMA_F32_32x32x16_F8E5M2FNUZ>, <MFMA_F32_32x32x16_F8E5M2FNUZ_F8E4M3FNUZ>, <MFMA_F32_32x32x16_F8E4M3FNUZ>, <MFMA_F32_32x32x16_F8E4M3FNUZ_F8E5M2FNUZ>, <MFMA_I32_16x16x32_I8>, <MFMA_I32_32x32x16_I8>, <MFMA_F64_16x16x4_F64>, <MFMA_F32_16x16x4_F32>, <MFMA_F32_16x16x16_F16>, <MFMA_F32_32x32x8_F16>], subgroup_size_choices = [64], max_workgroup_sizes = [1024, 1024, 1024], max_thread_count_per_workgroup = 1024, max_workgroup_memory_bytes = 65536, max_workgroup_counts = [2147483647, 2147483647, 2147483647], max_load_instruction_bits = 128, simds_per_wgp = 4, vgpr_space_bits = 16384, dma_sizes = [32]>>, ukernels = "none"}>
#device_target_hip = #hal.device.target<"hip", [#executable_target_rocm_hsaco_fb]> : !hal.device
module attributes {stream.affinity.default = #hal.device.affinity<@__device_0>} {
  util.global private @__device_0 = #device_target_hip
  util.func public @test_simple_argmax_4x16(%arg0: !hal.buffer_view) -> (!hal.buffer_view, !hal.buffer_view) attributes {iree.abi.stub, iree.reflection = {iree.abi.declaration = "sync func @test_simple_argmax_4x16(%input0: tensor<4x16x128256xf16>) -> (%output0: tensor<4x16xf16>, %output1: tensor<4x16xi32>)"}} {
    %c0_i32 = arith.constant 0 : i32
    %cst = arith.constant 0xFC00 : f16
    %0 = hal.tensor.import %arg0 "input0" : !hal.buffer_view -> tensor<4x16x128256xf16>
    %1 = iree_tensor_ext.compute_barrier.start %0 : tensor<4x16x128256xf16> -> tensor<4x16x128256xf16>
    %2 = tensor.empty() : tensor<4x16xf16>
    %3 = tensor.empty() : tensor<4x16xi32>
    %4 = linalg.fill ins(%cst : f16) outs(%2 : tensor<4x16xf16>) -> tensor<4x16xf16>
    %5 = linalg.fill ins(%c0_i32 : i32) outs(%3 : tensor<4x16xi32>) -> tensor<4x16xi32>
    %6:2 = iree_linalg_ext.arg_compare dimension(2) ins(%1 : tensor<4x16x128256xf16>) outs(%4, %5 : tensor<4x16xf16>, tensor<4x16xi32>) {
    ^bb0(%arg1: f16, %arg2: f16):
      %11 = arith.cmpf ogt, %arg1, %arg2 : f16
      iree_linalg_ext.yield %11 : i1
    } -> tensor<4x16xf16>, tensor<4x16xi32>
    %7 = iree_tensor_ext.compute_barrier.end %6#1 : tensor<4x16xi32> -> tensor<4x16xi32>
    %8 = iree_tensor_ext.compute_barrier.end %6#0 : tensor<4x16xf16> -> tensor<4x16xf16>
    %9 = hal.tensor.export %8 "output0" : tensor<4x16xf16> -> !hal.buffer_view
    %10 = hal.tensor.export %7 "output1" : tensor<4x16xi32> -> !hal.buffer_view
    util.return %9, %10 : !hal.buffer_view, !hal.buffer_view
  }
}


// -----// IR Dump After CanonicalizePass (iree-flow-canonicalize) //----- //
util.func public @test_simple_argmax_4x16(%arg0: !hal.buffer_view) -> (!hal.buffer_view, !hal.buffer_view) attributes {iree.abi.stub, iree.reflection = {iree.abi.declaration = "sync func @test_simple_argmax_4x16(%input0: tensor<4x16x128256xf16>) -> (%output0: tensor<4x16xf16>, %output1: tensor<4x16xi32>)"}} {
  %c0_i32 = arith.constant 0 : i32
  %cst = arith.constant 0xFC00 : f16
  %0 = hal.tensor.import %arg0 "input0" : !hal.buffer_view -> tensor<4x16x128256xf16>
  %1 = iree_tensor_ext.compute_barrier.start %0 : tensor<4x16x128256xf16> -> tensor<4x16x128256xf16>
  %2 = tensor.empty() : tensor<4x16xf16>
  %3 = tensor.empty() : tensor<4x16xi32>
  %4 = linalg.fill ins(%cst : f16) outs(%2 : tensor<4x16xf16>) -> tensor<4x16xf16>
  %5 = linalg.fill ins(%c0_i32 : i32) outs(%3 : tensor<4x16xi32>) -> tensor<4x16xi32>
  %6:2 = iree_linalg_ext.arg_compare dimension(2) ins(%1 : tensor<4x16x128256xf16>) outs(%4, %5 : tensor<4x16xf16>, tensor<4x16xi32>) {
  ^bb0(%arg1: f16, %arg2: f16):
    %11 = arith.cmpf ogt, %arg1, %arg2 : f16
    iree_linalg_ext.yield %11 : i1
  } -> tensor<4x16xf16>, tensor<4x16xi32>
  %7 = iree_tensor_ext.compute_barrier.end %6#1 : tensor<4x16xi32> -> tensor<4x16xi32>
  %8 = iree_tensor_ext.compute_barrier.end %6#0 : tensor<4x16xf16> -> tensor<4x16xf16>
  %9 = hal.tensor.export %8 "output0" : tensor<4x16xf16> -> !hal.buffer_view
  %10 = hal.tensor.export %7 "output1" : tensor<4x16xi32> -> !hal.buffer_view
  util.return %9, %10 : !hal.buffer_view, !hal.buffer_view
}

// -----// IR Dump After CSE (cse) //----- //
util.func public @test_simple_argmax_4x16(%arg0: !hal.buffer_view) -> (!hal.buffer_view, !hal.buffer_view) attributes {iree.abi.stub, iree.reflection = {iree.abi.declaration = "sync func @test_simple_argmax_4x16(%input0: tensor<4x16x128256xf16>) -> (%output0: tensor<4x16xf16>, %output1: tensor<4x16xi32>)"}} {
  %c0_i32 = arith.constant 0 : i32
  %cst = arith.constant 0xFC00 : f16
  %0 = hal.tensor.import %arg0 "input0" : !hal.buffer_view -> tensor<4x16x128256xf16>
  %1 = iree_tensor_ext.compute_barrier.start %0 : tensor<4x16x128256xf16> -> tensor<4x16x128256xf16>
  %2 = tensor.empty() : tensor<4x16xf16>
  %3 = tensor.empty() : tensor<4x16xi32>
  %4 = linalg.fill ins(%cst : f16) outs(%2 : tensor<4x16xf16>) -> tensor<4x16xf16>
  %5 = linalg.fill ins(%c0_i32 : i32) outs(%3 : tensor<4x16xi32>) -> tensor<4x16xi32>
  %6:2 = iree_linalg_ext.arg_compare dimension(2) ins(%1 : tensor<4x16x128256xf16>) outs(%4, %5 : tensor<4x16xf16>, tensor<4x16xi32>) {
  ^bb0(%arg1: f16, %arg2: f16):
    %11 = arith.cmpf ogt, %arg1, %arg2 : f16
    iree_linalg_ext.yield %11 : i1
  } -> tensor<4x16xf16>, tensor<4x16xi32>
  %7 = iree_tensor_ext.compute_barrier.end %6#1 : tensor<4x16xi32> -> tensor<4x16xi32>
  %8 = iree_tensor_ext.compute_barrier.end %6#0 : tensor<4x16xf16> -> tensor<4x16xf16>
  %9 = hal.tensor.export %8 "output0" : tensor<4x16xf16> -> !hal.buffer_view
  %10 = hal.tensor.export %7 "output1" : tensor<4x16xi32> -> !hal.buffer_view
  util.return %9, %10 : !hal.buffer_view, !hal.buffer_view
}

// -----// IR Dump After RaiseSpecialOpsPass (iree-global-opt-raise-special-ops) //----- //
util.func public @test_simple_argmax_4x16(%arg0: !hal.buffer_view) -> (!hal.buffer_view, !hal.buffer_view) attributes {iree.abi.stub, iree.reflection = {iree.abi.declaration = "sync func @test_simple_argmax_4x16(%input0: tensor<4x16x128256xf16>) -> (%output0: tensor<4x16xf16>, %output1: tensor<4x16xi32>)"}} {
  %c0_i32 = arith.constant 0 : i32
  %cst = arith.constant 0xFC00 : f16
  %0 = hal.tensor.import %arg0 "input0" : !hal.buffer_view -> tensor<4x16x128256xf16>
  %1 = iree_tensor_ext.compute_barrier.start %0 : tensor<4x16x128256xf16> -> tensor<4x16x128256xf16>
  %2 = tensor.empty() : tensor<4x16xf16>
  %3 = tensor.empty() : tensor<4x16xi32>
  %4 = linalg.fill ins(%cst : f16) outs(%2 : tensor<4x16xf16>) -> tensor<4x16xf16>
  %5 = linalg.fill ins(%c0_i32 : i32) outs(%3 : tensor<4x16xi32>) -> tensor<4x16xi32>
  %6:2 = iree_linalg_ext.arg_compare dimension(2) ins(%1 : tensor<4x16x128256xf16>) outs(%4, %5 : tensor<4x16xf16>, tensor<4x16xi32>) {
  ^bb0(%arg1: f16, %arg2: f16):
    %11 = arith.cmpf ogt, %arg1, %arg2 : f16
    iree_linalg_ext.yield %11 : i1
  } -> tensor<4x16xf16>, tensor<4x16xi32>
  %7 = iree_tensor_ext.compute_barrier.end %6#1 : tensor<4x16xi32> -> tensor<4x16xi32>
  %8 = iree_tensor_ext.compute_barrier.end %6#0 : tensor<4x16xf16> -> tensor<4x16xf16>
  %9 = hal.tensor.export %8 "output0" : tensor<4x16xf16> -> !hal.buffer_view
  %10 = hal.tensor.export %7 "output1" : tensor<4x16xi32> -> !hal.buffer_view
  util.return %9, %10 : !hal.buffer_view, !hal.buffer_view
}

// -----// IR Dump After InjectTensorTracingPass (iree-flow-inject-tensor-tracing) //----- //
util.func public @test_simple_argmax_4x16(%arg0: !hal.buffer_view) -> (!hal.buffer_view, !hal.buffer_view) attributes {iree.abi.stub, iree.reflection = {iree.abi.declaration = "sync func @test_simple_argmax_4x16(%input0: tensor<4x16x128256xf16>) -> (%output0: tensor<4x16xf16>, %output1: tensor<4x16xi32>)"}} {
  %c0_i32 = arith.constant 0 : i32
  %cst = arith.constant 0xFC00 : f16
  %0 = hal.tensor.import %arg0 "input0" : !hal.buffer_view -> tensor<4x16x128256xf16>
  %1 = iree_tensor_ext.compute_barrier.start %0 : tensor<4x16x128256xf16> -> tensor<4x16x128256xf16>
  %2 = tensor.empty() : tensor<4x16xf16>
  %3 = tensor.empty() : tensor<4x16xi32>
  %4 = linalg.fill ins(%cst : f16) outs(%2 : tensor<4x16xf16>) -> tensor<4x16xf16>
  %5 = linalg.fill ins(%c0_i32 : i32) outs(%3 : tensor<4x16xi32>) -> tensor<4x16xi32>
  %6:2 = iree_linalg_ext.arg_compare dimension(2) ins(%1 : tensor<4x16x128256xf16>) outs(%4, %5 : tensor<4x16xf16>, tensor<4x16xi32>) {
  ^bb0(%arg1: f16, %arg2: f16):
    %11 = arith.cmpf ogt, %arg1, %arg2 : f16
    iree_linalg_ext.yield %11 : i1
  } -> tensor<4x16xf16>, tensor<4x16xi32>
  %7 = iree_tensor_ext.compute_barrier.end %6#1 : tensor<4x16xi32> -> tensor<4x16xi32>
  %8 = iree_tensor_ext.compute_barrier.end %6#0 : tensor<4x16xf16> -> tensor<4x16xf16>
  %9 = hal.tensor.export %8 "output0" : tensor<4x16xf16> -> !hal.buffer_view
  %10 = hal.tensor.export %7 "output1" : tensor<4x16xi32> -> !hal.buffer_view
  util.return %9, %10 : !hal.buffer_view, !hal.buffer_view
}

// -----// IR Dump After TensorPadToTensorInsertSlicePass (iree-dispatch-creation-tensor-pad-to-tensor-insert-slice) //----- //
#executable_target_rocm_hsaco_fb = #hal.executable.target<"rocm", "rocm-hsaco-fb", {abi = "hip", iree.encoding.resolver = #iree_gpu.gpu_encoding_resolver<>, iree_codegen.default_tuning_spec = #rocm.builtin.tuning_module<"iree_default_tuning_spec_gfx942.mlir">, iree_codegen.target_info = #iree_gpu.target<arch = "gfx942", features = "", wgp = <compute =  fp64|fp32|fp16|int64|int32|int16|int8, storage =  b64|b32|b16|b8, subgroup =  shuffle|arithmetic, dot =  dp4xi8toi32, mma = [<MFMA_F32_16x16x16_BF16>, <MFMA_F32_32x32x8_BF16>, <MFMA_F32_16x16x32_F8E5M2FNUZ>, <MFMA_F32_16x16x32_F8E5M2FNUZ_F8E4M3FNUZ>, <MFMA_F32_16x16x32_F8E4M3FNUZ>, <MFMA_F32_16x16x32_F8E4M3FNUZ_F8E5M2FNUZ>, <MFMA_F32_32x32x16_F8E5M2FNUZ>, <MFMA_F32_32x32x16_F8E5M2FNUZ_F8E4M3FNUZ>, <MFMA_F32_32x32x16_F8E4M3FNUZ>, <MFMA_F32_32x32x16_F8E4M3FNUZ_F8E5M2FNUZ>, <MFMA_I32_16x16x32_I8>, <MFMA_I32_32x32x16_I8>, <MFMA_F64_16x16x4_F64>, <MFMA_F32_16x16x4_F32>, <MFMA_F32_16x16x16_F16>, <MFMA_F32_32x32x8_F16>], subgroup_size_choices = [64], max_workgroup_sizes = [1024, 1024, 1024], max_thread_count_per_workgroup = 1024, max_workgroup_memory_bytes = 65536, max_workgroup_counts = [2147483647, 2147483647, 2147483647], max_load_instruction_bits = 128, simds_per_wgp = 4, vgpr_space_bits = 16384, dma_sizes = [32]>>, ukernels = "none"}>
#device_target_hip = #hal.device.target<"hip", [#executable_target_rocm_hsaco_fb]> : !hal.device
module attributes {stream.affinity.default = #hal.device.affinity<@__device_0>} {
  util.global private @__device_0 = #device_target_hip
  util.func public @test_simple_argmax_4x16(%arg0: !hal.buffer_view) -> (!hal.buffer_view, !hal.buffer_view) attributes {iree.abi.stub, iree.reflection = {iree.abi.declaration = "sync func @test_simple_argmax_4x16(%input0: tensor<4x16x128256xf16>) -> (%output0: tensor<4x16xf16>, %output1: tensor<4x16xi32>)"}} {
    %c0_i32 = arith.constant 0 : i32
    %cst = arith.constant 0xFC00 : f16
    %0 = hal.tensor.import %arg0 "input0" : !hal.buffer_view -> tensor<4x16x128256xf16>
    %1 = iree_tensor_ext.compute_barrier.start %0 : tensor<4x16x128256xf16> -> tensor<4x16x128256xf16>
    %2 = tensor.empty() : tensor<4x16xf16>
    %3 = tensor.empty() : tensor<4x16xi32>
    %4 = linalg.fill ins(%cst : f16) outs(%2 : tensor<4x16xf16>) -> tensor<4x16xf16>
    %5 = linalg.fill ins(%c0_i32 : i32) outs(%3 : tensor<4x16xi32>) -> tensor<4x16xi32>
    %6:2 = iree_linalg_ext.arg_compare dimension(2) ins(%1 : tensor<4x16x128256xf16>) outs(%4, %5 : tensor<4x16xf16>, tensor<4x16xi32>) {
    ^bb0(%arg1: f16, %arg2: f16):
      %11 = arith.cmpf ogt, %arg1, %arg2 : f16
      iree_linalg_ext.yield %11 : i1
    } -> tensor<4x16xf16>, tensor<4x16xi32>
    %7 = iree_tensor_ext.compute_barrier.end %6#1 : tensor<4x16xi32> -> tensor<4x16xi32>
    %8 = iree_tensor_ext.compute_barrier.end %6#0 : tensor<4x16xf16> -> tensor<4x16xf16>
    %9 = hal.tensor.export %8 "output0" : tensor<4x16xf16> -> !hal.buffer_view
    %10 = hal.tensor.export %7 "output1" : tensor<4x16xi32> -> !hal.buffer_view
    util.return %9, %10 : !hal.buffer_view, !hal.buffer_view
  }
}


// -----// IR Dump After CanonicalizePass (iree-flow-canonicalize) //----- //
util.func public @test_simple_argmax_4x16(%arg0: !hal.buffer_view) -> (!hal.buffer_view, !hal.buffer_view) attributes {iree.abi.stub, iree.reflection = {iree.abi.declaration = "sync func @test_simple_argmax_4x16(%input0: tensor<4x16x128256xf16>) -> (%output0: tensor<4x16xf16>, %output1: tensor<4x16xi32>)"}} {
  %c0_i32 = arith.constant 0 : i32
  %cst = arith.constant 0xFC00 : f16
  %0 = hal.tensor.import %arg0 "input0" : !hal.buffer_view -> tensor<4x16x128256xf16>
  %1 = iree_tensor_ext.compute_barrier.start %0 : tensor<4x16x128256xf16> -> tensor<4x16x128256xf16>
  %2 = tensor.empty() : tensor<4x16xf16>
  %3 = tensor.empty() : tensor<4x16xi32>
  %4 = linalg.fill ins(%cst : f16) outs(%2 : tensor<4x16xf16>) -> tensor<4x16xf16>
  %5 = linalg.fill ins(%c0_i32 : i32) outs(%3 : tensor<4x16xi32>) -> tensor<4x16xi32>
  %6:2 = iree_linalg_ext.arg_compare dimension(2) ins(%1 : tensor<4x16x128256xf16>) outs(%4, %5 : tensor<4x16xf16>, tensor<4x16xi32>) {
  ^bb0(%arg1: f16, %arg2: f16):
    %11 = arith.cmpf ogt, %arg1, %arg2 : f16
    iree_linalg_ext.yield %11 : i1
  } -> tensor<4x16xf16>, tensor<4x16xi32>
  %7 = iree_tensor_ext.compute_barrier.end %6#1 : tensor<4x16xi32> -> tensor<4x16xi32>
  %8 = iree_tensor_ext.compute_barrier.end %6#0 : tensor<4x16xf16> -> tensor<4x16xf16>
  %9 = hal.tensor.export %8 "output0" : tensor<4x16xf16> -> !hal.buffer_view
  %10 = hal.tensor.export %7 "output1" : tensor<4x16xi32> -> !hal.buffer_view
  util.return %9, %10 : !hal.buffer_view, !hal.buffer_view
}

// -----// IR Dump After CSE (cse) //----- //
util.func public @test_simple_argmax_4x16(%arg0: !hal.buffer_view) -> (!hal.buffer_view, !hal.buffer_view) attributes {iree.abi.stub, iree.reflection = {iree.abi.declaration = "sync func @test_simple_argmax_4x16(%input0: tensor<4x16x128256xf16>) -> (%output0: tensor<4x16xf16>, %output1: tensor<4x16xi32>)"}} {
  %c0_i32 = arith.constant 0 : i32
  %cst = arith.constant 0xFC00 : f16
  %0 = hal.tensor.import %arg0 "input0" : !hal.buffer_view -> tensor<4x16x128256xf16>
  %1 = iree_tensor_ext.compute_barrier.start %0 : tensor<4x16x128256xf16> -> tensor<4x16x128256xf16>
  %2 = tensor.empty() : tensor<4x16xf16>
  %3 = tensor.empty() : tensor<4x16xi32>
  %4 = linalg.fill ins(%cst : f16) outs(%2 : tensor<4x16xf16>) -> tensor<4x16xf16>
  %5 = linalg.fill ins(%c0_i32 : i32) outs(%3 : tensor<4x16xi32>) -> tensor<4x16xi32>
  %6:2 = iree_linalg_ext.arg_compare dimension(2) ins(%1 : tensor<4x16x128256xf16>) outs(%4, %5 : tensor<4x16xf16>, tensor<4x16xi32>) {
  ^bb0(%arg1: f16, %arg2: f16):
    %11 = arith.cmpf ogt, %arg1, %arg2 : f16
    iree_linalg_ext.yield %11 : i1
  } -> tensor<4x16xf16>, tensor<4x16xi32>
  %7 = iree_tensor_ext.compute_barrier.end %6#1 : tensor<4x16xi32> -> tensor<4x16xi32>
  %8 = iree_tensor_ext.compute_barrier.end %6#0 : tensor<4x16xf16> -> tensor<4x16xf16>
  %9 = hal.tensor.export %8 "output0" : tensor<4x16xf16> -> !hal.buffer_view
  %10 = hal.tensor.export %7 "output1" : tensor<4x16xi32> -> !hal.buffer_view
  util.return %9, %10 : !hal.buffer_view, !hal.buffer_view
}

// -----// IR Dump After SimplifyGlobalAccessesPass (iree-util-simplify-global-accesses) //----- //
util.func public @test_simple_argmax_4x16(%arg0: !hal.buffer_view) -> (!hal.buffer_view, !hal.buffer_view) attributes {iree.abi.stub, iree.reflection = {iree.abi.declaration = "sync func @test_simple_argmax_4x16(%input0: tensor<4x16x128256xf16>) -> (%output0: tensor<4x16xf16>, %output1: tensor<4x16xi32>)"}} {
  %c0_i32 = arith.constant 0 : i32
  %cst = arith.constant 0xFC00 : f16
  %0 = hal.tensor.import %arg0 "input0" : !hal.buffer_view -> tensor<4x16x128256xf16>
  %1 = iree_tensor_ext.compute_barrier.start %0 : tensor<4x16x128256xf16> -> tensor<4x16x128256xf16>
  %2 = tensor.empty() : tensor<4x16xf16>
  %3 = tensor.empty() : tensor<4x16xi32>
  %4 = linalg.fill ins(%cst : f16) outs(%2 : tensor<4x16xf16>) -> tensor<4x16xf16>
  %5 = linalg.fill ins(%c0_i32 : i32) outs(%3 : tensor<4x16xi32>) -> tensor<4x16xi32>
  %6:2 = iree_linalg_ext.arg_compare dimension(2) ins(%1 : tensor<4x16x128256xf16>) outs(%4, %5 : tensor<4x16xf16>, tensor<4x16xi32>) {
  ^bb0(%arg1: f16, %arg2: f16):
    %11 = arith.cmpf ogt, %arg1, %arg2 : f16
    iree_linalg_ext.yield %11 : i1
  } -> tensor<4x16xf16>, tensor<4x16xi32>
  %7 = iree_tensor_ext.compute_barrier.end %6#1 : tensor<4x16xi32> -> tensor<4x16xi32>
  %8 = iree_tensor_ext.compute_barrier.end %6#0 : tensor<4x16xf16> -> tensor<4x16xf16>
  %9 = hal.tensor.export %8 "output0" : tensor<4x16xf16> -> !hal.buffer_view
  %10 = hal.tensor.export %7 "output1" : tensor<4x16xi32> -> !hal.buffer_view
  util.return %9, %10 : !hal.buffer_view, !hal.buffer_view
}

// -----// IR Dump After ApplyPatternsPass (iree-util-apply-patterns) //----- //
util.func public @test_simple_argmax_4x16(%arg0: !hal.buffer_view) -> (!hal.buffer_view, !hal.buffer_view) attributes {iree.abi.stub, iree.reflection = {iree.abi.declaration = "sync func @test_simple_argmax_4x16(%input0: tensor<4x16x128256xf16>) -> (%output0: tensor<4x16xf16>, %output1: tensor<4x16xi32>)"}} {
  %c0_i32 = arith.constant 0 : i32
  %cst = arith.constant 0xFC00 : f16
  %0 = hal.tensor.import %arg0 "input0" : !hal.buffer_view -> tensor<4x16x128256xf16>
  %1 = iree_tensor_ext.compute_barrier.start %0 : tensor<4x16x128256xf16> -> tensor<4x16x128256xf16>
  %2 = tensor.empty() : tensor<4x16xf16>
  %3 = tensor.empty() : tensor<4x16xi32>
  %4 = linalg.fill ins(%cst : f16) outs(%2 : tensor<4x16xf16>) -> tensor<4x16xf16>
  %5 = linalg.fill ins(%c0_i32 : i32) outs(%3 : tensor<4x16xi32>) -> tensor<4x16xi32>
  %6:2 = iree_linalg_ext.arg_compare dimension(2) ins(%1 : tensor<4x16x128256xf16>) outs(%4, %5 : tensor<4x16xf16>, tensor<4x16xi32>) {
  ^bb0(%arg1: f16, %arg2: f16):
    %11 = arith.cmpf ogt, %arg1, %arg2 : f16
    iree_linalg_ext.yield %11 : i1
  } -> tensor<4x16xf16>, tensor<4x16xi32>
  %7 = iree_tensor_ext.compute_barrier.end %6#1 : tensor<4x16xi32> -> tensor<4x16xi32>
  %8 = iree_tensor_ext.compute_barrier.end %6#0 : tensor<4x16xf16> -> tensor<4x16xf16>
  %9 = hal.tensor.export %8 "output0" : tensor<4x16xf16> -> !hal.buffer_view
  %10 = hal.tensor.export %7 "output1" : tensor<4x16xi32> -> !hal.buffer_view
  util.return %9, %10 : !hal.buffer_view, !hal.buffer_view
}

// -----// IR Dump After FoldGlobalsPass (iree-util-fold-globals) //----- //
#executable_target_rocm_hsaco_fb = #hal.executable.target<"rocm", "rocm-hsaco-fb", {abi = "hip", iree.encoding.resolver = #iree_gpu.gpu_encoding_resolver<>, iree_codegen.default_tuning_spec = #rocm.builtin.tuning_module<"iree_default_tuning_spec_gfx942.mlir">, iree_codegen.target_info = #iree_gpu.target<arch = "gfx942", features = "", wgp = <compute =  fp64|fp32|fp16|int64|int32|int16|int8, storage =  b64|b32|b16|b8, subgroup =  shuffle|arithmetic, dot =  dp4xi8toi32, mma = [<MFMA_F32_16x16x16_BF16>, <MFMA_F32_32x32x8_BF16>, <MFMA_F32_16x16x32_F8E5M2FNUZ>, <MFMA_F32_16x16x32_F8E5M2FNUZ_F8E4M3FNUZ>, <MFMA_F32_16x16x32_F8E4M3FNUZ>, <MFMA_F32_16x16x32_F8E4M3FNUZ_F8E5M2FNUZ>, <MFMA_F32_32x32x16_F8E5M2FNUZ>, <MFMA_F32_32x32x16_F8E5M2FNUZ_F8E4M3FNUZ>, <MFMA_F32_32x32x16_F8E4M3FNUZ>, <MFMA_F32_32x32x16_F8E4M3FNUZ_F8E5M2FNUZ>, <MFMA_I32_16x16x32_I8>, <MFMA_I32_32x32x16_I8>, <MFMA_F64_16x16x4_F64>, <MFMA_F32_16x16x4_F32>, <MFMA_F32_16x16x16_F16>, <MFMA_F32_32x32x8_F16>], subgroup_size_choices = [64], max_workgroup_sizes = [1024, 1024, 1024], max_thread_count_per_workgroup = 1024, max_workgroup_memory_bytes = 65536, max_workgroup_counts = [2147483647, 2147483647, 2147483647], max_load_instruction_bits = 128, simds_per_wgp = 4, vgpr_space_bits = 16384, dma_sizes = [32]>>, ukernels = "none"}>
#device_target_hip = #hal.device.target<"hip", [#executable_target_rocm_hsaco_fb]> : !hal.device
module attributes {iree.fixedpoint.iteration = 0 : index, stream.affinity.default = #hal.device.affinity<@__device_0>} {
  util.global private @__device_0 = #device_target_hip
  util.func public @test_simple_argmax_4x16(%arg0: !hal.buffer_view) -> (!hal.buffer_view, !hal.buffer_view) attributes {iree.abi.stub, iree.reflection = {iree.abi.declaration = "sync func @test_simple_argmax_4x16(%input0: tensor<4x16x128256xf16>) -> (%output0: tensor<4x16xf16>, %output1: tensor<4x16xi32>)"}} {
    %c0_i32 = arith.constant 0 : i32
    %cst = arith.constant 0xFC00 : f16
    %0 = hal.tensor.import %arg0 "input0" : !hal.buffer_view -> tensor<4x16x128256xf16>
    %1 = iree_tensor_ext.compute_barrier.start %0 : tensor<4x16x128256xf16> -> tensor<4x16x128256xf16>
    %2 = tensor.empty() : tensor<4x16xf16>
    %3 = tensor.empty() : tensor<4x16xi32>
    %4 = linalg.fill ins(%cst : f16) outs(%2 : tensor<4x16xf16>) -> tensor<4x16xf16>
    %5 = linalg.fill ins(%c0_i32 : i32) outs(%3 : tensor<4x16xi32>) -> tensor<4x16xi32>
    %6:2 = iree_linalg_ext.arg_compare dimension(2) ins(%1 : tensor<4x16x128256xf16>) outs(%4, %5 : tensor<4x16xf16>, tensor<4x16xi32>) {
    ^bb0(%arg1: f16, %arg2: f16):
      %11 = arith.cmpf ogt, %arg1, %arg2 : f16
      iree_linalg_ext.yield %11 : i1
    } -> tensor<4x16xf16>, tensor<4x16xi32>
    %7 = iree_tensor_ext.compute_barrier.end %6#1 : tensor<4x16xi32> -> tensor<4x16xi32>
    %8 = iree_tensor_ext.compute_barrier.end %6#0 : tensor<4x16xf16> -> tensor<4x16xf16>
    %9 = hal.tensor.export %8 "output0" : tensor<4x16xf16> -> !hal.buffer_view
    %10 = hal.tensor.export %7 "output1" : tensor<4x16xi32> -> !hal.buffer_view
    util.return %9, %10 : !hal.buffer_view, !hal.buffer_view
  }
}


// -----// IR Dump After FuseGlobalsPass (iree-util-fuse-globals) //----- //
#executable_target_rocm_hsaco_fb = #hal.executable.target<"rocm", "rocm-hsaco-fb", {abi = "hip", iree.encoding.resolver = #iree_gpu.gpu_encoding_resolver<>, iree_codegen.default_tuning_spec = #rocm.builtin.tuning_module<"iree_default_tuning_spec_gfx942.mlir">, iree_codegen.target_info = #iree_gpu.target<arch = "gfx942", features = "", wgp = <compute =  fp64|fp32|fp16|int64|int32|int16|int8, storage =  b64|b32|b16|b8, subgroup =  shuffle|arithmetic, dot =  dp4xi8toi32, mma = [<MFMA_F32_16x16x16_BF16>, <MFMA_F32_32x32x8_BF16>, <MFMA_F32_16x16x32_F8E5M2FNUZ>, <MFMA_F32_16x16x32_F8E5M2FNUZ_F8E4M3FNUZ>, <MFMA_F32_16x16x32_F8E4M3FNUZ>, <MFMA_F32_16x16x32_F8E4M3FNUZ_F8E5M2FNUZ>, <MFMA_F32_32x32x16_F8E5M2FNUZ>, <MFMA_F32_32x32x16_F8E5M2FNUZ_F8E4M3FNUZ>, <MFMA_F32_32x32x16_F8E4M3FNUZ>, <MFMA_F32_32x32x16_F8E4M3FNUZ_F8E5M2FNUZ>, <MFMA_I32_16x16x32_I8>, <MFMA_I32_32x32x16_I8>, <MFMA_F64_16x16x4_F64>, <MFMA_F32_16x16x4_F32>, <MFMA_F32_16x16x16_F16>, <MFMA_F32_32x32x8_F16>], subgroup_size_choices = [64], max_workgroup_sizes = [1024, 1024, 1024], max_thread_count_per_workgroup = 1024, max_workgroup_memory_bytes = 65536, max_workgroup_counts = [2147483647, 2147483647, 2147483647], max_load_instruction_bits = 128, simds_per_wgp = 4, vgpr_space_bits = 16384, dma_sizes = [32]>>, ukernels = "none"}>
#device_target_hip = #hal.device.target<"hip", [#executable_target_rocm_hsaco_fb]> : !hal.device
module attributes {iree.fixedpoint.iteration = 0 : index, stream.affinity.default = #hal.device.affinity<@__device_0>} {
  util.global private @__device_0 = #device_target_hip
  util.func public @test_simple_argmax_4x16(%arg0: !hal.buffer_view) -> (!hal.buffer_view, !hal.buffer_view) attributes {iree.abi.stub, iree.reflection = {iree.abi.declaration = "sync func @test_simple_argmax_4x16(%input0: tensor<4x16x128256xf16>) -> (%output0: tensor<4x16xf16>, %output1: tensor<4x16xi32>)"}} {
    %c0_i32 = arith.constant 0 : i32
    %cst = arith.constant 0xFC00 : f16
    %0 = hal.tensor.import %arg0 "input0" : !hal.buffer_view -> tensor<4x16x128256xf16>
    %1 = iree_tensor_ext.compute_barrier.start %0 : tensor<4x16x128256xf16> -> tensor<4x16x128256xf16>
    %2 = tensor.empty() : tensor<4x16xf16>
    %3 = tensor.empty() : tensor<4x16xi32>
    %4 = linalg.fill ins(%cst : f16) outs(%2 : tensor<4x16xf16>) -> tensor<4x16xf16>
    %5 = linalg.fill ins(%c0_i32 : i32) outs(%3 : tensor<4x16xi32>) -> tensor<4x16xi32>
    %6:2 = iree_linalg_ext.arg_compare dimension(2) ins(%1 : tensor<4x16x128256xf16>) outs(%4, %5 : tensor<4x16xf16>, tensor<4x16xi32>) {
    ^bb0(%arg1: f16, %arg2: f16):
      %11 = arith.cmpf ogt, %arg1, %arg2 : f16
      iree_linalg_ext.yield %11 : i1
    } -> tensor<4x16xf16>, tensor<4x16xi32>
    %7 = iree_tensor_ext.compute_barrier.end %6#1 : tensor<4x16xi32> -> tensor<4x16xi32>
    %8 = iree_tensor_ext.compute_barrier.end %6#0 : tensor<4x16xf16> -> tensor<4x16xf16>
    %9 = hal.tensor.export %8 "output0" : tensor<4x16xf16> -> !hal.buffer_view
    %10 = hal.tensor.export %7 "output1" : tensor<4x16xi32> -> !hal.buffer_view
    util.return %9, %10 : !hal.buffer_view, !hal.buffer_view
  }
}


// -----// IR Dump After IPOPass (iree-util-ipo) //----- //
#executable_target_rocm_hsaco_fb = #hal.executable.target<"rocm", "rocm-hsaco-fb", {abi = "hip", iree.encoding.resolver = #iree_gpu.gpu_encoding_resolver<>, iree_codegen.default_tuning_spec = #rocm.builtin.tuning_module<"iree_default_tuning_spec_gfx942.mlir">, iree_codegen.target_info = #iree_gpu.target<arch = "gfx942", features = "", wgp = <compute =  fp64|fp32|fp16|int64|int32|int16|int8, storage =  b64|b32|b16|b8, subgroup =  shuffle|arithmetic, dot =  dp4xi8toi32, mma = [<MFMA_F32_16x16x16_BF16>, <MFMA_F32_32x32x8_BF16>, <MFMA_F32_16x16x32_F8E5M2FNUZ>, <MFMA_F32_16x16x32_F8E5M2FNUZ_F8E4M3FNUZ>, <MFMA_F32_16x16x32_F8E4M3FNUZ>, <MFMA_F32_16x16x32_F8E4M3FNUZ_F8E5M2FNUZ>, <MFMA_F32_32x32x16_F8E5M2FNUZ>, <MFMA_F32_32x32x16_F8E5M2FNUZ_F8E4M3FNUZ>, <MFMA_F32_32x32x16_F8E4M3FNUZ>, <MFMA_F32_32x32x16_F8E4M3FNUZ_F8E5M2FNUZ>, <MFMA_I32_16x16x32_I8>, <MFMA_I32_32x32x16_I8>, <MFMA_F64_16x16x4_F64>, <MFMA_F32_16x16x4_F32>, <MFMA_F32_16x16x16_F16>, <MFMA_F32_32x32x8_F16>], subgroup_size_choices = [64], max_workgroup_sizes = [1024, 1024, 1024], max_thread_count_per_workgroup = 1024, max_workgroup_memory_bytes = 65536, max_workgroup_counts = [2147483647, 2147483647, 2147483647], max_load_instruction_bits = 128, simds_per_wgp = 4, vgpr_space_bits = 16384, dma_sizes = [32]>>, ukernels = "none"}>
#device_target_hip = #hal.device.target<"hip", [#executable_target_rocm_hsaco_fb]> : !hal.device
module attributes {iree.fixedpoint.iteration = 0 : index, stream.affinity.default = #hal.device.affinity<@__device_0>} {
  util.global private @__device_0 = #device_target_hip
  util.func public @test_simple_argmax_4x16(%arg0: !hal.buffer_view) -> (!hal.buffer_view, !hal.buffer_view) attributes {iree.abi.stub, iree.reflection = {iree.abi.declaration = "sync func @test_simple_argmax_4x16(%input0: tensor<4x16x128256xf16>) -> (%output0: tensor<4x16xf16>, %output1: tensor<4x16xi32>)"}} {
    %c0_i32 = arith.constant 0 : i32
    %cst = arith.constant 0xFC00 : f16
    %0 = hal.tensor.import %arg0 "input0" : !hal.buffer_view -> tensor<4x16x128256xf16>
    %1 = iree_tensor_ext.compute_barrier.start %0 : tensor<4x16x128256xf16> -> tensor<4x16x128256xf16>
    %2 = tensor.empty() : tensor<4x16xf16>
    %3 = tensor.empty() : tensor<4x16xi32>
    %4 = linalg.fill ins(%cst : f16) outs(%2 : tensor<4x16xf16>) -> tensor<4x16xf16>
    %5 = linalg.fill ins(%c0_i32 : i32) outs(%3 : tensor<4x16xi32>) -> tensor<4x16xi32>
    %6:2 = iree_linalg_ext.arg_compare dimension(2) ins(%1 : tensor<4x16x128256xf16>) outs(%4, %5 : tensor<4x16xf16>, tensor<4x16xi32>) {
    ^bb0(%arg1: f16, %arg2: f16):
      %11 = arith.cmpf ogt, %arg1, %arg2 : f16
      iree_linalg_ext.yield %11 : i1
    } -> tensor<4x16xf16>, tensor<4x16xi32>
    %7 = iree_tensor_ext.compute_barrier.end %6#1 : tensor<4x16xi32> -> tensor<4x16xi32>
    %8 = iree_tensor_ext.compute_barrier.end %6#0 : tensor<4x16xf16> -> tensor<4x16xf16>
    %9 = hal.tensor.export %8 "output0" : tensor<4x16xf16> -> !hal.buffer_view
    %10 = hal.tensor.export %7 "output1" : tensor<4x16xi32> -> !hal.buffer_view
    util.return %9, %10 : !hal.buffer_view, !hal.buffer_view
  }
}


// -----// IR Dump After FixedPointIteratorPass (iree-util-fixed-point-iterator) //----- //
#executable_target_rocm_hsaco_fb = #hal.executable.target<"rocm", "rocm-hsaco-fb", {abi = "hip", iree.encoding.resolver = #iree_gpu.gpu_encoding_resolver<>, iree_codegen.default_tuning_spec = #rocm.builtin.tuning_module<"iree_default_tuning_spec_gfx942.mlir">, iree_codegen.target_info = #iree_gpu.target<arch = "gfx942", features = "", wgp = <compute =  fp64|fp32|fp16|int64|int32|int16|int8, storage =  b64|b32|b16|b8, subgroup =  shuffle|arithmetic, dot =  dp4xi8toi32, mma = [<MFMA_F32_16x16x16_BF16>, <MFMA_F32_32x32x8_BF16>, <MFMA_F32_16x16x32_F8E5M2FNUZ>, <MFMA_F32_16x16x32_F8E5M2FNUZ_F8E4M3FNUZ>, <MFMA_F32_16x16x32_F8E4M3FNUZ>, <MFMA_F32_16x16x32_F8E4M3FNUZ_F8E5M2FNUZ>, <MFMA_F32_32x32x16_F8E5M2FNUZ>, <MFMA_F32_32x32x16_F8E5M2FNUZ_F8E4M3FNUZ>, <MFMA_F32_32x32x16_F8E4M3FNUZ>, <MFMA_F32_32x32x16_F8E4M3FNUZ_F8E5M2FNUZ>, <MFMA_I32_16x16x32_I8>, <MFMA_I32_32x32x16_I8>, <MFMA_F64_16x16x4_F64>, <MFMA_F32_16x16x4_F32>, <MFMA_F32_16x16x16_F16>, <MFMA_F32_32x32x8_F16>], subgroup_size_choices = [64], max_workgroup_sizes = [1024, 1024, 1024], max_thread_count_per_workgroup = 1024, max_workgroup_memory_bytes = 65536, max_workgroup_counts = [2147483647, 2147483647, 2147483647], max_load_instruction_bits = 128, simds_per_wgp = 4, vgpr_space_bits = 16384, dma_sizes = [32]>>, ukernels = "none"}>
#device_target_hip = #hal.device.target<"hip", [#executable_target_rocm_hsaco_fb]> : !hal.device
module attributes {stream.affinity.default = #hal.device.affinity<@__device_0>} {
  util.global private @__device_0 = #device_target_hip
  util.func public @test_simple_argmax_4x16(%arg0: !hal.buffer_view) -> (!hal.buffer_view, !hal.buffer_view) attributes {iree.abi.stub, iree.reflection = {iree.abi.declaration = "sync func @test_simple_argmax_4x16(%input0: tensor<4x16x128256xf16>) -> (%output0: tensor<4x16xf16>, %output1: tensor<4x16xi32>)"}} {
    %c0_i32 = arith.constant 0 : i32
    %cst = arith.constant 0xFC00 : f16
    %0 = hal.tensor.import %arg0 "input0" : !hal.buffer_view -> tensor<4x16x128256xf16>
    %1 = iree_tensor_ext.compute_barrier.start %0 : tensor<4x16x128256xf16> -> tensor<4x16x128256xf16>
    %2 = tensor.empty() : tensor<4x16xf16>
    %3 = tensor.empty() : tensor<4x16xi32>
    %4 = linalg.fill ins(%cst : f16) outs(%2 : tensor<4x16xf16>) -> tensor<4x16xf16>
    %5 = linalg.fill ins(%c0_i32 : i32) outs(%3 : tensor<4x16xi32>) -> tensor<4x16xi32>
    %6:2 = iree_linalg_ext.arg_compare dimension(2) ins(%1 : tensor<4x16x128256xf16>) outs(%4, %5 : tensor<4x16xf16>, tensor<4x16xi32>) {
    ^bb0(%arg1: f16, %arg2: f16):
      %11 = arith.cmpf ogt, %arg1, %arg2 : f16
      iree_linalg_ext.yield %11 : i1
    } -> tensor<4x16xf16>, tensor<4x16xi32>
    %7 = iree_tensor_ext.compute_barrier.end %6#1 : tensor<4x16xi32> -> tensor<4x16xi32>
    %8 = iree_tensor_ext.compute_barrier.end %6#0 : tensor<4x16xf16> -> tensor<4x16xf16>
    %9 = hal.tensor.export %8 "output0" : tensor<4x16xf16> -> !hal.buffer_view
    %10 = hal.tensor.export %7 "output1" : tensor<4x16xi32> -> !hal.buffer_view
    util.return %9, %10 : !hal.buffer_view, !hal.buffer_view
  }
}


// -----// IR Dump After FusionPreprocessingPass (iree-dispatch-creation-fusion-preprocessing) //----- //
util.func public @test_simple_argmax_4x16(%arg0: !hal.buffer_view) -> (!hal.buffer_view, !hal.buffer_view) attributes {iree.abi.stub, iree.reflection = {iree.abi.declaration = "sync func @test_simple_argmax_4x16(%input0: tensor<4x16x128256xf16>) -> (%output0: tensor<4x16xf16>, %output1: tensor<4x16xi32>)"}} {
  %c0_i32 = arith.constant 0 : i32
  %cst = arith.constant 0xFC00 : f16
  %0 = hal.tensor.import %arg0 "input0" : !hal.buffer_view -> tensor<4x16x128256xf16>
  %1 = iree_tensor_ext.compute_barrier.start %0 : tensor<4x16x128256xf16> -> tensor<4x16x128256xf16>
  %2 = tensor.empty() : tensor<4x16xf16>
  %3 = tensor.empty() : tensor<4x16xi32>
  %4 = linalg.fill ins(%cst : f16) outs(%2 : tensor<4x16xf16>) -> tensor<4x16xf16>
  %5 = linalg.fill ins(%c0_i32 : i32) outs(%3 : tensor<4x16xi32>) -> tensor<4x16xi32>
  %6:2 = iree_linalg_ext.arg_compare dimension(2) ins(%1 : tensor<4x16x128256xf16>) outs(%4, %5 : tensor<4x16xf16>, tensor<4x16xi32>) {
  ^bb0(%arg1: f16, %arg2: f16):
    %11 = arith.cmpf ogt, %arg1, %arg2 : f16
    iree_linalg_ext.yield %11 : i1
  } -> tensor<4x16xf16>, tensor<4x16xi32>
  %7 = iree_tensor_ext.compute_barrier.end %6#1 : tensor<4x16xi32> -> tensor<4x16xi32>
  %8 = iree_tensor_ext.compute_barrier.end %6#0 : tensor<4x16xf16> -> tensor<4x16xf16>
  %9 = hal.tensor.export %8 "output0" : tensor<4x16xf16> -> !hal.buffer_view
  %10 = hal.tensor.export %7 "output1" : tensor<4x16xi32> -> !hal.buffer_view
  util.return %9, %10 : !hal.buffer_view, !hal.buffer_view
}

// -----// IR Dump After CanonicalizePass (iree-flow-canonicalize) //----- //
util.func public @test_simple_argmax_4x16(%arg0: !hal.buffer_view) -> (!hal.buffer_view, !hal.buffer_view) attributes {iree.abi.stub, iree.reflection = {iree.abi.declaration = "sync func @test_simple_argmax_4x16(%input0: tensor<4x16x128256xf16>) -> (%output0: tensor<4x16xf16>, %output1: tensor<4x16xi32>)"}} {
  %c0_i32 = arith.constant 0 : i32
  %cst = arith.constant 0xFC00 : f16
  %0 = hal.tensor.import %arg0 "input0" : !hal.buffer_view -> tensor<4x16x128256xf16>
  %1 = iree_tensor_ext.compute_barrier.start %0 : tensor<4x16x128256xf16> -> tensor<4x16x128256xf16>
  %2 = tensor.empty() : tensor<4x16xf16>
  %3 = tensor.empty() : tensor<4x16xi32>
  %4 = linalg.fill ins(%cst : f16) outs(%2 : tensor<4x16xf16>) -> tensor<4x16xf16>
  %5 = linalg.fill ins(%c0_i32 : i32) outs(%3 : tensor<4x16xi32>) -> tensor<4x16xi32>
  %6:2 = iree_linalg_ext.arg_compare dimension(2) ins(%1 : tensor<4x16x128256xf16>) outs(%4, %5 : tensor<4x16xf16>, tensor<4x16xi32>) {
  ^bb0(%arg1: f16, %arg2: f16):
    %11 = arith.cmpf ogt, %arg1, %arg2 : f16
    iree_linalg_ext.yield %11 : i1
  } -> tensor<4x16xf16>, tensor<4x16xi32>
  %7 = iree_tensor_ext.compute_barrier.end %6#1 : tensor<4x16xi32> -> tensor<4x16xi32>
  %8 = iree_tensor_ext.compute_barrier.end %6#0 : tensor<4x16xf16> -> tensor<4x16xf16>
  %9 = hal.tensor.export %8 "output0" : tensor<4x16xf16> -> !hal.buffer_view
  %10 = hal.tensor.export %7 "output1" : tensor<4x16xi32> -> !hal.buffer_view
  util.return %9, %10 : !hal.buffer_view, !hal.buffer_view
}

// -----// IR Dump After CSE (cse) //----- //
util.func public @test_simple_argmax_4x16(%arg0: !hal.buffer_view) -> (!hal.buffer_view, !hal.buffer_view) attributes {iree.abi.stub, iree.reflection = {iree.abi.declaration = "sync func @test_simple_argmax_4x16(%input0: tensor<4x16x128256xf16>) -> (%output0: tensor<4x16xf16>, %output1: tensor<4x16xi32>)"}} {
  %c0_i32 = arith.constant 0 : i32
  %cst = arith.constant 0xFC00 : f16
  %0 = hal.tensor.import %arg0 "input0" : !hal.buffer_view -> tensor<4x16x128256xf16>
  %1 = iree_tensor_ext.compute_barrier.start %0 : tensor<4x16x128256xf16> -> tensor<4x16x128256xf16>
  %2 = tensor.empty() : tensor<4x16xf16>
  %3 = tensor.empty() : tensor<4x16xi32>
  %4 = linalg.fill ins(%cst : f16) outs(%2 : tensor<4x16xf16>) -> tensor<4x16xf16>
  %5 = linalg.fill ins(%c0_i32 : i32) outs(%3 : tensor<4x16xi32>) -> tensor<4x16xi32>
  %6:2 = iree_linalg_ext.arg_compare dimension(2) ins(%1 : tensor<4x16x128256xf16>) outs(%4, %5 : tensor<4x16xf16>, tensor<4x16xi32>) {
  ^bb0(%arg1: f16, %arg2: f16):
    %11 = arith.cmpf ogt, %arg1, %arg2 : f16
    iree_linalg_ext.yield %11 : i1
  } -> tensor<4x16xf16>, tensor<4x16xi32>
  %7 = iree_tensor_ext.compute_barrier.end %6#1 : tensor<4x16xi32> -> tensor<4x16xi32>
  %8 = iree_tensor_ext.compute_barrier.end %6#0 : tensor<4x16xf16> -> tensor<4x16xf16>
  %9 = hal.tensor.export %8 "output0" : tensor<4x16xf16> -> !hal.buffer_view
  %10 = hal.tensor.export %7 "output1" : tensor<4x16xi32> -> !hal.buffer_view
  util.return %9, %10 : !hal.buffer_view, !hal.buffer_view
}

// -----// IR Dump After ElementwiseOpFusionPass (iree-dispatch-creation-elementwise-op-fusion) //----- //
util.func public @test_simple_argmax_4x16(%arg0: !hal.buffer_view) -> (!hal.buffer_view, !hal.buffer_view) attributes {iree.abi.stub, iree.reflection = {iree.abi.declaration = "sync func @test_simple_argmax_4x16(%input0: tensor<4x16x128256xf16>) -> (%output0: tensor<4x16xf16>, %output1: tensor<4x16xi32>)"}} {
  %c0_i32 = arith.constant 0 : i32
  %cst = arith.constant 0xFC00 : f16
  %0 = hal.tensor.import %arg0 "input0" : !hal.buffer_view -> tensor<4x16x128256xf16>
  %1 = iree_tensor_ext.compute_barrier.start %0 : tensor<4x16x128256xf16> -> tensor<4x16x128256xf16>
  %2 = tensor.empty() : tensor<4x16xf16>
  %3 = tensor.empty() : tensor<4x16xi32>
  %4 = linalg.fill ins(%cst : f16) outs(%2 : tensor<4x16xf16>) -> tensor<4x16xf16>
  %5 = linalg.fill ins(%c0_i32 : i32) outs(%3 : tensor<4x16xi32>) -> tensor<4x16xi32>
  %6:2 = iree_linalg_ext.arg_compare dimension(2) ins(%1 : tensor<4x16x128256xf16>) outs(%4, %5 : tensor<4x16xf16>, tensor<4x16xi32>) {
  ^bb0(%arg1: f16, %arg2: f16):
    %11 = arith.cmpf ogt, %arg1, %arg2 : f16
    iree_linalg_ext.yield %11 : i1
  } -> tensor<4x16xf16>, tensor<4x16xi32>
  %7 = iree_tensor_ext.compute_barrier.end %6#1 : tensor<4x16xi32> -> tensor<4x16xi32>
  %8 = iree_tensor_ext.compute_barrier.end %6#0 : tensor<4x16xf16> -> tensor<4x16xf16>
  %9 = hal.tensor.export %8 "output0" : tensor<4x16xf16> -> !hal.buffer_view
  %10 = hal.tensor.export %7 "output1" : tensor<4x16xi32> -> !hal.buffer_view
  util.return %9, %10 : !hal.buffer_view, !hal.buffer_view
}

// -----// IR Dump After CanonicalizePass (iree-flow-canonicalize) //----- //
util.func public @test_simple_argmax_4x16(%arg0: !hal.buffer_view) -> (!hal.buffer_view, !hal.buffer_view) attributes {iree.abi.stub, iree.reflection = {iree.abi.declaration = "sync func @test_simple_argmax_4x16(%input0: tensor<4x16x128256xf16>) -> (%output0: tensor<4x16xf16>, %output1: tensor<4x16xi32>)"}} {
  %c0_i32 = arith.constant 0 : i32
  %cst = arith.constant 0xFC00 : f16
  %0 = hal.tensor.import %arg0 "input0" : !hal.buffer_view -> tensor<4x16x128256xf16>
  %1 = iree_tensor_ext.compute_barrier.start %0 : tensor<4x16x128256xf16> -> tensor<4x16x128256xf16>
  %2 = tensor.empty() : tensor<4x16xf16>
  %3 = tensor.empty() : tensor<4x16xi32>
  %4 = linalg.fill ins(%cst : f16) outs(%2 : tensor<4x16xf16>) -> tensor<4x16xf16>
  %5 = linalg.fill ins(%c0_i32 : i32) outs(%3 : tensor<4x16xi32>) -> tensor<4x16xi32>
  %6:2 = iree_linalg_ext.arg_compare dimension(2) ins(%1 : tensor<4x16x128256xf16>) outs(%4, %5 : tensor<4x16xf16>, tensor<4x16xi32>) {
  ^bb0(%arg1: f16, %arg2: f16):
    %11 = arith.cmpf ogt, %arg1, %arg2 : f16
    iree_linalg_ext.yield %11 : i1
  } -> tensor<4x16xf16>, tensor<4x16xi32>
  %7 = iree_tensor_ext.compute_barrier.end %6#1 : tensor<4x16xi32> -> tensor<4x16xi32>
  %8 = iree_tensor_ext.compute_barrier.end %6#0 : tensor<4x16xf16> -> tensor<4x16xf16>
  %9 = hal.tensor.export %8 "output0" : tensor<4x16xf16> -> !hal.buffer_view
  %10 = hal.tensor.export %7 "output1" : tensor<4x16xi32> -> !hal.buffer_view
  util.return %9, %10 : !hal.buffer_view, !hal.buffer_view
}

// -----// IR Dump After CSE (cse) //----- //
util.func public @test_simple_argmax_4x16(%arg0: !hal.buffer_view) -> (!hal.buffer_view, !hal.buffer_view) attributes {iree.abi.stub, iree.reflection = {iree.abi.declaration = "sync func @test_simple_argmax_4x16(%input0: tensor<4x16x128256xf16>) -> (%output0: tensor<4x16xf16>, %output1: tensor<4x16xi32>)"}} {
  %c0_i32 = arith.constant 0 : i32
  %cst = arith.constant 0xFC00 : f16
  %0 = hal.tensor.import %arg0 "input0" : !hal.buffer_view -> tensor<4x16x128256xf16>
  %1 = iree_tensor_ext.compute_barrier.start %0 : tensor<4x16x128256xf16> -> tensor<4x16x128256xf16>
  %2 = tensor.empty() : tensor<4x16xf16>
  %3 = tensor.empty() : tensor<4x16xi32>
  %4 = linalg.fill ins(%cst : f16) outs(%2 : tensor<4x16xf16>) -> tensor<4x16xf16>
  %5 = linalg.fill ins(%c0_i32 : i32) outs(%3 : tensor<4x16xi32>) -> tensor<4x16xi32>
  %6:2 = iree_linalg_ext.arg_compare dimension(2) ins(%1 : tensor<4x16x128256xf16>) outs(%4, %5 : tensor<4x16xf16>, tensor<4x16xi32>) {
  ^bb0(%arg1: f16, %arg2: f16):
    %11 = arith.cmpf ogt, %arg1, %arg2 : f16
    iree_linalg_ext.yield %11 : i1
  } -> tensor<4x16xf16>, tensor<4x16xi32>
  %7 = iree_tensor_ext.compute_barrier.end %6#1 : tensor<4x16xi32> -> tensor<4x16xi32>
  %8 = iree_tensor_ext.compute_barrier.end %6#0 : tensor<4x16xf16> -> tensor<4x16xf16>
  %9 = hal.tensor.export %8 "output0" : tensor<4x16xf16> -> !hal.buffer_view
  %10 = hal.tensor.export %7 "output1" : tensor<4x16xi32> -> !hal.buffer_view
  util.return %9, %10 : !hal.buffer_view, !hal.buffer_view
}

// -----// IR Dump After BubbleUpExpandShapesPass (iree-dispatch-creation-bubble-up-expand-shapes) //----- //
util.func public @test_simple_argmax_4x16(%arg0: !hal.buffer_view) -> (!hal.buffer_view, !hal.buffer_view) attributes {iree.abi.stub, iree.reflection = {iree.abi.declaration = "sync func @test_simple_argmax_4x16(%input0: tensor<4x16x128256xf16>) -> (%output0: tensor<4x16xf16>, %output1: tensor<4x16xi32>)"}} {
  %c0_i32 = arith.constant 0 : i32
  %cst = arith.constant 0xFC00 : f16
  %0 = hal.tensor.import %arg0 "input0" : !hal.buffer_view -> tensor<4x16x128256xf16>
  %1 = iree_tensor_ext.compute_barrier.start %0 : tensor<4x16x128256xf16> -> tensor<4x16x128256xf16>
  %2 = tensor.empty() : tensor<4x16xf16>
  %3 = tensor.empty() : tensor<4x16xi32>
  %4 = linalg.fill ins(%cst : f16) outs(%2 : tensor<4x16xf16>) -> tensor<4x16xf16>
  %5 = linalg.fill ins(%c0_i32 : i32) outs(%3 : tensor<4x16xi32>) -> tensor<4x16xi32>
  %6:2 = iree_linalg_ext.arg_compare dimension(2) ins(%1 : tensor<4x16x128256xf16>) outs(%4, %5 : tensor<4x16xf16>, tensor<4x16xi32>) {
  ^bb0(%arg1: f16, %arg2: f16):
    %11 = arith.cmpf ogt, %arg1, %arg2 : f16
    iree_linalg_ext.yield %11 : i1
  } -> tensor<4x16xf16>, tensor<4x16xi32>
  %7 = iree_tensor_ext.compute_barrier.end %6#1 : tensor<4x16xi32> -> tensor<4x16xi32>
  %8 = iree_tensor_ext.compute_barrier.end %6#0 : tensor<4x16xf16> -> tensor<4x16xf16>
  %9 = hal.tensor.export %8 "output0" : tensor<4x16xf16> -> !hal.buffer_view
  %10 = hal.tensor.export %7 "output1" : tensor<4x16xi32> -> !hal.buffer_view
  util.return %9, %10 : !hal.buffer_view, !hal.buffer_view
}

// -----// IR Dump After CanonicalizePass (iree-flow-canonicalize) //----- //
util.func public @test_simple_argmax_4x16(%arg0: !hal.buffer_view) -> (!hal.buffer_view, !hal.buffer_view) attributes {iree.abi.stub, iree.reflection = {iree.abi.declaration = "sync func @test_simple_argmax_4x16(%input0: tensor<4x16x128256xf16>) -> (%output0: tensor<4x16xf16>, %output1: tensor<4x16xi32>)"}} {
  %c0_i32 = arith.constant 0 : i32
  %cst = arith.constant 0xFC00 : f16
  %0 = hal.tensor.import %arg0 "input0" : !hal.buffer_view -> tensor<4x16x128256xf16>
  %1 = iree_tensor_ext.compute_barrier.start %0 : tensor<4x16x128256xf16> -> tensor<4x16x128256xf16>
  %2 = tensor.empty() : tensor<4x16xf16>
  %3 = tensor.empty() : tensor<4x16xi32>
  %4 = linalg.fill ins(%cst : f16) outs(%2 : tensor<4x16xf16>) -> tensor<4x16xf16>
  %5 = linalg.fill ins(%c0_i32 : i32) outs(%3 : tensor<4x16xi32>) -> tensor<4x16xi32>
  %6:2 = iree_linalg_ext.arg_compare dimension(2) ins(%1 : tensor<4x16x128256xf16>) outs(%4, %5 : tensor<4x16xf16>, tensor<4x16xi32>) {
  ^bb0(%arg1: f16, %arg2: f16):
    %11 = arith.cmpf ogt, %arg1, %arg2 : f16
    iree_linalg_ext.yield %11 : i1
  } -> tensor<4x16xf16>, tensor<4x16xi32>
  %7 = iree_tensor_ext.compute_barrier.end %6#1 : tensor<4x16xi32> -> tensor<4x16xi32>
  %8 = iree_tensor_ext.compute_barrier.end %6#0 : tensor<4x16xf16> -> tensor<4x16xf16>
  %9 = hal.tensor.export %8 "output0" : tensor<4x16xf16> -> !hal.buffer_view
  %10 = hal.tensor.export %7 "output1" : tensor<4x16xi32> -> !hal.buffer_view
  util.return %9, %10 : !hal.buffer_view, !hal.buffer_view
}

// -----// IR Dump After CSE (cse) //----- //
util.func public @test_simple_argmax_4x16(%arg0: !hal.buffer_view) -> (!hal.buffer_view, !hal.buffer_view) attributes {iree.abi.stub, iree.reflection = {iree.abi.declaration = "sync func @test_simple_argmax_4x16(%input0: tensor<4x16x128256xf16>) -> (%output0: tensor<4x16xf16>, %output1: tensor<4x16xi32>)"}} {
  %c0_i32 = arith.constant 0 : i32
  %cst = arith.constant 0xFC00 : f16
  %0 = hal.tensor.import %arg0 "input0" : !hal.buffer_view -> tensor<4x16x128256xf16>
  %1 = iree_tensor_ext.compute_barrier.start %0 : tensor<4x16x128256xf16> -> tensor<4x16x128256xf16>
  %2 = tensor.empty() : tensor<4x16xf16>
  %3 = tensor.empty() : tensor<4x16xi32>
  %4 = linalg.fill ins(%cst : f16) outs(%2 : tensor<4x16xf16>) -> tensor<4x16xf16>
  %5 = linalg.fill ins(%c0_i32 : i32) outs(%3 : tensor<4x16xi32>) -> tensor<4x16xi32>
  %6:2 = iree_linalg_ext.arg_compare dimension(2) ins(%1 : tensor<4x16x128256xf16>) outs(%4, %5 : tensor<4x16xf16>, tensor<4x16xi32>) {
  ^bb0(%arg1: f16, %arg2: f16):
    %11 = arith.cmpf ogt, %arg1, %arg2 : f16
    iree_linalg_ext.yield %11 : i1
  } -> tensor<4x16xf16>, tensor<4x16xi32>
  %7 = iree_tensor_ext.compute_barrier.end %6#1 : tensor<4x16xi32> -> tensor<4x16xi32>
  %8 = iree_tensor_ext.compute_barrier.end %6#0 : tensor<4x16xf16> -> tensor<4x16xf16>
  %9 = hal.tensor.export %8 "output0" : tensor<4x16xf16> -> !hal.buffer_view
  %10 = hal.tensor.export %7 "output1" : tensor<4x16xi32> -> !hal.buffer_view
  util.return %9, %10 : !hal.buffer_view, !hal.buffer_view
}

// -----// IR Dump After ElementwiseOpFusionPass (iree-dispatch-creation-elementwise-op-fusion) //----- //
util.func public @test_simple_argmax_4x16(%arg0: !hal.buffer_view) -> (!hal.buffer_view, !hal.buffer_view) attributes {iree.abi.stub, iree.reflection = {iree.abi.declaration = "sync func @test_simple_argmax_4x16(%input0: tensor<4x16x128256xf16>) -> (%output0: tensor<4x16xf16>, %output1: tensor<4x16xi32>)"}} {
  %c0_i32 = arith.constant 0 : i32
  %cst = arith.constant 0xFC00 : f16
  %0 = hal.tensor.import %arg0 "input0" : !hal.buffer_view -> tensor<4x16x128256xf16>
  %1 = iree_tensor_ext.compute_barrier.start %0 : tensor<4x16x128256xf16> -> tensor<4x16x128256xf16>
  %2 = tensor.empty() : tensor<4x16xf16>
  %3 = tensor.empty() : tensor<4x16xi32>
  %4 = linalg.fill ins(%cst : f16) outs(%2 : tensor<4x16xf16>) -> tensor<4x16xf16>
  %5 = linalg.fill ins(%c0_i32 : i32) outs(%3 : tensor<4x16xi32>) -> tensor<4x16xi32>
  %6:2 = iree_linalg_ext.arg_compare dimension(2) ins(%1 : tensor<4x16x128256xf16>) outs(%4, %5 : tensor<4x16xf16>, tensor<4x16xi32>) {
  ^bb0(%arg1: f16, %arg2: f16):
    %11 = arith.cmpf ogt, %arg1, %arg2 : f16
    iree_linalg_ext.yield %11 : i1
  } -> tensor<4x16xf16>, tensor<4x16xi32>
  %7 = iree_tensor_ext.compute_barrier.end %6#1 : tensor<4x16xi32> -> tensor<4x16xi32>
  %8 = iree_tensor_ext.compute_barrier.end %6#0 : tensor<4x16xf16> -> tensor<4x16xf16>
  %9 = hal.tensor.export %8 "output0" : tensor<4x16xf16> -> !hal.buffer_view
  %10 = hal.tensor.export %7 "output1" : tensor<4x16xi32> -> !hal.buffer_view
  util.return %9, %10 : !hal.buffer_view, !hal.buffer_view
}

// -----// IR Dump After CanonicalizePass (iree-flow-canonicalize) //----- //
util.func public @test_simple_argmax_4x16(%arg0: !hal.buffer_view) -> (!hal.buffer_view, !hal.buffer_view) attributes {iree.abi.stub, iree.reflection = {iree.abi.declaration = "sync func @test_simple_argmax_4x16(%input0: tensor<4x16x128256xf16>) -> (%output0: tensor<4x16xf16>, %output1: tensor<4x16xi32>)"}} {
  %c0_i32 = arith.constant 0 : i32
  %cst = arith.constant 0xFC00 : f16
  %0 = hal.tensor.import %arg0 "input0" : !hal.buffer_view -> tensor<4x16x128256xf16>
  %1 = iree_tensor_ext.compute_barrier.start %0 : tensor<4x16x128256xf16> -> tensor<4x16x128256xf16>
  %2 = tensor.empty() : tensor<4x16xf16>
  %3 = tensor.empty() : tensor<4x16xi32>
  %4 = linalg.fill ins(%cst : f16) outs(%2 : tensor<4x16xf16>) -> tensor<4x16xf16>
  %5 = linalg.fill ins(%c0_i32 : i32) outs(%3 : tensor<4x16xi32>) -> tensor<4x16xi32>
  %6:2 = iree_linalg_ext.arg_compare dimension(2) ins(%1 : tensor<4x16x128256xf16>) outs(%4, %5 : tensor<4x16xf16>, tensor<4x16xi32>) {
  ^bb0(%arg1: f16, %arg2: f16):
    %11 = arith.cmpf ogt, %arg1, %arg2 : f16
    iree_linalg_ext.yield %11 : i1
  } -> tensor<4x16xf16>, tensor<4x16xi32>
  %7 = iree_tensor_ext.compute_barrier.end %6#1 : tensor<4x16xi32> -> tensor<4x16xi32>
  %8 = iree_tensor_ext.compute_barrier.end %6#0 : tensor<4x16xf16> -> tensor<4x16xf16>
  %9 = hal.tensor.export %8 "output0" : tensor<4x16xf16> -> !hal.buffer_view
  %10 = hal.tensor.export %7 "output1" : tensor<4x16xi32> -> !hal.buffer_view
  util.return %9, %10 : !hal.buffer_view, !hal.buffer_view
}

// -----// IR Dump After CSE (cse) //----- //
util.func public @test_simple_argmax_4x16(%arg0: !hal.buffer_view) -> (!hal.buffer_view, !hal.buffer_view) attributes {iree.abi.stub, iree.reflection = {iree.abi.declaration = "sync func @test_simple_argmax_4x16(%input0: tensor<4x16x128256xf16>) -> (%output0: tensor<4x16xf16>, %output1: tensor<4x16xi32>)"}} {
  %c0_i32 = arith.constant 0 : i32
  %cst = arith.constant 0xFC00 : f16
  %0 = hal.tensor.import %arg0 "input0" : !hal.buffer_view -> tensor<4x16x128256xf16>
  %1 = iree_tensor_ext.compute_barrier.start %0 : tensor<4x16x128256xf16> -> tensor<4x16x128256xf16>
  %2 = tensor.empty() : tensor<4x16xf16>
  %3 = tensor.empty() : tensor<4x16xi32>
  %4 = linalg.fill ins(%cst : f16) outs(%2 : tensor<4x16xf16>) -> tensor<4x16xf16>
  %5 = linalg.fill ins(%c0_i32 : i32) outs(%3 : tensor<4x16xi32>) -> tensor<4x16xi32>
  %6:2 = iree_linalg_ext.arg_compare dimension(2) ins(%1 : tensor<4x16x128256xf16>) outs(%4, %5 : tensor<4x16xf16>, tensor<4x16xi32>) {
  ^bb0(%arg1: f16, %arg2: f16):
    %11 = arith.cmpf ogt, %arg1, %arg2 : f16
    iree_linalg_ext.yield %11 : i1
  } -> tensor<4x16xf16>, tensor<4x16xi32>
  %7 = iree_tensor_ext.compute_barrier.end %6#1 : tensor<4x16xi32> -> tensor<4x16xi32>
  %8 = iree_tensor_ext.compute_barrier.end %6#0 : tensor<4x16xf16> -> tensor<4x16xf16>
  %9 = hal.tensor.export %8 "output0" : tensor<4x16xf16> -> !hal.buffer_view
  %10 = hal.tensor.export %7 "output1" : tensor<4x16xi32> -> !hal.buffer_view
  util.return %9, %10 : !hal.buffer_view, !hal.buffer_view
}

// -----// IR Dump After SinkReshapesPass (iree-dispatch-creation-sink-reshapes) //----- //
util.func public @test_simple_argmax_4x16(%arg0: !hal.buffer_view) -> (!hal.buffer_view, !hal.buffer_view) attributes {iree.abi.stub, iree.reflection = {iree.abi.declaration = "sync func @test_simple_argmax_4x16(%input0: tensor<4x16x128256xf16>) -> (%output0: tensor<4x16xf16>, %output1: tensor<4x16xi32>)"}} {
  %c0_i32 = arith.constant 0 : i32
  %cst = arith.constant 0xFC00 : f16
  %0 = hal.tensor.import %arg0 "input0" : !hal.buffer_view -> tensor<4x16x128256xf16>
  %1 = iree_tensor_ext.compute_barrier.start %0 : tensor<4x16x128256xf16> -> tensor<4x16x128256xf16>
  %2 = tensor.empty() : tensor<4x16xf16>
  %3 = tensor.empty() : tensor<4x16xi32>
  %4 = linalg.fill ins(%cst : f16) outs(%2 : tensor<4x16xf16>) -> tensor<4x16xf16>
  %5 = linalg.fill ins(%c0_i32 : i32) outs(%3 : tensor<4x16xi32>) -> tensor<4x16xi32>
  %6:2 = iree_linalg_ext.arg_compare dimension(2) ins(%1 : tensor<4x16x128256xf16>) outs(%4, %5 : tensor<4x16xf16>, tensor<4x16xi32>) {
  ^bb0(%arg1: f16, %arg2: f16):
    %11 = arith.cmpf ogt, %arg1, %arg2 : f16
    iree_linalg_ext.yield %11 : i1
  } -> tensor<4x16xf16>, tensor<4x16xi32>
  %7 = iree_tensor_ext.compute_barrier.end %6#1 : tensor<4x16xi32> -> tensor<4x16xi32>
  %8 = iree_tensor_ext.compute_barrier.end %6#0 : tensor<4x16xf16> -> tensor<4x16xf16>
  %9 = hal.tensor.export %8 "output0" : tensor<4x16xf16> -> !hal.buffer_view
  %10 = hal.tensor.export %7 "output1" : tensor<4x16xi32> -> !hal.buffer_view
  util.return %9, %10 : !hal.buffer_view, !hal.buffer_view
}

// -----// IR Dump After CanonicalizePass (iree-flow-canonicalize) //----- //
util.func public @test_simple_argmax_4x16(%arg0: !hal.buffer_view) -> (!hal.buffer_view, !hal.buffer_view) attributes {iree.abi.stub, iree.reflection = {iree.abi.declaration = "sync func @test_simple_argmax_4x16(%input0: tensor<4x16x128256xf16>) -> (%output0: tensor<4x16xf16>, %output1: tensor<4x16xi32>)"}} {
  %c0_i32 = arith.constant 0 : i32
  %cst = arith.constant 0xFC00 : f16
  %0 = hal.tensor.import %arg0 "input0" : !hal.buffer_view -> tensor<4x16x128256xf16>
  %1 = iree_tensor_ext.compute_barrier.start %0 : tensor<4x16x128256xf16> -> tensor<4x16x128256xf16>
  %2 = tensor.empty() : tensor<4x16xf16>
  %3 = tensor.empty() : tensor<4x16xi32>
  %4 = linalg.fill ins(%cst : f16) outs(%2 : tensor<4x16xf16>) -> tensor<4x16xf16>
  %5 = linalg.fill ins(%c0_i32 : i32) outs(%3 : tensor<4x16xi32>) -> tensor<4x16xi32>
  %6:2 = iree_linalg_ext.arg_compare dimension(2) ins(%1 : tensor<4x16x128256xf16>) outs(%4, %5 : tensor<4x16xf16>, tensor<4x16xi32>) {
  ^bb0(%arg1: f16, %arg2: f16):
    %11 = arith.cmpf ogt, %arg1, %arg2 : f16
    iree_linalg_ext.yield %11 : i1
  } -> tensor<4x16xf16>, tensor<4x16xi32>
  %7 = iree_tensor_ext.compute_barrier.end %6#1 : tensor<4x16xi32> -> tensor<4x16xi32>
  %8 = iree_tensor_ext.compute_barrier.end %6#0 : tensor<4x16xf16> -> tensor<4x16xf16>
  %9 = hal.tensor.export %8 "output0" : tensor<4x16xf16> -> !hal.buffer_view
  %10 = hal.tensor.export %7 "output1" : tensor<4x16xi32> -> !hal.buffer_view
  util.return %9, %10 : !hal.buffer_view, !hal.buffer_view
}

// -----// IR Dump After CSE (cse) //----- //
util.func public @test_simple_argmax_4x16(%arg0: !hal.buffer_view) -> (!hal.buffer_view, !hal.buffer_view) attributes {iree.abi.stub, iree.reflection = {iree.abi.declaration = "sync func @test_simple_argmax_4x16(%input0: tensor<4x16x128256xf16>) -> (%output0: tensor<4x16xf16>, %output1: tensor<4x16xi32>)"}} {
  %c0_i32 = arith.constant 0 : i32
  %cst = arith.constant 0xFC00 : f16
  %0 = hal.tensor.import %arg0 "input0" : !hal.buffer_view -> tensor<4x16x128256xf16>
  %1 = iree_tensor_ext.compute_barrier.start %0 : tensor<4x16x128256xf16> -> tensor<4x16x128256xf16>
  %2 = tensor.empty() : tensor<4x16xf16>
  %3 = tensor.empty() : tensor<4x16xi32>
  %4 = linalg.fill ins(%cst : f16) outs(%2 : tensor<4x16xf16>) -> tensor<4x16xf16>
  %5 = linalg.fill ins(%c0_i32 : i32) outs(%3 : tensor<4x16xi32>) -> tensor<4x16xi32>
  %6:2 = iree_linalg_ext.arg_compare dimension(2) ins(%1 : tensor<4x16x128256xf16>) outs(%4, %5 : tensor<4x16xf16>, tensor<4x16xi32>) {
  ^bb0(%arg1: f16, %arg2: f16):
    %11 = arith.cmpf ogt, %arg1, %arg2 : f16
    iree_linalg_ext.yield %11 : i1
  } -> tensor<4x16xf16>, tensor<4x16xi32>
  %7 = iree_tensor_ext.compute_barrier.end %6#1 : tensor<4x16xi32> -> tensor<4x16xi32>
  %8 = iree_tensor_ext.compute_barrier.end %6#0 : tensor<4x16xf16> -> tensor<4x16xf16>
  %9 = hal.tensor.export %8 "output0" : tensor<4x16xf16> -> !hal.buffer_view
  %10 = hal.tensor.export %7 "output1" : tensor<4x16xi32> -> !hal.buffer_view
  util.return %9, %10 : !hal.buffer_view, !hal.buffer_view
}

// -----// IR Dump After FuseMultiUseElementwiseProducerPass (iree-dispatch-creation-fuse-multi-use-elementwise-producer) //----- //
util.func public @test_simple_argmax_4x16(%arg0: !hal.buffer_view) -> (!hal.buffer_view, !hal.buffer_view) attributes {iree.abi.stub, iree.reflection = {iree.abi.declaration = "sync func @test_simple_argmax_4x16(%input0: tensor<4x16x128256xf16>) -> (%output0: tensor<4x16xf16>, %output1: tensor<4x16xi32>)"}} {
  %c0_i32 = arith.constant 0 : i32
  %cst = arith.constant 0xFC00 : f16
  %0 = hal.tensor.import %arg0 "input0" : !hal.buffer_view -> tensor<4x16x128256xf16>
  %1 = iree_tensor_ext.compute_barrier.start %0 : tensor<4x16x128256xf16> -> tensor<4x16x128256xf16>
  %2 = tensor.empty() : tensor<4x16xf16>
  %3 = tensor.empty() : tensor<4x16xi32>
  %4 = linalg.fill ins(%cst : f16) outs(%2 : tensor<4x16xf16>) -> tensor<4x16xf16>
  %5 = linalg.fill ins(%c0_i32 : i32) outs(%3 : tensor<4x16xi32>) -> tensor<4x16xi32>
  %6:2 = iree_linalg_ext.arg_compare dimension(2) ins(%1 : tensor<4x16x128256xf16>) outs(%4, %5 : tensor<4x16xf16>, tensor<4x16xi32>) {
  ^bb0(%arg1: f16, %arg2: f16):
    %11 = arith.cmpf ogt, %arg1, %arg2 : f16
    iree_linalg_ext.yield %11 : i1
  } -> tensor<4x16xf16>, tensor<4x16xi32>
  %7 = iree_tensor_ext.compute_barrier.end %6#1 : tensor<4x16xi32> -> tensor<4x16xi32>
  %8 = iree_tensor_ext.compute_barrier.end %6#0 : tensor<4x16xf16> -> tensor<4x16xf16>
  %9 = hal.tensor.export %8 "output0" : tensor<4x16xf16> -> !hal.buffer_view
  %10 = hal.tensor.export %7 "output1" : tensor<4x16xi32> -> !hal.buffer_view
  util.return %9, %10 : !hal.buffer_view, !hal.buffer_view
}

// -----// IR Dump After CanonicalizePass (iree-flow-canonicalize) //----- //
util.func public @test_simple_argmax_4x16(%arg0: !hal.buffer_view) -> (!hal.buffer_view, !hal.buffer_view) attributes {iree.abi.stub, iree.reflection = {iree.abi.declaration = "sync func @test_simple_argmax_4x16(%input0: tensor<4x16x128256xf16>) -> (%output0: tensor<4x16xf16>, %output1: tensor<4x16xi32>)"}} {
  %c0_i32 = arith.constant 0 : i32
  %cst = arith.constant 0xFC00 : f16
…
  %161 = llvm.mul %156, %160 : i64
  %162 = llvm.add %161, %158 : i64
  %163 = llvm.getelementptr %159[%162] : (!llvm.ptr<7>, i64) -> !llvm.ptr<7>, f16
  llvm.store %6, %163 {alignment = 2 : i64} : vector<1xf16>, !llvm.ptr<7>
  llvm.fence syncscope("workgroup") release {llvm.mmra = #llvm.mmra_tag<"amdgpu-synchronize-as":"local">}
  rocdl.s.barrier
  llvm.fence syncscope("workgroup") acquire {llvm.mmra = #llvm.mmra_tag<"amdgpu-synchronize-as":"local">}
  %164 = llvm.extractvalue %153[1] : !llvm.struct<(ptr<7>, ptr<7>, i64, array<2 x i64>, array<2 x i64>)> 
  %165 = llvm.mlir.constant(16 : index) : i64
  %166 = llvm.mul %156, %165 : i64
  %167 = llvm.add %166, %158 : i64
  %168 = llvm.getelementptr %164[%167] : (!llvm.ptr<7>, i64) -> !llvm.ptr<7>, i32
  llvm.store %5, %168 {alignment = 4 : i64} : vector<1xi32>, !llvm.ptr<7>
  llvm.fence syncscope("workgroup") release {llvm.mmra = #llvm.mmra_tag<"amdgpu-synchronize-as":"local">}
  rocdl.s.barrier
  llvm.fence syncscope("workgroup") acquire {llvm.mmra = #llvm.mmra_tag<"amdgpu-synchronize-as":"local">}
  llvm.br ^bb1(%3 : i32)
^bb1(%169: i32):  // 2 preds: ^bb0, ^bb5
  %170 = llvm.icmp "slt" %169, %2 : i32
  llvm.cond_br %170, ^bb2, ^bb6
^bb2:  // pred: ^bb1
  llvm.fence syncscope("workgroup") release {llvm.mmra = #llvm.mmra_tag<"amdgpu-synchronize-as":"local">}
  rocdl.s.barrier
  llvm.fence syncscope("workgroup") acquire {llvm.mmra = #llvm.mmra_tag<"amdgpu-synchronize-as":"local">}
  llvm.br ^bb3(%3 : i32)
^bb3(%171: i32):  // 2 preds: ^bb2, ^bb4
  %172 = llvm.icmp "slt" %171, %1 : i32
  llvm.cond_br %172, ^bb4, ^bb5
^bb4:  // pred: ^bb3
  %173 = llvm.add %169, %171 : i32
  %174 = llvm.zext %173 : i32 to i64
  %175 = llvm.extractvalue %45[1] : !llvm.struct<(ptr<7>, ptr<7>, i64, array<3 x i64>, array<3 x i64>)> 
  %176 = llvm.mlir.constant(1536 : index) : i64
  %177 = llvm.mul %156, %176 overflow<nsw, nuw> : i64
  %178 = llvm.mlir.constant(96 : index) : i64
  %179 = llvm.mul %158, %178 overflow<nsw, nuw> : i64
  %180 = llvm.add %177, %179 overflow<nsw, nuw> : i64
  %181 = llvm.add %180, %174 overflow<nsw, nuw> : i64
  %182 = llvm.getelementptr inbounds|nuw %175[%181] : (!llvm.ptr<7>, i64) -> !llvm.ptr<7>, f16
  %183 = llvm.load %182 : !llvm.ptr<7> -> f16
  %184 = llvm.extractvalue %86[1] : !llvm.struct<(ptr<7>, ptr<7>, i64, array<3 x i64>, array<3 x i64>)> 
  %185 = llvm.mlir.constant(1536 : index) : i64
  %186 = llvm.mul %156, %185 overflow<nsw, nuw> : i64
  %187 = llvm.mlir.constant(96 : index) : i64
  %188 = llvm.mul %158, %187 overflow<nsw, nuw> : i64
  %189 = llvm.add %186, %188 overflow<nsw, nuw> : i64
  %190 = llvm.add %189, %174 overflow<nsw, nuw> : i64
  %191 = llvm.getelementptr inbounds|nuw %184[%190] : (!llvm.ptr<7>, i64) -> !llvm.ptr<7>, i32
  %192 = llvm.load %191 : !llvm.ptr<7> -> i32
  %193 = llvm.extractvalue %116[1] : !llvm.struct<(ptr<7>, ptr<7>, i64, array<2 x i64>, array<2 x i64>)> 
  %194 = llvm.mlir.constant(16 : index) : i64
  %195 = llvm.mul %156, %194 overflow<nsw, nuw> : i64
  %196 = llvm.add %195, %158 overflow<nsw, nuw> : i64
  %197 = llvm.getelementptr inbounds|nuw %193[%196] : (!llvm.ptr<7>, i64) -> !llvm.ptr<7>, f16
  %198 = llvm.load %197 : !llvm.ptr<7> -> f16
  %199 = llvm.extractvalue %153[1] : !llvm.struct<(ptr<7>, ptr<7>, i64, array<2 x i64>, array<2 x i64>)> 
  %200 = llvm.mlir.constant(16 : index) : i64
  %201 = llvm.mul %156, %200 overflow<nsw, nuw> : i64
  %202 = llvm.add %201, %158 overflow<nsw, nuw> : i64
  %203 = llvm.getelementptr inbounds|nuw %199[%202] : (!llvm.ptr<7>, i64) -> !llvm.ptr<7>, i32
  %204 = llvm.load %203 : !llvm.ptr<7> -> i32
  %205 = llvm.fcmp "ogt" %183, %198 : f16
  %206 = llvm.select %205, %183, %198 : i1, f16
  %207 = llvm.select %205, %192, %204 : i1, i32
  %208 = llvm.extractvalue %116[1] : !llvm.struct<(ptr<7>, ptr<7>, i64, array<2 x i64>, array<2 x i64>)> 
  %209 = llvm.mlir.constant(16 : index) : i64
  %210 = llvm.mul %156, %209 overflow<nsw, nuw> : i64
  %211 = llvm.add %210, %158 overflow<nsw, nuw> : i64
  %212 = llvm.getelementptr inbounds|nuw %208[%211] : (!llvm.ptr<7>, i64) -> !llvm.ptr<7>, f16
  llvm.store %206, %212 : f16, !llvm.ptr<7>
  %213 = llvm.extractvalue %153[1] : !llvm.struct<(ptr<7>, ptr<7>, i64, array<2 x i64>, array<2 x i64>)> 
  %214 = llvm.mlir.constant(16 : index) : i64
  %215 = llvm.mul %156, %214 overflow<nsw, nuw> : i64
  %216 = llvm.add %215, %158 overflow<nsw, nuw> : i64
  %217 = llvm.getelementptr inbounds|nuw %213[%216] : (!llvm.ptr<7>, i64) -> !llvm.ptr<7>, i32
  llvm.store %207, %217 : i32, !llvm.ptr<7>
  %218 = llvm.add %171, %0 : i32
  llvm.br ^bb3(%218 : i32)
^bb5:  // pred: ^bb3
  %219 = llvm.add %169, %1 : i32
  llvm.br ^bb1(%219 : i32)
^bb6:  // pred: ^bb1
  llvm.return
}

// -----// IR Dump After TranslateTargetExecutableVariantsPass (iree-hal-translate-target-executable-variants) //----- //
hal.executable.variant public @rocm_hsaco_fb target(<"rocm", "rocm-hsaco-fb", {abi = "hip", iree.encoding.resolver = #iree_gpu.gpu_encoding_resolver<>, iree_codegen.default_tuning_spec = #rocm.builtin.tuning_module<"iree_default_tuning_spec_gfx942.mlir">, iree_codegen.target_info = #iree_gpu.target<arch = "gfx942", features = "", wgp = <compute =  fp64|fp32|fp16|int64|int32|int16|int8, storage =  b64|b32|b16|b8, subgroup =  shuffle|arithmetic, dot =  dp4xi8toi32, mma = [<MFMA_F32_16x16x16_BF16>, <MFMA_F32_32x32x8_BF16>, <MFMA_F32_16x16x32_F8E5M2FNUZ>, <MFMA_F32_16x16x32_F8E5M2FNUZ_F8E4M3FNUZ>, <MFMA_F32_16x16x32_F8E4M3FNUZ>, <MFMA_F32_16x16x32_F8E4M3FNUZ_F8E5M2FNUZ>, <MFMA_F32_32x32x16_F8E5M2FNUZ>, <MFMA_F32_32x32x16_F8E5M2FNUZ_F8E4M3FNUZ>, <MFMA_F32_32x32x16_F8E4M3FNUZ>, <MFMA_F32_32x32x16_F8E4M3FNUZ_F8E5M2FNUZ>, <MFMA_I32_16x16x32_I8>, <MFMA_I32_32x32x16_I8>, <MFMA_F64_16x16x4_F64>, <MFMA_F32_16x16x4_F32>, <MFMA_F32_16x16x16_F16>, <MFMA_F32_32x32x8_F16>], subgroup_size_choices = [64], max_workgroup_sizes = [1024, 1024, 1024], max_thread_count_per_workgroup = 1024, max_workgroup_memory_bytes = 65536, max_workgroup_counts = [2147483647, 2147483647, 2147483647], max_load_instruction_bits = 128, simds_per_wgp = 4, vgpr_space_bits = 16384, dma_sizes = [32]>>, ukernels = "none"}>) {
  hal.executable.export public @test_simple_argmax_4x16_dispatch_1_reduce_4x16x96_f16xi32xf16xi32 ordinal(0) layout(#hal.pipeline.layout<bindings = [#hal.pipeline.binding<storage_buffer, "ReadOnly|Indirect">, #hal.pipeline.binding<storage_buffer, Indirect>, #hal.pipeline.binding<storage_buffer, Indirect>], flags = Indirect>) count(%arg0: !hal.device) -> (index, index, index) {
    %c1 = arith.constant 1 : index
    %c1_0 = arith.constant 1 : index
    %c1_1 = arith.constant 1 : index
    hal.return %c1, %c1_0, %c1_1 : index, index, index
  } attributes {subgroup_size = 64 : index, workgroup_size = [64 : index, 1 : index, 1 : index]}
  builtin.module {
    llvm.func @test_simple_argmax_4x16_dispatch_1_reduce_4x16x96_f16xi32xf16xi32(%arg0: !llvm.ptr<1> {llvm.align = 16 : i32, llvm.inreg, llvm.noalias, llvm.nonnull, llvm.noundef, llvm.readonly}, %arg1: !llvm.ptr<1> {llvm.align = 16 : i32, llvm.inreg, llvm.noalias, llvm.nonnull, llvm.noundef}, %arg2: !llvm.ptr<1> {llvm.align = 16 : i32, llvm.inreg, llvm.noalias, llvm.nonnull, llvm.noundef}) attributes {rocdl.flat_work_group_size = "64,64", rocdl.kernel, rocdl.reqd_work_group_size = array<i32: 64, 1, 1>} {
      %0 = llvm.mlir.constant(1 : i32) : i32
      %1 = llvm.mlir.constant(4 : i32) : i32
      %2 = llvm.mlir.constant(96 : i32) : i32
      %3 = llvm.mlir.constant(0 : i32) : i32
      %4 = llvm.mlir.constant(16 : i32) : i32
      %5 = llvm.mlir.constant(dense<0> : vector<1xi32>) : vector<1xi32>
      %6 = llvm.mlir.constant(dense<0xFC00> : vector<1xf16>) : vector<1xf16>
      %7 = llvm.mlir.constant(128 : index) : i64
      %8 = llvm.mlir.constant(12288 : index) : i64
      %9 = llvm.mlir.constant(0 : index) : i64
      %10 = rocdl.workitem.id.x range <i32, 0, 64> : i32
      %11 = llvm.sext %10 : i32 to i64
      %12 = llvm.mlir.poison : !llvm.struct<(ptr<1>, ptr<1>, i64, array<3 x i64>, array<3 x i64>)>
      %13 = llvm.insertvalue %arg0, %12[0] : !llvm.struct<(ptr<1>, ptr<1>, i64, array<3 x i64>, array<3 x i64>)> 
      %14 = llvm.insertvalue %arg0, %13[1] : !llvm.struct<(ptr<1>, ptr<1>, i64, array<3 x i64>, array<3 x i64>)> 
      %15 = llvm.mlir.constant(0 : index) : i64
      %16 = llvm.insertvalue %15, %14[2] : !llvm.struct<(ptr<1>, ptr<1>, i64, array<3 x i64>, array<3 x i64>)> 
      %17 = llvm.mlir.constant(4 : index) : i64
      %18 = llvm.insertvalue %17, %16[3, 0] : !llvm.struct<(ptr<1>, ptr<1>, i64, array<3 x i64>, array<3 x i64>)> 
      %19 = llvm.mlir.constant(1536 : index) : i64
      %20 = llvm.insertvalue %19, %18[4, 0] : !llvm.struct<(ptr<1>, ptr<1>, i64, array<3 x i64>, array<3 x i64>)> 
      %21 = llvm.mlir.constant(16 : index) : i64
      %22 = llvm.insertvalue %21, %20[3, 1] : !llvm.struct<(ptr<1>, ptr<1>, i64, array<3 x i64>, array<3 x i64>)> 
      %23 = llvm.mlir.constant(96 : index) : i64
      %24 = llvm.insertvalue %23, %22[4, 1] : !llvm.struct<(ptr<1>, ptr<1>, i64, array<3 x i64>, array<3 x i64>)> 
      %25 = llvm.mlir.constant(96 : index) : i64
      %26 = llvm.insertvalue %25, %24[3, 2] : !llvm.struct<(ptr<1>, ptr<1>, i64, array<3 x i64>, array<3 x i64>)> 
      %27 = llvm.mlir.constant(1 : index) : i64
      %28 = llvm.insertvalue %27, %26[4, 2] : !llvm.struct<(ptr<1>, ptr<1>, i64, array<3 x i64>, array<3 x i64>)> 
      %29 = llvm.extractvalue %28[1] : !llvm.struct<(ptr<1>, ptr<1>, i64, array<3 x i64>, array<3 x i64>)> 
      %30 = llvm.mlir.constant(true) : i1
      %31 = llvm.mlir.constant(64 : index) : i64
      llvm.intr.assume %30 ["align"(%29, %31 : !llvm.ptr<1>, i64)] : i1
      %32 = llvm.mlir.constant(12288 : i64) : i64
      %33 = llvm.extractvalue %28[1] : !llvm.struct<(ptr<1>, ptr<1>, i64, array<3 x i64>, array<3 x i64>)> 
      %34 = llvm.mlir.constant(0 : index) : i64
      %35 = llvm.extractvalue %28[3] : !llvm.struct<(ptr<1>, ptr<1>, i64, array<3 x i64>, array<3 x i64>)> 
      %36 = llvm.extractvalue %28[4] : !llvm.struct<(ptr<1>, ptr<1>, i64, array<3 x i64>, array<3 x i64>)> 
      %37 = llvm.mlir.constant(0 : i16) : i16
      %38 = llvm.mlir.constant(159744 : i32) : i32
      %39 = rocdl.make.buffer.rsrc %33, %37, %32, %38 : <1> to <7>
      %40 = llvm.mlir.poison : !llvm.struct<(ptr<7>, ptr<7>, i64, array<3 x i64>, array<3 x i64>)>
      %41 = llvm.insertvalue %39, %40[0] : !llvm.struct<(ptr<7>, ptr<7>, i64, array<3 x i64>, array<3 x i64>)> 
      %42 = llvm.insertvalue %39, %41[1] : !llvm.struct<(ptr<7>, ptr<7>, i64, array<3 x i64>, array<3 x i64>)> 
      %43 = llvm.insertvalue %34, %42[2] : !llvm.struct<(ptr<7>, ptr<7>, i64, array<3 x i64>, array<3 x i64>)> 
      %44 = llvm.insertvalue %35, %43[3] : !llvm.struct<(ptr<7>, ptr<7>, i64, array<3 x i64>, array<3 x i64>)> 
      %45 = llvm.insertvalue %36, %44[4] : !llvm.struct<(ptr<7>, ptr<7>, i64, array<3 x i64>, array<3 x i64>)> 
      %46 = llvm.mlir.poison : !llvm.struct<(ptr<1>, ptr<1>, i64, array<3 x i64>, array<3 x i64>)>
      %47 = llvm.insertvalue %arg0, %46[0] : !llvm.struct<(ptr<1>, ptr<1>, i64, array<3 x i64>, array<3 x i64>)> 
      %48 = llvm.insertvalue %arg0, %47[1] : !llvm.struct<(ptr<1>, ptr<1>, i64, array<3 x i64>, array<3 x i64>)> 
      %49 = llvm.mlir.constant(32 : i64) : i64
      %50 = llvm.mlir.constant(8 : i64) : i64
      %51 = llvm.mul %8, %50 : i64
      %52 = llvm.udiv %51, %49 : i64
      %53 = llvm.insertvalue %52, %48[2] : !llvm.struct<(ptr<1>, ptr<1>, i64, array<3 x i64>, array<3 x i64>)> 
      %54 = llvm.mlir.constant(4 : index) : i64
      %55 = llvm.insertvalue %54, %53[3, 0] : !llvm.struct<(ptr<1>, ptr<1>, i64, array<3 x i64>, array<3 x i64>)> 
      %56 = llvm.mlir.constant(16 : index) : i64
      %57 = llvm.insertvalue %56, %55[3, 1] : !llvm.struct<(ptr<1>, ptr<1>, i64, array<3 x i64>, array<3 x i64>)> 
      %58 = llvm.mlir.constant(96 : index) : i64
      %59 = llvm.insertvalue %58, %57[3, 2] : !llvm.struct<(ptr<1>, ptr<1>, i64, array<3 x i64>, array<3 x i64>)> 
      %60 = llvm.mlir.constant(1 : index) : i64
      %61 = llvm.insertvalue %60, %59[4, 2] : !llvm.struct<(ptr<1>, ptr<1>, i64, array<3 x i64>, array<3 x i64>)> 
      %62 = llvm.mlir.constant(96 : index) : i64
      %63 = llvm.insertvalue %62, %61[4, 1] : !llvm.struct<(ptr<1>, ptr<1>, i64, array<3 x i64>, array<3 x i64>)> 
      %64 = llvm.mlir.constant(1536 : index) : i64
      %65 = llvm.insertvalue %64, %63[4, 0] : !llvm.struct<(ptr<1>, ptr<1>, i64, array<3 x i64>, array<3 x i64>)> 
      %66 = llvm.extractvalue %65[1] : !llvm.struct<(ptr<1>, ptr<1>, i64, array<3 x i64>, array<3 x i64>)> 
      %67 = llvm.extractvalue %65[2] : !llvm.struct<(ptr<1>, ptr<1>, i64, array<3 x i64>, array<3 x i64>)> 
      %68 = llvm.getelementptr %66[%67] : (!llvm.ptr<1>, i64) -> !llvm.ptr<1>, i32
      %69 = llvm.mlir.constant(true) : i1
      %70 = llvm.mlir.constant(64 : index) : i64
      llvm.intr.assume %69 ["align"(%68, %70 : !llvm.ptr<1>, i64)] : i1
      %71 = llvm.mlir.constant(24576 : i64) : i64
      %72 = llvm.extractvalue %65[1] : !llvm.struct<(ptr<1>, ptr<1>, i64, array<3 x i64>, array<3 x i64>)> 
      %73 = llvm.extractvalue %65[2] : !llvm.struct<(ptr<1>, ptr<1>, i64, array<3 x i64>, array<3 x i64>)> 
      %74 = llvm.getelementptr %72[%73] : (!llvm.ptr<1>, i64) -> !llvm.ptr<1>, i32
      %75 = llvm.mlir.constant(0 : index) : i64
      %76 = llvm.extractvalue %65[3] : !llvm.struct<(ptr<1>, ptr<1>, i64, array<3 x i64>, array<3 x i64>)> 
      %77 = llvm.extractvalue %65[4] : !llvm.struct<(ptr<1>, ptr<1>, i64, array<3 x i64>, array<3 x i64>)> 
      %78 = llvm.mlir.constant(0 : i16) : i16
      %79 = llvm.mlir.constant(159744 : i32) : i32
      %80 = rocdl.make.buffer.rsrc %74, %78, %71, %79 : <1> to <7>
      %81 = llvm.mlir.poison : !llvm.struct<(ptr<7>, ptr<7>, i64, array<3 x i64>, array<3 x i64>)>
      %82 = llvm.insertvalue %80, %81[0] : !llvm.struct<(ptr<7>, ptr<7>, i64, array<3 x i64>, array<3 x i64>)> 
      %83 = llvm.insertvalue %80, %82[1] : !llvm.struct<(ptr<7>, ptr<7>, i64, array<3 x i64>, array<3 x i64>)> 
      %84 = llvm.insertvalue %75, %83[2] : !llvm.struct<(ptr<7>, ptr<7>, i64, array<3 x i64>, array<3 x i64>)> 
      %85 = llvm.insertvalue %76, %84[3] : !llvm.struct<(ptr<7>, ptr<7>, i64, array<3 x i64>, array<3 x i64>)> 
      %86 = llvm.insertvalue %77, %85[4] : !llvm.struct<(ptr<7>, ptr<7>, i64, array<3 x i64>, array<3 x i64>)> 
      %87 = llvm.mlir.poison : !llvm.struct<(ptr<1>, ptr<1>, i64, array<2 x i64>, array<2 x i64>)>
      %88 = llvm.insertvalue %arg1, %87[0] : !llvm.struct<(ptr<1>, ptr<1>, i64, array<2 x i64>, array<2 x i64>)> 
      %89 = llvm.insertvalue %arg1, %88[1] : !llvm.struct<(ptr<1>, ptr<1>, i64, array<2 x i64>, array<2 x i64>)> 
      %90 = llvm.mlir.constant(0 : index) : i64
      %91 = llvm.insertvalue %90, %89[2] : !llvm.struct<(ptr<1>, ptr<1>, i64, array<2 x i64>, array<2 x i64>)> 
      %92 = llvm.mlir.constant(4 : index) : i64
      %93 = llvm.insertvalue %92, %91[3, 0] : !llvm.struct<(ptr<1>, ptr<1>, i64, array<2 x i64>, array<2 x i64>)> 
      %94 = llvm.mlir.constant(16 : index) : i64
      %95 = llvm.insertvalue %94, %93[4, 0] : !llvm.struct<(ptr<1>, ptr<1>, i64, array<2 x i64>, array<2 x i64>)> 
      %96 = llvm.mlir.constant(16 : index) : i64
      %97 = llvm.insertvalue %96, %95[3, 1] : !llvm.struct<(ptr<1>, ptr<1>, i64, array<2 x i64>, array<2 x i64>)> 
      %98 = llvm.mlir.constant(1 : index) : i64
      %99 = llvm.insertvalue %98, %97[4, 1] : !llvm.struct<(ptr<1>, ptr<1>, i64, array<2 x i64>, array<2 x i64>)> 
      %100 = llvm.extractvalue %99[1] : !llvm.struct<(ptr<1>, ptr<1>, i64, array<2 x i64>, array<2 x i64>)> 
      %101 = llvm.mlir.constant(true) : i1
      %102 = llvm.mlir.constant(64 : index) : i64
      llvm.intr.assume %101 ["align"(%100, %102 : !llvm.ptr<1>, i64)] : i1
      %103 = llvm.mlir.constant(128 : i64) : i64
      %104 = llvm.extractvalue %99[1] : !llvm.struct<(ptr<1>, ptr<1>, i64, array<2 x i64>, array<2 x i64>)> 
      %105 = llvm.mlir.constant(0 : index) : i64
      %106 = llvm.extractvalue %99[3] : !llvm.struct<(ptr<1>, ptr<1>, i64, array<2 x i64>, array<2 x i64>)> 
      %107 = llvm.extractvalue %99[4] : !llvm.struct<(ptr<1>, ptr<1>, i64, array<2 x i64>, array<2 x i64>)> 
      %108 = llvm.mlir.constant(0 : i16) : i16
      %109 = llvm.mlir.constant(159744 : i32) : i32
      %110 = rocdl.make.buffer.rsrc %104, %108, %103, %109 : <1> to <7>
      %111 = llvm.mlir.poison : !llvm.struct<(ptr<7>, ptr<7>, i64, array<2 x i64>, array<2 x i64>)>
      %112 = llvm.insertvalue %110, %111[0] : !llvm.struct<(ptr<7>, ptr<7>, i64, array<2 x i64>, array<2 x i64>)> 
      %113 = llvm.insertvalue %110, %112[1] : !llvm.struct<(ptr<7>, ptr<7>, i64, array<2 x i64>, array<2 x i64>)> 
      %114 = llvm.insertvalue %105, %113[2] : !llvm.struct<(ptr<7>, ptr<7>, i64, array<2 x i64>, array<2 x i64>)> 
      %115 = llvm.insertvalue %106, %114[3] : !llvm.struct<(ptr<7>, ptr<7>, i64, array<2 x i64>, array<2 x i64>)> 
      %116 = llvm.insertvalue %107, %115[4] : !llvm.struct<(ptr<7>, ptr<7>, i64, array<2 x i64>, array<2 x i64>)> 
      %117 = llvm.mlir.poison : !llvm.struct<(ptr<1>, ptr<1>, i64, array<2 x i64>, array<2 x i64>)>
      %118 = llvm.insertvalue %arg2, %117[0] : !llvm.struct<(ptr<1>, ptr<1>, i64, array<2 x i64>, array<2 x i64>)> 
      %119 = llvm.insertvalue %arg2, %118[1] : !llvm.struct<(ptr<1>, ptr<1>, i64, array<2 x i64>, array<2 x i64>)> 
      %120 = llvm.mlir.constant(32 : i64) : i64
      %121 = llvm.mlir.constant(8 : i64) : i64
      %122 = llvm.mul %7, %121 : i64
      %123 = llvm.udiv %122, %120 : i64
      %124 = llvm.insertvalue %123, %119[2] : !llvm.struct<(ptr<1>, ptr<1>, i64, array<2 x i64>, array<2 x i64>)> 
      %125 = llvm.mlir.constant(4 : index) : i64
      %126 = llvm.insertvalue %125, %124[3, 0] : !llvm.struct<(ptr<1>, ptr<1>, i64, array<2 x i64>, array<2 x i64>)> 
      %127 = llvm.mlir.constant(16 : index) : i64
      %128 = llvm.insertvalue %127, %126[3, 1] : !llvm.struct<(ptr<1>, ptr<1>, i64, array<2 x i64>, array<2 x i64>)> 
      %129 = llvm.mlir.constant(1 : index) : i64
      %130 = llvm.insertvalue %129, %128[4, 1] : !llvm.struct<(ptr<1>, ptr<1>, i64, array<2 x i64>, array<2 x i64>)> 
      %131 = llvm.mlir.constant(16 : index) : i64
      %132 = llvm.insertvalue %131, %130[4, 0] : !llvm.struct<(ptr<1>, ptr<1>, i64, array<2 x i64>, array<2 x i64>)> 
      %133 = llvm.extractvalue %132[1] : !llvm.struct<(ptr<1>, ptr<1>, i64, array<2 x i64>, array<2 x i64>)> 
      %134 = llvm.extractvalue %132[2] : !llvm.struct<(ptr<1>, ptr<1>, i64, array<2 x i64>, array<2 x i64>)> 
      %135 = llvm.getelementptr %133[%134] : (!llvm.ptr<1>, i64) -> !llvm.ptr<1>, i32
      %136 = llvm.mlir.constant(true) : i1
      %137 = llvm.mlir.constant(64 : index) : i64
      llvm.intr.assume %136 ["align"(%135, %137 : !llvm.ptr<1>, i64)] : i1
      %138 = llvm.mlir.constant(256 : i64) : i64
      %139 = llvm.extractvalue %132[1] : !llvm.struct<(ptr<1>, ptr<1>, i64, array<2 x i64>, array<2 x i64>)> 
      %140 = llvm.extractvalue %132[2] : !llvm.struct<(ptr<1>, ptr<1>, i64, array<2 x i64>, array<2 x i64>)> 
      %141 = llvm.getelementptr %139[%140] : (!llvm.ptr<1>, i64) -> !llvm.ptr<1>, i32
      %142 = llvm.mlir.constant(0 : index) : i64
      %143 = llvm.extractvalue %132[3] : !llvm.struct<(ptr<1>, ptr<1>, i64, array<2 x i64>, array<2 x i64>)> 
      %144 = llvm.extractvalue %132[4] : !llvm.struct<(ptr<1>, ptr<1>, i64, array<2 x i64>, array<2 x i64>)> 
      %145 = llvm.mlir.constant(0 : i16) : i16
      %146 = llvm.mlir.constant(159744 : i32) : i32
      %147 = rocdl.make.buffer.rsrc %141, %145, %138, %146 : <1> to <7>
      %148 = llvm.mlir.poison : !llvm.struct<(ptr<7>, ptr<7>, i64, array<2 x i64>, array<2 x i64>)>
      %149 = llvm.insertvalue %147, %148[0] : !llvm.struct<(ptr<7>, ptr<7>, i64, array<2 x i64>, array<2 x i64>)> 
      %150 = llvm.insertvalue %147, %149[1] : !llvm.struct<(ptr<7>, ptr<7>, i64, array<2 x i64>, array<2 x i64>)> 
      %151 = llvm.insertvalue %142, %150[2] : !llvm.struct<(ptr<7>, ptr<7>, i64, array<2 x i64>, array<2 x i64>)> 
      %152 = llvm.insertvalue %143, %151[3] : !llvm.struct<(ptr<7>, ptr<7>, i64, array<2 x i64>, array<2 x i64>)> 
      %153 = llvm.insertvalue %144, %152[4] : !llvm.struct<(ptr<7>, ptr<7>, i64, array<2 x i64>, array<2 x i64>)> 
      %154 = llvm.trunc %11 : i64 to i32
      %155 = llvm.udiv %154, %4 : i32
      %156 = llvm.zext %155 : i32 to i64
      %157 = llvm.urem %154, %4 : i32
      %158 = llvm.zext %157 : i32 to i64
      %159 = llvm.extractvalue %116[1] : !llvm.struct<(ptr<7>, ptr<7>, i64, array<2 x i64>, array<2 x i64>)> 
      %160 = llvm.mlir.constant(16 : index) : i64
      %161 = llvm.mul %156, %160 : i64
      %162 = llvm.add %161, %158 : i64
      %163 = llvm.getelementptr %159[%162] : (!llvm.ptr<7>, i64) -> !llvm.ptr<7>, f16
      llvm.store %6, %163 {alignment = 2 : i64} : vector<1xf16>, !llvm.ptr<7>
      llvm.fence syncscope("workgroup") release {llvm.mmra = #llvm.mmra_tag<"amdgpu-synchronize-as":"local">}
      rocdl.s.barrier
      llvm.fence syncscope("workgroup") acquire {llvm.mmra = #llvm.mmra_tag<"amdgpu-synchronize-as":"local">}
      %164 = llvm.extractvalue %153[1] : !llvm.struct<(ptr<7>, ptr<7>, i64, array<2 x i64>, array<2 x i64>)> 
      %165 = llvm.mlir.constant(16 : index) : i64
      %166 = llvm.mul %156, %165 : i64
      %167 = llvm.add %166, %158 : i64
      %168 = llvm.getelementptr %164[%167] : (!llvm.ptr<7>, i64) -> !llvm.ptr<7>, i32
      llvm.store %5, %168 {alignment = 4 : i64} : vector<1xi32>, !llvm.ptr<7>
      llvm.fence syncscope("workgroup") release {llvm.mmra = #llvm.mmra_tag<"amdgpu-synchronize-as":"local">}
      rocdl.s.barrier
      llvm.fence syncscope("workgroup") acquire {llvm.mmra = #llvm.mmra_tag<"amdgpu-synchronize-as":"local">}
      llvm.br ^bb1(%3 : i32)
    ^bb1(%169: i32):  // 2 preds: ^bb0, ^bb5
      %170 = llvm.icmp "slt" %169, %2 : i32
      llvm.cond_br %170, ^bb2, ^bb6
    ^bb2:  // pred: ^bb1
      llvm.fence syncscope("workgroup") release {llvm.mmra = #llvm.mmra_tag<"amdgpu-synchronize-as":"local">}
      rocdl.s.barrier
      llvm.fence syncscope("workgroup") acquire {llvm.mmra = #llvm.mmra_tag<"amdgpu-synchronize-as":"local">}
      llvm.br ^bb3(%3 : i32)
    ^bb3(%171: i32):  // 2 preds: ^bb2, ^bb4
      %172 = llvm.icmp "slt" %171, %1 : i32
      llvm.cond_br %172, ^bb4, ^bb5
    ^bb4:  // pred: ^bb3
      %173 = llvm.add %169, %171 : i32
      %174 = llvm.zext %173 : i32 to i64
      %175 = llvm.extractvalue %45[1] : !llvm.struct<(ptr<7>, ptr<7>, i64, array<3 x i64>, array<3 x i64>)> 
      %176 = llvm.mlir.constant(1536 : index) : i64
      %177 = llvm.mul %156, %176 overflow<nsw, nuw> : i64
      %178 = llvm.mlir.constant(96 : index) : i64
      %179 = llvm.mul %158, %178 overflow<nsw, nuw> : i64
      %180 = llvm.add %177, %179 overflow<nsw, nuw> : i64
      %181 = llvm.add %180, %174 overflow<nsw, nuw> : i64
      %182 = llvm.getelementptr inbounds|nuw %175[%181] : (!llvm.ptr<7>, i64) -> !llvm.ptr<7>, f16
      %183 = llvm.load %182 : !llvm.ptr<7> -> f16
      %184 = llvm.extractvalue %86[1] : !llvm.struct<(ptr<7>, ptr<7>, i64, array<3 x i64>, array<3 x i64>)> 
      %185 = llvm.mlir.constant(1536 : index) : i64
      %186 = llvm.mul %156, %185 overflow<nsw, nuw> : i64
      %187 = llvm.mlir.constant(96 : index) : i64
      %188 = llvm.mul %158, %187 overflow<nsw, nuw> : i64
      %189 = llvm.add %186, %188 overflow<nsw, nuw> : i64
      %190 = llvm.add %189, %174 overflow<nsw, nuw> : i64
      %191 = llvm.getelementptr inbounds|nuw %184[%190] : (!llvm.ptr<7>, i64) -> !llvm.ptr<7>, i32
      %192 = llvm.load %191 : !llvm.ptr<7> -> i32
      %193 = llvm.extractvalue %116[1] : !llvm.struct<(ptr<7>, ptr<7>, i64, array<2 x i64>, array<2 x i64>)> 
      %194 = llvm.mlir.constant(16 : index) : i64
      %195 = llvm.mul %156, %194 overflow<nsw, nuw> : i64
      %196 = llvm.add %195, %158 overflow<nsw, nuw> : i64
      %197 = llvm.getelementptr inbounds|nuw %193[%196] : (!llvm.ptr<7>, i64) -> !llvm.ptr<7>, f16
      %198 = llvm.load %197 : !llvm.ptr<7> -> f16
      %199 = llvm.extractvalue %153[1] : !llvm.struct<(ptr<7>, ptr<7>, i64, array<2 x i64>, array<2 x i64>)> 
      %200 = llvm.mlir.constant(16 : index) : i64
      %201 = llvm.mul %156, %200 overflow<nsw, nuw> : i64
      %202 = llvm.add %201, %158 overflow<nsw, nuw> : i64
      %203 = llvm.getelementptr inbounds|nuw %199[%202] : (!llvm.ptr<7>, i64) -> !llvm.ptr<7>, i32
      %204 = llvm.load %203 : !llvm.ptr<7> -> i32
      %205 = llvm.fcmp "ogt" %183, %198 : f16
      %206 = llvm.select %205, %183, %198 : i1, f16
      %207 = llvm.select %205, %192, %204 : i1, i32
      %208 = llvm.extractvalue %116[1] : !llvm.struct<(ptr<7>, ptr<7>, i64, array<2 x i64>, array<2 x i64>)> 
      %209 = llvm.mlir.constant(16 : index) : i64
      %210 = llvm.mul %156, %209 overflow<nsw, nuw> : i64
      %211 = llvm.add %210, %158 overflow<nsw, nuw> : i64
      %212 = llvm.getelementptr inbounds|nuw %208[%211] : (!llvm.ptr<7>, i64) -> !llvm.ptr<7>, f16
      llvm.store %206, %212 : f16, !llvm.ptr<7>
      %213 = llvm.extractvalue %153[1] : !llvm.struct<(ptr<7>, ptr<7>, i64, array<2 x i64>, array<2 x i64>)> 
      %214 = llvm.mlir.constant(16 : index) : i64
      %215 = llvm.mul %156, %214 overflow<nsw, nuw> : i64
      %216 = llvm.add %215, %158 overflow<nsw, nuw> : i64
      %217 = llvm.getelementptr inbounds|nuw %213[%216] : (!llvm.ptr<7>, i64) -> !llvm.ptr<7>, i32
      llvm.store %207, %217 : i32, !llvm.ptr<7>
      %218 = llvm.add %171, %0 : i32
      llvm.br ^bb3(%218 : i32)
    ^bb5:  // pred: ^bb3
      %219 = llvm.add %169, %1 : i32
      llvm.br ^bb1(%219 : i32)
    ^bb6:  // pred: ^bb1
      llvm.return
    }
  }
}

// -----// IR Dump After TranslateAllExecutablesPass (iree-hal-translate-all-executables) //----- //
hal.executable private @test_simple_argmax_4x16_dispatch_1 {
  hal.executable.variant public @rocm_hsaco_fb target(<"rocm", "rocm-hsaco-fb", {abi = "hip", iree.encoding.resolver = #iree_gpu.gpu_encoding_resolver<>, iree_codegen.default_tuning_spec = #rocm.builtin.tuning_module<"iree_default_tuning_spec_gfx942.mlir">, iree_codegen.target_info = #iree_gpu.target<arch = "gfx942", features = "", wgp = <compute =  fp64|fp32|fp16|int64|int32|int16|int8, storage =  b64|b32|b16|b8, subgroup =  shuffle|arithmetic, dot =  dp4xi8toi32, mma = [<MFMA_F32_16x16x16_BF16>, <MFMA_F32_32x32x8_BF16>, <MFMA_F32_16x16x32_F8E5M2FNUZ>, <MFMA_F32_16x16x32_F8E5M2FNUZ_F8E4M3FNUZ>, <MFMA_F32_16x16x32_F8E4M3FNUZ>, <MFMA_F32_16x16x32_F8E4M3FNUZ_F8E5M2FNUZ>, <MFMA_F32_32x32x16_F8E5M2FNUZ>, <MFMA_F32_32x32x16_F8E5M2FNUZ_F8E4M3FNUZ>, <MFMA_F32_32x32x16_F8E4M3FNUZ>, <MFMA_F32_32x32x16_F8E4M3FNUZ_F8E5M2FNUZ>, <MFMA_I32_16x16x32_I8>, <MFMA_I32_32x32x16_I8>, <MFMA_F64_16x16x4_F64>, <MFMA_F32_16x16x4_F32>, <MFMA_F32_16x16x16_F16>, <MFMA_F32_32x32x8_F16>], subgroup_size_choices = [64], max_workgroup_sizes = [1024, 1024, 1024], max_thread_count_per_workgroup = 1024, max_workgroup_memory_bytes = 65536, max_workgroup_counts = [2147483647, 2147483647, 2147483647], max_load_instruction_bits = 128, simds_per_wgp = 4, vgpr_space_bits = 16384, dma_sizes = [32]>>, ukernels = "none"}>) {
    hal.executable.export public @test_simple_argmax_4x16_dispatch_1_reduce_4x16x96_f16xi32xf16xi32 ordinal(0) layout(#hal.pipeline.layout<bindings = [#hal.pipeline.binding<storage_buffer, "ReadOnly|Indirect">, #hal.pipeline.binding<storage_buffer, Indirect>, #hal.pipeline.binding<storage_buffer, Indirect>], flags = Indirect>) count(%arg0: !hal.device) -> (index, index, index) {
      %c1 = arith.constant 1 : index
      %c1_0 = arith.constant 1 : index
      %c1_1 = arith.constant 1 : index
      hal.return %c1, %c1_0, %c1_1 : index, index, index
    } attributes {subgroup_size = 64 : index, workgroup_size = [64 : index, 1 : index, 1 : index]}
    builtin.module {
      llvm.func @test_simple_argmax_4x16_dispatch_1_reduce_4x16x96_f16xi32xf16xi32(%arg0: !llvm.ptr<1> {llvm.align = 16 : i32, llvm.inreg, llvm.noalias, llvm.nonnull, llvm.noundef, llvm.readonly}, %arg1: !llvm.ptr<1> {llvm.align = 16 : i32, llvm.inreg, llvm.noalias, llvm.nonnull, llvm.noundef}, %arg2: !llvm.ptr<1> {llvm.align = 16 : i32, llvm.inreg, llvm.noalias, llvm.nonnull, llvm.noundef}) attributes {rocdl.flat_work_group_size = "64,64", rocdl.kernel, rocdl.reqd_work_group_size = array<i32: 64, 1, 1>} {
        %0 = llvm.mlir.constant(1 : i32) : i32
        %1 = llvm.mlir.constant(4 : i32) : i32
        %2 = llvm.mlir.constant(96 : i32) : i32
        %3 = llvm.mlir.constant(0 : i32) : i32
        %4 = llvm.mlir.constant(16 : i32) : i32
        %5 = llvm.mlir.constant(dense<0> : vector<1xi32>) : vector<1xi32>
        %6 = llvm.mlir.constant(dense<0xFC00> : vector<1xf16>) : vector<1xf16>
        %7 = llvm.mlir.constant(128 : index) : i64
        %8 = llvm.mlir.constant(12288 : index) : i64
        %9 = llvm.mlir.constant(0 : index) : i64
        %10 = rocdl.workitem.id.x range <i32, 0, 64> : i32
        %11 = llvm.sext %10 : i32 to i64
        %12 = llvm.mlir.poison : !llvm.struct<(ptr<1>, ptr<1>, i64, array<3 x i64>, array<3 x i64>)>
        %13 = llvm.insertvalue %arg0, %12[0] : !llvm.struct<(ptr<1>, ptr<1>, i64, array<3 x i64>, array<3 x i64>)> 
        %14 = llvm.insertvalue %arg0, %13[1] : !llvm.struct<(ptr<1>, ptr<1>, i64, array<3 x i64>, array<3 x i64>)> 
        %15 = llvm.mlir.constant(0 : index) : i64
        %16 = llvm.insertvalue %15, %14[2] : !llvm.struct<(ptr<1>, ptr<1>, i64, array<3 x i64>, array<3 x i64>)> 
        %17 = llvm.mlir.constant(4 : index) : i64
        %18 = llvm.insertvalue %17, %16[3, 0] : !llvm.struct<(ptr<1>, ptr<1>, i64, array<3 x i64>, array<3 x i64>)> 
        %19 = llvm.mlir.constant(1536 : index) : i64
        %20 = llvm.insertvalue %19, %18[4, 0] : !llvm.struct<(ptr<1>, ptr<1>, i64, array<3 x i64>, array<3 x i64>)> 
        %21 = llvm.mlir.constant(16 : index) : i64
        %22 = llvm.insertvalue %21, %20[3, 1] : !llvm.struct<(ptr<1>, ptr<1>, i64, array<3 x i64>, array<3 x i64>)> 
        %23 = llvm.mlir.constant(96 : index) : i64
        %24 = llvm.insertvalue %23, %22[4, 1] : !llvm.struct<(ptr<1>, ptr<1>, i64, array<3 x i64>, array<3 x i64>)> 
        %25 = llvm.mlir.constant(96 : index) : i64
        %26 = llvm.insertvalue %25, %24[3, 2] : !llvm.struct<(ptr<1>, ptr<1>, i64, array<3 x i64>, array<3 x i64>)> 
        %27 = llvm.mlir.constant(1 : index) : i64
        %28 = llvm.insertvalue %27, %26[4, 2] : !llvm.struct<(ptr<1>, ptr<1>, i64, array<3 x i64>, array<3 x i64>)> 
        %29 = llvm.extractvalue %28[1] : !llvm.struct<(ptr<1>, ptr<1>, i64, array<3 x i64>, array<3 x i64>)> 
        %30 = llvm.mlir.constant(true) : i1
        %31 = llvm.mlir.constant(64 : index) : i64
        llvm.intr.assume %30 ["align"(%29, %31 : !llvm.ptr<1>, i64)] : i1
        %32 = llvm.mlir.constant(12288 : i64) : i64
        %33 = llvm.extractvalue %28[1] : !llvm.struct<(ptr<1>, ptr<1>, i64, array<3 x i64>, array<3 x i64>)> 
        %34 = llvm.mlir.constant(0 : index) : i64
        %35 = llvm.extractvalue %28[3] : !llvm.struct<(ptr<1>, ptr<1>, i64, array<3 x i64>, array<3 x i64>)> 
        %36 = llvm.extractvalue %28[4] : !llvm.struct<(ptr<1>, ptr<1>, i64, array<3 x i64>, array<3 x i64>)> 
        %37 = llvm.mlir.constant(0 : i16) : i16
        %38 = llvm.mlir.constant(159744 : i32) : i32
        %39 = rocdl.make.buffer.rsrc %33, %37, %32, %38 : <1> to <7>
        %40 = llvm.mlir.poison : !llvm.struct<(ptr<7>, ptr<7>, i64, array<3 x i64>, array<3 x i64>)>
        %41 = llvm.insertvalue %39, %40[0] : !llvm.struct<(ptr<7>, ptr<7>, i64, array<3 x i64>, array<3 x i64>)> 
        %42 = llvm.insertvalue %39, %41[1] : !llvm.struct<(ptr<7>, ptr<7>, i64, array<3 x i64>, array<3 x i64>)> 
        %43 = llvm.insertvalue %34, %42[2] : !llvm.struct<(ptr<7>, ptr<7>, i64, array<3 x i64>, array<3 x i64>)> 
        %44 = llvm.insertvalue %35, %43[3] : !llvm.struct<(ptr<7>, ptr<7>, i64, array<3 x i64>, array<3 x i64>)> 
        %45 = llvm.insertvalue %36, %44[4] : !llvm.struct<(ptr<7>, ptr<7>, i64, array<3 x i64>, array<3 x i64>)> 
        %46 = llvm.mlir.poison : !llvm.struct<(ptr<1>, ptr<1>, i64, array<3 x i64>, array<3 x i64>)>
        %47 = llvm.insertvalue %arg0, %46[0] : !llvm.struct<(ptr<1>, ptr<1>, i64, array<3 x i64>, array<3 x i64>)> 
        %48 = llvm.insertvalue %arg0, %47[1] : !llvm.struct<(ptr<1>, ptr<1>, i64, array<3 x i64>, array<3 x i64>)> 
        %49 = llvm.mlir.constant(32 : i64) : i64
        %50 = llvm.mlir.constant(8 : i64) : i64
        %51 = llvm.mul %8, %50 : i64
        %52 = llvm.udiv %51, %49 : i64
        %53 = llvm.insertvalue %52, %48[2] : !llvm.struct<(ptr<1>, ptr<1>, i64, array<3 x i64>, array<3 x i64>)> 
        %54 = llvm.mlir.constant(4 : index) : i64
        %55 = llvm.insertvalue %54, %53[3, 0] : !llvm.struct<(ptr<1>, ptr<1>, i64, array<3 x i64>, array<3 x i64>)> 
        %56 = llvm.mlir.constant(16 : index) : i64
        %57 = llvm.insertvalue %56, %55[3, 1] : !llvm.struct<(ptr<1>, ptr<1>, i64, array<3 x i64>, array<3 x i64>)> 
        %58 = llvm.mlir.constant(96 : index) : i64
        %59 = llvm.insertvalue %58, %57[3, 2] : !llvm.struct<(ptr<1>, ptr<1>, i64, array<3 x i64>, array<3 x i64>)> 
        %60 = llvm.mlir.constant(1 : index) : i64
        %61 = llvm.insertvalue %60, %59[4, 2] : !llvm.struct<(ptr<1>, ptr<1>, i64, array<3 x i64>, array<3 x i64>)> 
        %62 = llvm.mlir.constant(96 : index) : i64
        %63 = llvm.insertvalue %62, %61[4, 1] : !llvm.struct<(ptr<1>, ptr<1>, i64, array<3 x i64>, array<3 x i64>)> 
        %64 = llvm.mlir.constant(1536 : index) : i64
        %65 = llvm.insertvalue %64, %63[4, 0] : !llvm.struct<(ptr<1>, ptr<1>, i64, array<3 x i64>, array<3 x i64>)> 
        %66 = llvm.extractvalue %65[1] : !llvm.struct<(ptr<1>, ptr<1>, i64, array<3 x i64>, array<3 x i64>)> 
        %67 = llvm.extractvalue %65[2] : !llvm.struct<(ptr<1>, ptr<1>, i64, array<3 x i64>, array<3 x i64>)> 
        %68 = llvm.getelementptr %66[%67] : (!llvm.ptr<1>, i64) -> !llvm.ptr<1>, i32
        %69 = llvm.mlir.constant(true) : i1
        %70 = llvm.mlir.constant(64 : index) : i64
        llvm.intr.assume %69 ["align"(%68, %70 : !llvm.ptr<1>, i64)] : i1
        %71 = llvm.mlir.constant(24576 : i64) : i64
        %72 = llvm.extractvalue %65[1] : !llvm.struct<(ptr<1>, ptr<1>, i64, array<3 x i64>, array<3 x i64>)> 
        %73 = llvm.extractvalue %65[2] : !llvm.struct<(ptr<1>, ptr<1>, i64, array<3 x i64>, array<3 x i64>)> 
        %74 = llvm.getelementptr %72[%73] : (!llvm.ptr<1>, i64) -> !llvm.ptr<1>, i32
        %75 = llvm.mlir.constant(0 : index) : i64
        %76 = llvm.extractvalue %65[3] : !llvm.struct<(ptr<1>, ptr<1>, i64, array<3 x i64>, array<3 x i64>)> 
        %77 = llvm.extractvalue %65[4] : !llvm.struct<(ptr<1>, ptr<1>, i64, array<3 x i64>, array<3 x i64>)> 
        %78 = llvm.mlir.constant(0 : i16) : i16
        %79 = llvm.mlir.constant(159744 : i32) : i32
        %80 = rocdl.make.buffer.rsrc %74, %78, %71, %79 : <1> to <7>
        %81 = llvm.mlir.poison : !llvm.struct<(ptr<7>, ptr<7>, i64, array<3 x i64>, array<3 x i64>)>
        %82 = llvm.insertvalue %80, %81[0] : !llvm.struct<(ptr<7>, ptr<7>, i64, array<3 x i64>, array<3 x i64>)> 
        %83 = llvm.insertvalue %80, %82[1] : !llvm.struct<(ptr<7>, ptr<7>, i64, array<3 x i64>, array<3 x i64>)> 
        %84 = llvm.insertvalue %75, %83[2] : !llvm.struct<(ptr<7>, ptr<7>, i64, array<3 x i64>, array<3 x i64>)> 
        %85 = llvm.insertvalue %76, %84[3] : !llvm.struct<(ptr<7>, ptr<7>, i64, array<3 x i64>, array<3 x i64>)> 
        %86 = llvm.insertvalue %77, %85[4] : !llvm.struct<(ptr<7>, ptr<7>, i64, array<3 x i64>, array<3 x i64>)> 
        %87 = llvm.mlir.poison : !llvm.struct<(ptr<1>, ptr<1>, i64, array<2 x i64>, array<2 x i64>)>
        %88 = llvm.insertvalue %arg1, %87[0] : !llvm.struct<(ptr<1>, ptr<1>, i64, array<2 x i64>, array<2 x i64>)> 
        %89 = llvm.insertvalue %arg1, %88[1] : !llvm.struct<(ptr<1>, ptr<1>, i64, array<2 x i64>, array<2 x i64>)> 
        %90 = llvm.mlir.constant(0 : index) : i64
        %91 = llvm.insertvalue %90, %89[2] : !llvm.struct<(ptr<1>, ptr<1>, i64, array<2 x i64>, array<2 x i64>)> 
        %92 = llvm.mlir.constant(4 : index) : i64
        %93 = llvm.insertvalue %92, %91[3, 0] : !llvm.struct<(ptr<1>, ptr<1>, i64, array<2 x i64>, array<2 x i64>)> 
        %94 = llvm.mlir.constant(16 : index) : i64
        %95 = llvm.insertvalue %94, %93[4, 0] : !llvm.struct<(ptr<1>, ptr<1>, i64, array<2 x i64>, array<2 x i64>)> 
        %96 = llvm.mlir.constant(16 : index) : i64
        %97 = llvm.insertvalue %96, %95[3, 1] : !llvm.struct<(ptr<1>, ptr<1>, i64, array<2 x i64>, array<2 x i64>)> 
        %98 = llvm.mlir.constant(1 : index) : i64
        %99 = llvm.insertvalue %98, %97[4, 1] : !llvm.struct<(ptr<1>, ptr<1>, i64, array<2 x i64>, array<2 x i64>)> 
        %100 = llvm.extractvalue %99[1] : !llvm.struct<(ptr<1>, ptr<1>, i64, array<2 x i64>, array<2 x i64>)> 
        %101 = llvm.mlir.constant(true) : i1
        %102 = llvm.mlir.constant(64 : index) : i64
        llvm.intr.assume %101 ["align"(%100, %102 : !llvm.ptr<1>, i64)] : i1
        %103 = llvm.mlir.constant(128 : i64) : i64
        %104 = llvm.extractvalue %99[1] : !llvm.struct<(ptr<1>, ptr<1>, i64, array<2 x i64>, array<2 x i64>)> 
        %105 = llvm.mlir.constant(0 : index) : i64
        %106 = llvm.extractvalue %99[3] : !llvm.struct<(ptr<1>, ptr<1>, i64, array<2 x i64>, array<2 x i64>)> 
        %107 = llvm.extractvalue %99[4] : !llvm.struct<(ptr<1>, ptr<1>, i64, array<2 x i64>, array<2 x i64>)> 
        %108 = llvm.mlir.constant(0 : i16) : i16
        %109 = llvm.mlir.constant(159744 : i32) : i32
        %110 = rocdl.make.buffer.rsrc %104, %108, %103, %109 : <1> to <7>
        %111 = llvm.mlir.poison : !llvm.struct<(ptr<7>, ptr<7>, i64, array<2 x i64>, array<2 x i64>)>
        %112 = llvm.insertvalue %110, %111[0] : !llvm.struct<(ptr<7>, ptr<7>, i64, array<2 x i64>, array<2 x i64>)> 
        %113 = llvm.insertvalue %110, %112[1] : !llvm.struct<(ptr<7>, ptr<7>, i64, array<2 x i64>, array<2 x i64>)> 
        %114 = llvm.insertvalue %105, %113[2] : !llvm.struct<(ptr<7>, ptr<7>, i64, array<2 x i64>, array<2 x i64>)> 
        %115 = llvm.insertvalue %106, %114[3] : !llvm.struct<(ptr<7>, ptr<7>, i64, array<2 x i64>, array<2 x i64>)> 
        %116 = llvm.insertvalue %107, %115[4] : !llvm.struct<(ptr<7>, ptr<7>, i64, array<2 x i64>, array<2 x i64>)> 
        %117 = llvm.mlir.poison : !llvm.struct<(ptr<1>, ptr<1>, i64, array<2 x i64>, array<2 x i64>)>
        %118 = llvm.insertvalue %arg2, %117[0] : !llvm.struct<(ptr<1>, ptr<1>, i64, array<2 x i64>, array<2 x i64>)> 
        %119 = llvm.insertvalue %arg2, %118[1] : !llvm.struct<(ptr<1>, ptr<1>, i64, array<2 x i64>, array<2 x i64>)> 
        %120 = llvm.mlir.constant(32 : i64) : i64
        %121 = llvm.mlir.constant(8 : i64) : i64
        %122 = llvm.mul %7, %121 : i64
        %123 = llvm.udiv %122, %120 : i64
        %124 = llvm.insertvalue %123, %119[2] : !llvm.struct<(ptr<1>, ptr<1>, i64, array<2 x i64>, array<2 x i64>)> 
        %125 = llvm.mlir.constant(4 : index) : i64
        %126 = llvm.insertvalue %125, %124[3, 0] : !llvm.struct<(ptr<1>, ptr<1>, i64, array<2 x i64>, array<2 x i64>)> 
        %127 = llvm.mlir.constant(16 : index) : i64
        %128 = llvm.insertvalue %127, %126[3, 1] : !llvm.struct<(ptr<1>, ptr<1>, i64, array<2 x i64>, array<2 x i64>)> 
        %129 = llvm.mlir.constant(1 : index) : i64
        %130 = llvm.insertvalue %129, %128[4, 1] : !llvm.struct<(ptr<1>, ptr<1>, i64, array<2 x i64>, array<2 x i64>)> 
        %131 = llvm.mlir.constant(16 : index) : i64
        %132 = llvm.insertvalue %131, %130[4, 0] : !llvm.struct<(ptr<1>, ptr<1>, i64, array<2 x i64>, array<2 x i64>)> 
        %133 = llvm.extractvalue %132[1] : !llvm.struct<(ptr<1>, ptr<1>, i64, array<2 x i64>, array<2 x i64>)> 
        %134 = llvm.extractvalue %132[2] : !llvm.struct<(ptr<1>, ptr<1>, i64, array<2 x i64>, array<2 x i64>)> 
        %135 = llvm.getelementptr %133[%134] : (!llvm.ptr<1>, i64) -> !llvm.ptr<1>, i32
        %136 = llvm.mlir.constant(true) : i1
        %137 = llvm.mlir.constant(64 : index) : i64
        llvm.intr.assume %136 ["align"(%135, %137 : !llvm.ptr<1>, i64)] : i1
        %138 = llvm.mlir.constant(256 : i64) : i64
        %139 = llvm.extractvalue %132[1] : !llvm.struct<(ptr<1>, ptr<1>, i64, array<2 x i64>, array<2 x i64>)> 
        %140 = llvm.extractvalue %132[2] : !llvm.struct<(ptr<1>, ptr<1>, i64, array<2 x i64>, array<2 x i64>)> 
        %141 = llvm.getelementptr %139[%140] : (!llvm.ptr<1>, i64) -> !llvm.ptr<1>, i32
        %142 = llvm.mlir.constant(0 : index) : i64
        %143 = llvm.extractvalue %132[3] : !llvm.struct<(ptr<1>, ptr<1>, i64, array<2 x i64>, array<2 x i64>)> 
        %144 = llvm.extractvalue %132[4] : !llvm.struct<(ptr<1>, ptr<1>, i64, array<2 x i64>, array<2 x i64>)> 
        %145 = llvm.mlir.constant(0 : i16) : i16
        %146 = llvm.mlir.constant(159744 : i32) : i32
        %147 = rocdl.make.buffer.rsrc %141, %145, %138, %146 : <1> to <7>
        %148 = llvm.mlir.poison : !llvm.struct<(ptr<7>, ptr<7>, i64, array<2 x i64>, array<2 x i64>)>
        %149 = llvm.insertvalue %147, %148[0] : !llvm.struct<(ptr<7>, ptr<7>, i64, array<2 x i64>, array<2 x i64>)> 
        %150 = llvm.insertvalue %147, %149[1] : !llvm.struct<(ptr<7>, ptr<7>, i64, array<2 x i64>, array<2 x i64>)> 
        %151 = llvm.insertvalue %142, %150[2] : !llvm.struct<(ptr<7>, ptr<7>, i64, array<2 x i64>, array<2 x i64>)> 
        %152 = llvm.insertvalue %143, %151[3] : !llvm.struct<(ptr<7>, ptr<7>, i64, array<2 x i64>, array<2 x i64>)> 
        %153 = llvm.insertvalue %144, %152[4] : !llvm.struct<(ptr<7>, ptr<7>, i64, array<2 x i64>, array<2 x i64>)> 
        %154 = llvm.trunc %11 : i64 to i32
        %155 = llvm.udiv %154, %4 : i32
        %156 = llvm.zext %155 : i32 to i64
        %157 = llvm.urem %154, %4 : i32
        %158 = llvm.zext %157 : i32 to i64
        %159 = llvm.extractvalue %116[1] : !llvm.struct<(ptr<7>, ptr<7>, i64, array<2 x i64>, array<2 x i64>)> 
        %160 = llvm.mlir.constant(16 : index) : i64
        %161 = llvm.mul %156, %160 : i64
        %162 = llvm.add %161, %158 : i64
        %163 = llvm.getelementptr %159[%162] : (!llvm.ptr<7>, i64) -> !llvm.ptr<7>, f16
        llvm.store %6, %163 {alignment = 2 : i64} : vector<1xf16>, !llvm.ptr<7>
        llvm.fence syncscope("workgroup") release {llvm.mmra = #llvm.mmra_tag<"amdgpu-synchronize-as":"local">}
        rocdl.s.barrier
        llvm.fence syncscope("workgroup") acquire {llvm.mmra = #llvm.mmra_tag<"amdgpu-synchronize-as":"local">}
        %164 = llvm.extractvalue %153[1] : !llvm.struct<(ptr<7>, ptr<7>, i64, array<2 x i64>, array<2 x i64>)> 
        %165 = llvm.mlir.constant(16 : index) : i64
        %166 = llvm.mul %156, %165 : i64
        %167 = llvm.add %166, %158 : i64
        %168 = llvm.getelementptr %164[%167] : (!llvm.ptr<7>, i64) -> !llvm.ptr<7>, i32
        llvm.store %5, %168 {alignment = 4 : i64} : vector<1xi32>, !llvm.ptr<7>
        llvm.fence syncscope("workgroup") release {llvm.mmra = #llvm.mmra_tag<"amdgpu-synchronize-as":"local">}
        rocdl.s.barrier
        llvm.fence syncscope("workgroup") acquire {llvm.mmra = #llvm.mmra_tag<"amdgpu-synchronize-as":"local">}
        llvm.br ^bb1(%3 : i32)
      ^bb1(%169: i32):  // 2 preds: ^bb0, ^bb5
        %170 = llvm.icmp "slt" %169, %2 : i32
        llvm.cond_br %170, ^bb2, ^bb6
      ^bb2:  // pred: ^bb1
        llvm.fence syncscope("workgroup") release {llvm.mmra = #llvm.mmra_tag<"amdgpu-synchronize-as":"local">}
        rocdl.s.barrier
        llvm.fence syncscope("workgroup") acquire {llvm.mmra = #llvm.mmra_tag<"amdgpu-synchronize-as":"local">}
        llvm.br ^bb3(%3 : i32)
      ^bb3(%171: i32):  // 2 preds: ^bb2, ^bb4
        %172 = llvm.icmp "slt" %171, %1 : i32
        llvm.cond_br %172, ^bb4, ^bb5
      ^bb4:  // pred: ^bb3
        %173 = llvm.add %169, %171 : i32
        %174 = llvm.zext %173 : i32 to i64
        %175 = llvm.extractvalue %45[1] : !llvm.struct<(ptr<7>, ptr<7>, i64, array<3 x i64>, array<3 x i64>)> 
        %176 = llvm.mlir.constant(1536 : index) : i64
        %177 = llvm.mul %156, %176 overflow<nsw, nuw> : i64
        %178 = llvm.mlir.constant(96 : index) : i64
        %179 = llvm.mul %158, %178 overflow<nsw, nuw> : i64
        %180 = llvm.add %177, %179 overflow<nsw, nuw> : i64
        %181 = llvm.add %180, %174 overflow<nsw, nuw> : i64
        %182 = llvm.getelementptr inbounds|nuw %175[%181] : (!llvm.ptr<7>, i64) -> !llvm.ptr<7>, f16
        %183 = llvm.load %182 : !llvm.ptr<7> -> f16
        %184 = llvm.extractvalue %86[1] : !llvm.struct<(ptr<7>, ptr<7>, i64, array<3 x i64>, array<3 x i64>)> 
        %185 = llvm.mlir.constant(1536 : index) : i64
        %186 = llvm.mul %156, %185 overflow<nsw, nuw> : i64
        %187 = llvm.mlir.constant(96 : index) : i64
        %188 = llvm.mul %158, %187 overflow<nsw, nuw> : i64
        %189 = llvm.add %186, %188 overflow<nsw, nuw> : i64
        %190 = llvm.add %189, %174 overflow<nsw, nuw> : i64
        %191 = llvm.getelementptr inbounds|nuw %184[%190] : (!llvm.ptr<7>, i64) -> !llvm.ptr<7>, i32
        %192 = llvm.load %191 : !llvm.ptr<7> -> i32
        %193 = llvm.extractvalue %116[1] : !llvm.struct<(ptr<7>, ptr<7>, i64, array<2 x i64>, array<2 x i64>)> 
        %194 = llvm.mlir.constant(16 : index) : i64
        %195 = llvm.mul %156, %194 overflow<nsw, nuw> : i64
        %196 = llvm.add %195, %158 overflow<nsw, nuw> : i64
        %197 = llvm.getelementptr inbounds|nuw %193[%196] : (!llvm.ptr<7>, i64) -> !llvm.ptr<7>, f16
        %198 = llvm.load %197 : !llvm.ptr<7> -> f16
        %199 = llvm.extractvalue %153[1] : !llvm.struct<(ptr<7>, ptr<7>, i64, array<2 x i64>, array<2 x i64>)> 
        %200 = llvm.mlir.constant(16 : index) : i64
        %201 = llvm.mul %156, %200 overflow<nsw, nuw> : i64
        %202 = llvm.add %201, %158 overflow<nsw, nuw> : i64
        %203 = llvm.getelementptr inbounds|nuw %199[%202] : (!llvm.ptr<7>, i64) -> !llvm.ptr<7>, i32
        %204 = llvm.load %203 : !llvm.ptr<7> -> i32
        %205 = llvm.fcmp "ogt" %183, %198 : f16
        %206 = llvm.select %205, %183, %198 : i1, f16
        %207 = llvm.select %205, %192, %204 : i1, i32
        %208 = llvm.extractvalue %116[1] : !llvm.struct<(ptr<7>, ptr<7>, i64, array<2 x i64>, array<2 x i64>)> 
        %209 = llvm.mlir.constant(16 : index) : i64
        %210 = llvm.mul %156, %209 overflow<nsw, nuw> : i64
        %211 = llvm.add %210, %158 overflow<nsw, nuw> : i64
        %212 = llvm.getelementptr inbounds|nuw %208[%211] : (!llvm.ptr<7>, i64) -> !llvm.ptr<7>, f16
        llvm.store %206, %212 : f16, !llvm.ptr<7>
        %213 = llvm.extractvalue %153[1] : !llvm.struct<(ptr<7>, ptr<7>, i64, array<2 x i64>, array<2 x i64>)> 
        %214 = llvm.mlir.constant(16 : index) : i64
        %215 = llvm.mul %156, %214 overflow<nsw, nuw> : i64
        %216 = llvm.add %215, %158 overflow<nsw, nuw> : i64
        %217 = llvm.getelementptr inbounds|nuw %213[%216] : (!llvm.ptr<7>, i64) -> !llvm.ptr<7>, i32
        llvm.store %207, %217 : i32, !llvm.ptr<7>
        %218 = llvm.add %171, %0 : i32
        llvm.br ^bb3(%218 : i32)
      ^bb5:  // pred: ^bb3
        %219 = llvm.add %169, %1 : i32
        llvm.br ^bb1(%219 : i32)
      ^bb6:  // pred: ^bb1
        llvm.return
      }
    }
  }
}

dispatch_4.mlir:16:26: error: 'iree_linalg_ext.arg_compare' op output shape must match input shape with reduction dimension removed. Expected: [1, 16], but got: [16, 1]
    %max_val, %max_idx = iree_linalg_ext.arg_compare dimension(2) 
                         ^
dispatch_4.mlir:2:3: note: called from
  func.func @test_simple_argmax_4x16(%input: tensor<4x16x128256xf16>) -> (tensor<4x16xf16>, tensor<4x16xi32>) {
  ^
dispatch_4.mlir:16:26: note: see current operation: 
%37:2 = "iree_linalg_ext.arg_compare"(%26, %31, %36, %24) <{dimension = 2 : i64, operandSegmentSizes = array<i32: 1, 2, 1>}> ({
^bb0(%arg7: f16, %arg8: f16):
  %40 = "arith.cmpf"(%arg7, %arg8) <{fastmath = #arith.fastmath<none>, predicate = 2 : i64}> : (f16, f16) -> i1
  "iree_linalg_ext.yield"(%40) : (i1) -> ()
}) {lowering_config = #iree_codegen.lowering_config<tile_sizes = [[1, 128]]>} : (tensor<1x16x1336xf16>, tensor<16x1xf16>, tensor<16x1xi32>, index) -> (tensor<16x1xf16>, tensor<16x1xi32>)
    %max_val, %max_idx = iree_linalg_ext.arg_compare dimension(2) 
                         ^
dispatch_4.mlir:16:26: error: failed to run translation of source executable to target executable for backend #hal.executable.target<"rocm", "rocm-hsaco-fb", {abi = "hip", iree.encoding.resolver = #iree_gpu.gpu_encoding_resolver<>, iree_codegen.default_tuning_spec = #rocm.builtin.tuning_module<"iree_default_tuning_spec_gfx942.mlir">, iree_codegen.target_info = #iree_gpu.target<arch = "gfx942", features = "", wgp = <compute =  fp64|fp32|fp16|int64|int32|int16|int8, storage =  b64|b32|b16|b8, subgroup =  shuffle|arithmetic, dot =  dp4xi8toi32, mma = [<MFMA_F32_16x16x16_BF16>, <MFMA_F32_32x32x8_BF16>, <MFMA_F32_16x16x32_F8E5M2FNUZ>, <MFMA_F32_16x16x32_F8E5M2FNUZ_F8E4M3FNUZ>, <MFMA_F32_16x16x32_F8E4M3FNUZ>, <MFMA_F32_16x16x32_F8E4M3FNUZ_F8E5M2FNUZ>, <MFMA_F32_32x32x16_F8E5M2FNUZ>, <MFMA_F32_32x32x16_F8E5M2FNUZ_F8E4M3FNUZ>, <MFMA_F32_32x32x16_F8E4M3FNUZ>, <MFMA_F32_32x32x16_F8E4M3FNUZ_F8E5M2FNUZ>, <MFMA_I32_16x16x32_I8>, <MFMA_I32_32x32x16_I8>, <MFMA_F64_16x16x4_F64>, <MFMA_F32_16x16x4_F32>, <MFMA_F32_16x16x16_F16>, <MFMA_F32_32x32x8_F16>], subgroup_size_choices = [64], max_workgroup_sizes = [1024, 1024, 1024], max_thread_count_per_workgroup = 1024, max_workgroup_memory_bytes = 65536, max_workgroup_counts = [2147483647, 2147483647, 2147483647], max_load_instruction_bits = 128, simds_per_wgp = 4, vgpr_space_bits = 16384, dma_sizes = [32]>>, ukernels = "none"}>
    %max_val, %max_idx = iree_linalg_ext.arg_compare dimension(2) 
                         ^
dispatch_4.mlir:2:3: note: called from
  func.func @test_simple_argmax_4x16(%input: tensor<4x16x128256xf16>) -> (tensor<4x16xf16>, tensor<4x16xi32>) {
  ^
