// -----// IR Dump After AutoInputConversionPipelinePass (iree-auto-input-conversion) //----- //
#map = affine_map<(d0, d1) -> (d0, d1)>
#map1 = affine_map<(d0, d1) -> (d0)>
module {
  func.func @reduce(%arg0: tensor<8x64xf32>) -> tensor<8xf32> {
    %cst = arith.constant -0.000000e+00 : f32
    %0 = tensor.empty() : tensor<8xf32>
    %1 = linalg.fill ins(%cst : f32) outs(%0 : tensor<8xf32>) -> tensor<8xf32>
    %2 = linalg.generic {indexing_maps = [#map, #map1], iterator_types = ["parallel", "reduction"]} ins(%arg0 : tensor<8x64xf32>) outs(%1 : tensor<8xf32>) {
    ^bb0(%in: f32, %out: f32):
      %3 = arith.addf %in, %out : f32
      linalg.yield %3 : f32
    } -> tensor<8xf32>
    return %2 : tensor<8xf32>
  }
}


// -----// IR Dump After IREEImportPublicPass (iree-import-public) //----- //
#map = affine_map<(d0, d1) -> (d0, d1)>
#map1 = affine_map<(d0, d1) -> (d0)>
module {
  util.func public @reduce(%arg0: tensor<8x64xf32>) -> tensor<8xf32> {
    %cst = arith.constant -0.000000e+00 : f32
    %0 = tensor.empty() : tensor<8xf32>
    %1 = linalg.fill ins(%cst : f32) outs(%0 : tensor<8xf32>) -> tensor<8xf32>
    %2 = linalg.generic {indexing_maps = [#map, #map1], iterator_types = ["parallel", "reduction"]} ins(%arg0 : tensor<8x64xf32>) outs(%1 : tensor<8xf32>) {
    ^bb0(%in: f32, %out: f32):
      %3 = arith.addf %in, %out : f32
      linalg.yield %3 : f32
    } -> tensor<8xf32>
    util.return %2 : tensor<8xf32>
  }
}


// -----// IR Dump After ImportMLProgramPass (iree-import-ml-program) //----- //
#map = affine_map<(d0, d1) -> (d0, d1)>
#map1 = affine_map<(d0, d1) -> (d0)>
module {
  util.func public @reduce(%arg0: tensor<8x64xf32>) -> tensor<8xf32> {
    %cst = arith.constant -0.000000e+00 : f32
    %0 = tensor.empty() : tensor<8xf32>
    %1 = linalg.fill ins(%cst : f32) outs(%0 : tensor<8xf32>) -> tensor<8xf32>
    %2 = linalg.generic {indexing_maps = [#map, #map1], iterator_types = ["parallel", "reduction"]} ins(%arg0 : tensor<8x64xf32>) outs(%1 : tensor<8xf32>) {
    ^bb0(%in: f32, %out: f32):
      %3 = arith.addf %in, %out : f32
      linalg.yield %3 : f32
    } -> tensor<8xf32>
    util.return %2 : tensor<8xf32>
  }
}


// -----// IR Dump After SanitizeModuleNamesPass (iree-sanitize-module-names) //----- //
#map = affine_map<(d0, d1) -> (d0, d1)>
#map1 = affine_map<(d0, d1) -> (d0)>
module {
  util.func public @reduce(%arg0: tensor<8x64xf32>) -> tensor<8xf32> {
    %cst = arith.constant -0.000000e+00 : f32
    %0 = tensor.empty() : tensor<8xf32>
    %1 = linalg.fill ins(%cst : f32) outs(%0 : tensor<8xf32>) -> tensor<8xf32>
    %2 = linalg.generic {indexing_maps = [#map, #map1], iterator_types = ["parallel", "reduction"]} ins(%arg0 : tensor<8x64xf32>) outs(%1 : tensor<8xf32>) {
    ^bb0(%in: f32, %out: f32):
      %3 = arith.addf %in, %out : f32
      linalg.yield %3 : f32
    } -> tensor<8xf32>
    util.return %2 : tensor<8xf32>
  }
}


// -----// IR Dump After ConvertShardToFlowPass (iree-convert-shard-to-flow) //----- //
#map = affine_map<(d0, d1) -> (d0, d1)>
#map1 = affine_map<(d0, d1) -> (d0)>
module {
  util.func public @reduce(%arg0: tensor<8x64xf32>) -> tensor<8xf32> {
    %cst = arith.constant -0.000000e+00 : f32
    %0 = tensor.empty() : tensor<8xf32>
    %1 = linalg.fill ins(%cst : f32) outs(%0 : tensor<8xf32>) -> tensor<8xf32>
    %2 = linalg.generic {indexing_maps = [#map, #map1], iterator_types = ["parallel", "reduction"]} ins(%arg0 : tensor<8x64xf32>) outs(%1 : tensor<8xf32>) {
    ^bb0(%in: f32, %out: f32):
      %3 = arith.addf %in, %out : f32
      linalg.yield %3 : f32
    } -> tensor<8xf32>
    util.return %2 : tensor<8xf32>
  }
}


// -----// IR Dump After DemoteF64ToF32Pass (iree-input-conversion-demote-f64-to-f32) //----- //
#map = affine_map<(d0, d1) -> (d0, d1)>
#map1 = affine_map<(d0, d1) -> (d0)>
module {
  util.func public @reduce(%arg0: tensor<8x64xf32>) -> tensor<8xf32> {
    %cst = arith.constant -0.000000e+00 : f32
    %0 = tensor.empty() : tensor<8xf32>
    %1 = linalg.fill ins(%cst : f32) outs(%0 : tensor<8xf32>) -> tensor<8xf32>
    %2 = linalg.generic {indexing_maps = [#map, #map1], iterator_types = ["parallel", "reduction"]} ins(%arg0 : tensor<8x64xf32>) outs(%1 : tensor<8xf32>) {
    ^bb0(%in: f32, %out: f32):
      %3 = arith.addf %in, %out : f32
      linalg.yield %3 : f32
    } -> tensor<8xf32>
    util.return %2 : tensor<8xf32>
  }
}


// -----// IR Dump After ConvertStreamableOpsPass (iree-abi-convert-streamable-ops) //----- //
#map = affine_map<(d0, d1) -> (d0, d1)>
#map1 = affine_map<(d0, d1) -> (d0)>
module {
  util.func public @reduce(%arg0: tensor<8x64xf32>) -> tensor<8xf32> {
    %cst = arith.constant -0.000000e+00 : f32
    %0 = tensor.empty() : tensor<8xf32>
    %1 = linalg.fill ins(%cst : f32) outs(%0 : tensor<8xf32>) -> tensor<8xf32>
    %2 = linalg.generic {indexing_maps = [#map, #map1], iterator_types = ["parallel", "reduction"]} ins(%arg0 : tensor<8x64xf32>) outs(%1 : tensor<8xf32>) {
    ^bb0(%in: f32, %out: f32):
      %3 = arith.addf %in, %out : f32
      linalg.yield %3 : f32
    } -> tensor<8xf32>
    util.return %2 : tensor<8xf32>
  }
}


// -----// IR Dump After WrapEntryPointsPass (iree-abi-wrap-entry-points) //----- //
#map = affine_map<(d0, d1) -> (d0, d1)>
#map1 = affine_map<(d0, d1) -> (d0)>
module {
  util.func public @reduce(%arg0: !hal.buffer_view) -> !hal.buffer_view attributes {iree.abi.stub, iree.reflection = {iree.abi.declaration = "sync func @reduce(%input0: tensor<8x64xf32>) -> (%output0: tensor<8xf32>)"}} {
    %0 = hal.tensor.import %arg0 "input0" : !hal.buffer_view -> tensor<8x64xf32>
    %1 = util.call @_reduce(%0) : (tensor<8x64xf32>) -> tensor<8xf32>
    %2 = hal.tensor.export %1 "output0" : tensor<8xf32> -> !hal.buffer_view
    util.return %2 : !hal.buffer_view
  }
  util.func private @_reduce(%arg0: tensor<8x64xf32>) -> tensor<8xf32> attributes {hal.abi.convention = #hal.abi.convention<synchronous>} {
    %cst = arith.constant -0.000000e+00 : f32
    %0 = tensor.empty() : tensor<8xf32>
    %1 = linalg.fill ins(%cst : f32) outs(%0 : tensor<8xf32>) -> tensor<8xf32>
    %2 = linalg.generic {indexing_maps = [#map, #map1], iterator_types = ["parallel", "reduction"]} ins(%arg0 : tensor<8x64xf32>) outs(%1 : tensor<8xf32>) {
    ^bb0(%in: f32, %out: f32):
      %3 = arith.addf %in, %out : f32
      linalg.yield %3 : f32
    } -> tensor<8xf32>
    util.return %2 : tensor<8xf32>
  }
}


// -----// IR Dump After Canonicalizer (canonicalize) //----- //
util.func private @_reduce(%arg0: tensor<8x64xf32>) -> tensor<8xf32> attributes {hal.abi.convention = #hal.abi.convention<synchronous>} {
  %cst = arith.constant -0.000000e+00 : f32
  %0 = tensor.empty() : tensor<8xf32>
  %1 = linalg.fill ins(%cst : f32) outs(%0 : tensor<8xf32>) -> tensor<8xf32>
  %2 = linalg.generic {indexing_maps = [affine_map<(d0, d1) -> (d0, d1)>, affine_map<(d0, d1) -> (d0)>], iterator_types = ["parallel", "reduction"]} ins(%arg0 : tensor<8x64xf32>) outs(%1 : tensor<8xf32>) {
  ^bb0(%in: f32, %out: f32):
    %3 = arith.addf %in, %out : f32
    linalg.yield %3 : f32
  } -> tensor<8xf32>
  util.return %2 : tensor<8xf32>
}

// -----// IR Dump After Canonicalizer (canonicalize) //----- //
util.func public @reduce(%arg0: !hal.buffer_view) -> !hal.buffer_view attributes {iree.abi.stub, iree.reflection = {iree.abi.declaration = "sync func @reduce(%input0: tensor<8x64xf32>) -> (%output0: tensor<8xf32>)"}} {
  %0 = hal.tensor.import %arg0 "input0" : !hal.buffer_view -> tensor<8x64xf32>
  %1 = util.call @_reduce(%0) : (tensor<8x64xf32>) -> tensor<8xf32>
  %2 = hal.tensor.export %1 "output0" : tensor<8xf32> -> !hal.buffer_view
  util.return %2 : !hal.buffer_view
}

// -----// IR Dump After Canonicalizer (canonicalize) //----- //
util.func public @reduce(%arg0: !hal.buffer_view) -> !hal.buffer_view attributes {iree.abi.stub, iree.reflection = {iree.abi.declaration = "sync func @reduce(%input0: tensor<8x64xf32>) -> (%output0: tensor<8xf32>)"}} {
  %cst = arith.constant -0.000000e+00 : f32
  %0 = hal.tensor.import %arg0 "input0" : !hal.buffer_view -> tensor<8x64xf32>
  %1 = tensor.empty() : tensor<8xf32>
  %2 = linalg.fill ins(%cst : f32) outs(%1 : tensor<8xf32>) -> tensor<8xf32>
  %3 = linalg.generic {indexing_maps = [affine_map<(d0, d1) -> (d0, d1)>, affine_map<(d0, d1) -> (d0)>], iterator_types = ["parallel", "reduction"]} ins(%0 : tensor<8x64xf32>) outs(%2 : tensor<8xf32>) {
  ^bb0(%in: f32, %out: f32):
    %5 = arith.addf %in, %out : f32
    linalg.yield %5 : f32
  } -> tensor<8xf32>
  %4 = hal.tensor.export %3 "output0" : tensor<8xf32> -> !hal.buffer_view
  util.return %4 : !hal.buffer_view
}

// -----// IR Dump After Inliner (inline) //----- //
#map = affine_map<(d0, d1) -> (d0, d1)>
#map1 = affine_map<(d0, d1) -> (d0)>
module {
  util.func public @reduce(%arg0: !hal.buffer_view) -> !hal.buffer_view attributes {iree.abi.stub, iree.reflection = {iree.abi.declaration = "sync func @reduce(%input0: tensor<8x64xf32>) -> (%output0: tensor<8xf32>)"}} {
    %cst = arith.constant -0.000000e+00 : f32
    %0 = hal.tensor.import %arg0 "input0" : !hal.buffer_view -> tensor<8x64xf32>
    %1 = tensor.empty() : tensor<8xf32>
    %2 = linalg.fill ins(%cst : f32) outs(%1 : tensor<8xf32>) -> tensor<8xf32>
    %3 = linalg.generic {indexing_maps = [#map, #map1], iterator_types = ["parallel", "reduction"]} ins(%0 : tensor<8x64xf32>) outs(%2 : tensor<8xf32>) {
    ^bb0(%in: f32, %out: f32):
      %5 = arith.addf %in, %out : f32
      linalg.yield %5 : f32
    } -> tensor<8xf32>
    %4 = hal.tensor.export %3 "output0" : tensor<8xf32> -> !hal.buffer_view
    util.return %4 : !hal.buffer_view
  }
}


// -----// IR Dump After Canonicalizer (canonicalize) //----- //
util.func public @reduce(%arg0: !hal.buffer_view) -> !hal.buffer_view attributes {iree.abi.stub, iree.reflection = {iree.abi.declaration = "sync func @reduce(%input0: tensor<8x64xf32>) -> (%output0: tensor<8xf32>)"}} {
  %cst = arith.constant -0.000000e+00 : f32
  %0 = hal.tensor.import %arg0 "input0" : !hal.buffer_view -> tensor<8x64xf32>
  %1 = tensor.empty() : tensor<8xf32>
  %2 = linalg.fill ins(%cst : f32) outs(%1 : tensor<8xf32>) -> tensor<8xf32>
  %3 = linalg.generic {indexing_maps = [affine_map<(d0, d1) -> (d0, d1)>, affine_map<(d0, d1) -> (d0)>], iterator_types = ["parallel", "reduction"]} ins(%0 : tensor<8x64xf32>) outs(%2 : tensor<8xf32>) {
  ^bb0(%in: f32, %out: f32):
    %5 = arith.addf %in, %out : f32
    linalg.yield %5 : f32
  } -> tensor<8xf32>
  %4 = hal.tensor.export %3 "output0" : tensor<8xf32> -> !hal.buffer_view
  util.return %4 : !hal.buffer_view
}

// -----// IR Dump After CSE (cse) //----- //
util.func public @reduce(%arg0: !hal.buffer_view) -> !hal.buffer_view attributes {iree.abi.stub, iree.reflection = {iree.abi.declaration = "sync func @reduce(%input0: tensor<8x64xf32>) -> (%output0: tensor<8xf32>)"}} {
  %cst = arith.constant -0.000000e+00 : f32
  %0 = hal.tensor.import %arg0 "input0" : !hal.buffer_view -> tensor<8x64xf32>
  %1 = tensor.empty() : tensor<8xf32>
  %2 = linalg.fill ins(%cst : f32) outs(%1 : tensor<8xf32>) -> tensor<8xf32>
  %3 = linalg.generic {indexing_maps = [affine_map<(d0, d1) -> (d0, d1)>, affine_map<(d0, d1) -> (d0)>], iterator_types = ["parallel", "reduction"]} ins(%0 : tensor<8x64xf32>) outs(%2 : tensor<8xf32>) {
  ^bb0(%in: f32, %out: f32):
    %5 = arith.addf %in, %out : f32
    linalg.yield %5 : f32
  } -> tensor<8xf32>
  %4 = hal.tensor.export %3 "output0" : tensor<8xf32> -> !hal.buffer_view
  util.return %4 : !hal.buffer_view
}

// -----// IR Dump After SymbolDCE (symbol-dce) //----- //
#map = affine_map<(d0, d1) -> (d0, d1)>
#map1 = affine_map<(d0, d1) -> (d0)>
module {
  util.func public @reduce(%arg0: !hal.buffer_view) -> !hal.buffer_view attributes {iree.abi.stub, iree.reflection = {iree.abi.declaration = "sync func @reduce(%input0: tensor<8x64xf32>) -> (%output0: tensor<8xf32>)"}} {
    %cst = arith.constant -0.000000e+00 : f32
    %0 = hal.tensor.import %arg0 "input0" : !hal.buffer_view -> tensor<8x64xf32>
    %1 = tensor.empty() : tensor<8xf32>
    %2 = linalg.fill ins(%cst : f32) outs(%1 : tensor<8xf32>) -> tensor<8xf32>
    %3 = linalg.generic {indexing_maps = [#map, #map1], iterator_types = ["parallel", "reduction"]} ins(%0 : tensor<8x64xf32>) outs(%2 : tensor<8xf32>) {
    ^bb0(%in: f32, %out: f32):
      %5 = arith.addf %in, %out : f32
      linalg.yield %5 : f32
    } -> tensor<8xf32>
    %4 = hal.tensor.export %3 "output0" : tensor<8xf32> -> !hal.buffer_view
    util.return %4 : !hal.buffer_view
  }
}


// -----// IR Dump After AssignTargetDevicesPass (iree-hal-assign-target-devices) //----- //
#map = affine_map<(d0, d1) -> (d0, d1)>
#map1 = affine_map<(d0, d1) -> (d0)>
module attributes {hal.device.targets = [#hal.device.alias<"hip"> : !hal.device]} {
  util.func public @reduce(%arg0: !hal.buffer_view) -> !hal.buffer_view attributes {iree.abi.stub, iree.reflection = {iree.abi.declaration = "sync func @reduce(%input0: tensor<8x64xf32>) -> (%output0: tensor<8xf32>)"}} {
    %cst = arith.constant -0.000000e+00 : f32
    %0 = hal.tensor.import %arg0 "input0" : !hal.buffer_view -> tensor<8x64xf32>
    %1 = tensor.empty() : tensor<8xf32>
    %2 = linalg.fill ins(%cst : f32) outs(%1 : tensor<8xf32>) -> tensor<8xf32>
    %3 = linalg.generic {indexing_maps = [#map, #map1], iterator_types = ["parallel", "reduction"]} ins(%0 : tensor<8x64xf32>) outs(%2 : tensor<8xf32>) {
    ^bb0(%in: f32, %out: f32):
      %5 = arith.addf %in, %out : f32
      linalg.yield %5 : f32
    } -> tensor<8xf32>
    %4 = hal.tensor.export %3 "output0" : tensor<8xf32> -> !hal.buffer_view
    util.return %4 : !hal.buffer_view
  }
}


// -----// IR Dump After MaterializeTargetDevicesPass (iree-hal-materialize-target-devices) //----- //
#map = affine_map<(d0, d1) -> (d0, d1)>
#map1 = affine_map<(d0, d1) -> (d0)>
module attributes {stream.affinity.default = #hal.device.affinity<@__device_0>} {
  util.global private @__device_0 = #hal.device.alias<"hip"> : !hal.device
  util.func public @reduce(%arg0: !hal.buffer_view) -> !hal.buffer_view attributes {iree.abi.stub, iree.reflection = {iree.abi.declaration = "sync func @reduce(%input0: tensor<8x64xf32>) -> (%output0: tensor<8xf32>)"}} {
    %cst = arith.constant -0.000000e+00 : f32
    %0 = hal.tensor.import %arg0 "input0" : !hal.buffer_view -> tensor<8x64xf32>
    %1 = tensor.empty() : tensor<8xf32>
    %2 = linalg.fill ins(%cst : f32) outs(%1 : tensor<8xf32>) -> tensor<8xf32>
    %3 = linalg.generic {indexing_maps = [#map, #map1], iterator_types = ["parallel", "reduction"]} ins(%0 : tensor<8x64xf32>) outs(%2 : tensor<8xf32>) {
    ^bb0(%in: f32, %out: f32):
      %5 = arith.addf %in, %out : f32
      linalg.yield %5 : f32
    } -> tensor<8xf32>
    %4 = hal.tensor.export %3 "output0" : tensor<8xf32> -> !hal.buffer_view
    util.return %4 : !hal.buffer_view
  }
}


// -----// IR Dump After ResolveDevicePromisesPass (iree-hal-resolve-device-promises) //----- //
#map = affine_map<(d0, d1) -> (d0, d1)>
#map1 = affine_map<(d0, d1) -> (d0)>
module attributes {stream.affinity.default = #hal.device.affinity<@__device_0>} {
  util.global private @__device_0 = #hal.device.alias<"hip"> : !hal.device
  util.func public @reduce(%arg0: !hal.buffer_view) -> !hal.buffer_view attributes {iree.abi.stub, iree.reflection = {iree.abi.declaration = "sync func @reduce(%input0: tensor<8x64xf32>) -> (%output0: tensor<8xf32>)"}} {
    %cst = arith.constant -0.000000e+00 : f32
    %0 = hal.tensor.import %arg0 "input0" : !hal.buffer_view -> tensor<8x64xf32>
    %1 = tensor.empty() : tensor<8xf32>
    %2 = linalg.fill ins(%cst : f32) outs(%1 : tensor<8xf32>) -> tensor<8xf32>
    %3 = linalg.generic {indexing_maps = [#map, #map1], iterator_types = ["parallel", "reduction"]} ins(%0 : tensor<8x64xf32>) outs(%2 : tensor<8xf32>) {
    ^bb0(%in: f32, %out: f32):
      %5 = arith.addf %in, %out : f32
      linalg.yield %5 : f32
    } -> tensor<8xf32>
    %4 = hal.tensor.export %3 "output0" : tensor<8xf32> -> !hal.buffer_view
    util.return %4 : !hal.buffer_view
  }
}


// -----// IR Dump After ResolveDeviceAliasesPass (iree-hal-resolve-device-aliases) //----- //
#executable_target_rocm_hsaco_fb = #hal.executable.target<"rocm", "rocm-hsaco-fb", {abi = "hip", iree.encoding.resolver = #iree_gpu.gpu_encoding_resolver<>, iree_codegen.default_tuning_spec = #rocm.builtin.tuning_module<"iree_default_tuning_spec_gfx942.mlir">, iree_codegen.target_info = #iree_gpu.target<arch = "gfx942", features = "", wgp = <compute =  fp64|fp32|fp16|int64|int32|int16|int8, storage =  b64|b32|b16|b8, subgroup =  shuffle|arithmetic, dot =  dp4xi8toi32, mma = [<MFMA_F32_16x16x16_BF16>, <MFMA_F32_32x32x8_BF16>, <MFMA_F32_16x16x32_F8E5M2FNUZ>, <MFMA_F32_16x16x32_F8E5M2FNUZ_F8E4M3FNUZ>, <MFMA_F32_16x16x32_F8E4M3FNUZ>, <MFMA_F32_16x16x32_F8E4M3FNUZ_F8E5M2FNUZ>, <MFMA_F32_32x32x16_F8E5M2FNUZ>, <MFMA_F32_32x32x16_F8E5M2FNUZ_F8E4M3FNUZ>, <MFMA_F32_32x32x16_F8E4M3FNUZ>, <MFMA_F32_32x32x16_F8E4M3FNUZ_F8E5M2FNUZ>, <MFMA_I32_16x16x32_I8>, <MFMA_I32_32x32x16_I8>, <MFMA_F64_16x16x4_F64>, <MFMA_F32_16x16x4_F32>, <MFMA_F32_16x16x16_F16>, <MFMA_F32_32x32x8_F16>], subgroup_size_choices = [64], max_workgroup_sizes = [1024, 1024, 1024], max_thread_count_per_workgroup = 1024, max_workgroup_memory_bytes = 65536, max_workgroup_counts = [2147483647, 2147483647, 2147483647], max_load_instruction_bits = 128, simds_per_wgp = 4, vgpr_space_bits = 16384, dma_sizes = [32]>>, ukernels = "none"}>
#map = affine_map<(d0, d1) -> (d0, d1)>
#map1 = affine_map<(d0, d1) -> (d0)>
#device_target_hip = #hal.device.target<"hip", [#executable_target_rocm_hsaco_fb]> : !hal.device
module attributes {stream.affinity.default = #hal.device.affinity<@__device_0>} {
  util.global private @__device_0 = #device_target_hip
  util.func public @reduce(%arg0: !hal.buffer_view) -> !hal.buffer_view attributes {iree.abi.stub, iree.reflection = {iree.abi.declaration = "sync func @reduce(%input0: tensor<8x64xf32>) -> (%output0: tensor<8xf32>)"}} {
    %cst = arith.constant -0.000000e+00 : f32
    %0 = hal.tensor.import %arg0 "input0" : !hal.buffer_view -> tensor<8x64xf32>
    %1 = tensor.empty() : tensor<8xf32>
    %2 = linalg.fill ins(%cst : f32) outs(%1 : tensor<8xf32>) -> tensor<8xf32>
    %3 = linalg.generic {indexing_maps = [#map, #map1], iterator_types = ["parallel", "reduction"]} ins(%0 : tensor<8x64xf32>) outs(%2 : tensor<8xf32>) {
    ^bb0(%in: f32, %out: f32):
      %5 = arith.addf %in, %out : f32
      linalg.yield %5 : f32
    } -> tensor<8xf32>
    %4 = hal.tensor.export %3 "output0" : tensor<8xf32> -> !hal.buffer_view
    util.return %4 : !hal.buffer_view
  }
}


// -----// IR Dump After VerifyDevicesPass (iree-hal-verify-devices) //----- //
#executable_target_rocm_hsaco_fb = #hal.executable.target<"rocm", "rocm-hsaco-fb", {abi = "hip", iree.encoding.resolver = #iree_gpu.gpu_encoding_resolver<>, iree_codegen.default_tuning_spec = #rocm.builtin.tuning_module<"iree_default_tuning_spec_gfx942.mlir">, iree_codegen.target_info = #iree_gpu.target<arch = "gfx942", features = "", wgp = <compute =  fp64|fp32|fp16|int64|int32|int16|int8, storage =  b64|b32|b16|b8, subgroup =  shuffle|arithmetic, dot =  dp4xi8toi32, mma = [<MFMA_F32_16x16x16_BF16>, <MFMA_F32_32x32x8_BF16>, <MFMA_F32_16x16x32_F8E5M2FNUZ>, <MFMA_F32_16x16x32_F8E5M2FNUZ_F8E4M3FNUZ>, <MFMA_F32_16x16x32_F8E4M3FNUZ>, <MFMA_F32_16x16x32_F8E4M3FNUZ_F8E5M2FNUZ>, <MFMA_F32_32x32x16_F8E5M2FNUZ>, <MFMA_F32_32x32x16_F8E5M2FNUZ_F8E4M3FNUZ>, <MFMA_F32_32x32x16_F8E4M3FNUZ>, <MFMA_F32_32x32x16_F8E4M3FNUZ_F8E5M2FNUZ>, <MFMA_I32_16x16x32_I8>, <MFMA_I32_32x32x16_I8>, <MFMA_F64_16x16x4_F64>, <MFMA_F32_16x16x4_F32>, <MFMA_F32_16x16x16_F16>, <MFMA_F32_32x32x8_F16>], subgroup_size_choices = [64], max_workgroup_sizes = [1024, 1024, 1024], max_thread_count_per_workgroup = 1024, max_workgroup_memory_bytes = 65536, max_workgroup_counts = [2147483647, 2147483647, 2147483647], max_load_instruction_bits = 128, simds_per_wgp = 4, vgpr_space_bits = 16384, dma_sizes = [32]>>, ukernels = "none"}>
#map = affine_map<(d0, d1) -> (d0, d1)>
#map1 = affine_map<(d0, d1) -> (d0)>
#device_target_hip = #hal.device.target<"hip", [#executable_target_rocm_hsaco_fb]> : !hal.device
module attributes {stream.affinity.default = #hal.device.affinity<@__device_0>} {
  util.global private @__device_0 = #device_target_hip
  util.func public @reduce(%arg0: !hal.buffer_view) -> !hal.buffer_view attributes {iree.abi.stub, iree.reflection = {iree.abi.declaration = "sync func @reduce(%input0: tensor<8x64xf32>) -> (%output0: tensor<8xf32>)"}} {
    %cst = arith.constant -0.000000e+00 : f32
    %0 = hal.tensor.import %arg0 "input0" : !hal.buffer_view -> tensor<8x64xf32>
    %1 = tensor.empty() : tensor<8xf32>
    %2 = linalg.fill ins(%cst : f32) outs(%1 : tensor<8xf32>) -> tensor<8xf32>
    %3 = linalg.generic {indexing_maps = [#map, #map1], iterator_types = ["parallel", "reduction"]} ins(%0 : tensor<8x64xf32>) outs(%2 : tensor<8xf32>) {
    ^bb0(%in: f32, %out: f32):
      %5 = arith.addf %in, %out : f32
      linalg.yield %5 : f32
    } -> tensor<8xf32>
    %4 = hal.tensor.export %3 "output0" : tensor<8xf32> -> !hal.buffer_view
    util.return %4 : !hal.buffer_view
  }
}


// -----// IR Dump After AttrBasedPipelinePass (iree-preprocessing-attr-based-pipeline) //----- //
util.func public @reduce(%arg0: !hal.buffer_view) -> !hal.buffer_view attributes {iree.abi.stub, iree.reflection = {iree.abi.declaration = "sync func @reduce(%input0: tensor<8x64xf32>) -> (%output0: tensor<8xf32>)"}} {
  %cst = arith.constant -0.000000e+00 : f32
  %0 = hal.tensor.import %arg0 "input0" : !hal.buffer_view -> tensor<8x64xf32>
  %1 = tensor.empty() : tensor<8xf32>
  %2 = linalg.fill ins(%cst : f32) outs(%1 : tensor<8xf32>) -> tensor<8xf32>
  %3 = linalg.generic {indexing_maps = [affine_map<(d0, d1) -> (d0, d1)>, affine_map<(d0, d1) -> (d0)>], iterator_types = ["parallel", "reduction"]} ins(%0 : tensor<8x64xf32>) outs(%2 : tensor<8xf32>) {
  ^bb0(%in: f32, %out: f32):
    %5 = arith.addf %in, %out : f32
    linalg.yield %5 : f32
  } -> tensor<8xf32>
  %4 = hal.tensor.export %3 "output0" : tensor<8xf32> -> !hal.buffer_view
  util.return %4 : !hal.buffer_view
}

// -----// IR Dump After WarnOnUninitializedValuesPass (iree-global-opt-warn-on-uninitialized-values) //----- //
util.func public @reduce(%arg0: !hal.buffer_view) -> !hal.buffer_view attributes {iree.abi.stub, iree.reflection = {iree.abi.declaration = "sync func @reduce(%input0: tensor<8x64xf32>) -> (%output0: tensor<8xf32>)"}} {
  %cst = arith.constant -0.000000e+00 : f32
  %0 = hal.tensor.import %arg0 "input0" : !hal.buffer_view -> tensor<8x64xf32>
  %1 = tensor.empty() : tensor<8xf32>
  %2 = linalg.fill ins(%cst : f32) outs(%1 : tensor<8xf32>) -> tensor<8xf32>
  %3 = linalg.generic {indexing_maps = [affine_map<(d0, d1) -> (d0, d1)>, affine_map<(d0, d1) -> (d0)>], iterator_types = ["parallel", "reduction"]} ins(%0 : tensor<8x64xf32>) outs(%2 : tensor<8xf32>) {
  ^bb0(%in: f32, %out: f32):
    %5 = arith.addf %in, %out : f32
    linalg.yield %5 : f32
  } -> tensor<8xf32>
  %4 = hal.tensor.export %3 "output0" : tensor<8xf32> -> !hal.buffer_view
  util.return %4 : !hal.buffer_view
}

// -----// IR Dump After OptimizeIntArithmeticPass (iree-util-optimize-int-arithmetic) //----- //
util.func public @reduce(%arg0: !hal.buffer_view) -> !hal.buffer_view attributes {iree.abi.stub, iree.reflection = {iree.abi.declaration = "sync func @reduce(%input0: tensor<8x64xf32>) -> (%output0: tensor<8xf32>)"}} {
  %cst = arith.constant -0.000000e+00 : f32
  %0 = hal.tensor.import %arg0 "input0" : !hal.buffer_view -> tensor<8x64xf32>
  %1 = tensor.empty() : tensor<8xf32>
  %2 = linalg.fill ins(%cst : f32) outs(%1 : tensor<8xf32>) -> tensor<8xf32>
  %3 = linalg.generic {indexing_maps = [affine_map<(d0, d1) -> (d0, d1)>, affine_map<(d0, d1) -> (d0)>], iterator_types = ["parallel", "reduction"]} ins(%0 : tensor<8x64xf32>) outs(%2 : tensor<8xf32>) {
  ^bb0(%in: f32, %out: f32):
    %5 = arith.addf %in, %out : f32
    linalg.yield %5 : f32
  } -> tensor<8xf32>
  %4 = hal.tensor.export %3 "output0" : tensor<8xf32> -> !hal.buffer_view
  util.return %4 : !hal.buffer_view
}

// -----// IR Dump After LinalgQuantizedConvToConvPass (iree-global-opt-quantized-conv-to-conv) //----- //
util.func public @reduce(%arg0: !hal.buffer_view) -> !hal.buffer_view attributes {iree.abi.stub, iree.reflection = {iree.abi.declaration = "sync func @reduce(%input0: tensor<8x64xf32>) -> (%output0: tensor<8xf32>)"}} {
  %cst = arith.constant -0.000000e+00 : f32
  %0 = hal.tensor.import %arg0 "input0" : !hal.buffer_view -> tensor<8x64xf32>
  %1 = tensor.empty() : tensor<8xf32>
  %2 = linalg.fill ins(%cst : f32) outs(%1 : tensor<8xf32>) -> tensor<8xf32>
  %3 = linalg.generic {indexing_maps = [affine_map<(d0, d1) -> (d0, d1)>, affine_map<(d0, d1) -> (d0)>], iterator_types = ["parallel", "reduction"]} ins(%0 : tensor<8x64xf32>) outs(%2 : tensor<8xf32>) {
  ^bb0(%in: f32, %out: f32):
    %5 = arith.addf %in, %out : f32
    linalg.yield %5 : f32
  } -> tensor<8xf32>
  %4 = hal.tensor.export %3 "output0" : tensor<8xf32> -> !hal.buffer_view
  util.return %4 : !hal.buffer_view
}

// -----// IR Dump After LinalgQuantizedMatmulToMatmulPass (iree-global-opt-quantized-matmul-to-matmul) //----- //
util.func public @reduce(%arg0: !hal.buffer_view) -> !hal.buffer_view attributes {iree.abi.stub, iree.reflection = {iree.abi.declaration = "sync func @reduce(%input0: tensor<8x64xf32>) -> (%output0: tensor<8xf32>)"}} {
  %cst = arith.constant -0.000000e+00 : f32
  %0 = hal.tensor.import %arg0 "input0" : !hal.buffer_view -> tensor<8x64xf32>
  %1 = tensor.empty() : tensor<8xf32>
  %2 = linalg.fill ins(%cst : f32) outs(%1 : tensor<8xf32>) -> tensor<8xf32>
  %3 = linalg.generic {indexing_maps = [affine_map<(d0, d1) -> (d0, d1)>, affine_map<(d0, d1) -> (d0)>], iterator_types = ["parallel", "reduction"]} ins(%0 : tensor<8x64xf32>) outs(%2 : tensor<8xf32>) {
  ^bb0(%in: f32, %out: f32):
    %5 = arith.addf %in, %out : f32
    linalg.yield %5 : f32
  } -> tensor<8xf32>
  %4 = hal.tensor.export %3 "output0" : tensor<8xf32> -> !hal.buffer_view
  util.return %4 : !hal.buffer_view
}

// -----// IR Dump After CanonicalizePass (iree-flow-canonicalize) //----- //
util.func public @reduce(%arg0: !hal.buffer_view) -> !hal.buffer_view attributes {iree.abi.stub, iree.reflection = {iree.abi.declaration = "sync func @reduce(%input0: tensor<8x64xf32>) -> (%output0: tensor<8xf32>)"}} {
  %cst = arith.constant -0.000000e+00 : f32
  %0 = hal.tensor.import %arg0 "input0" : !hal.buffer_view -> tensor<8x64xf32>
  %1 = tensor.empty() : tensor<8xf32>
  %2 = linalg.fill ins(%cst : f32) outs(%1 : tensor<8xf32>) -> tensor<8xf32>
  %3 = linalg.generic {indexing_maps = [affine_map<(d0, d1) -> (d0, d1)>, affine_map<(d0, d1) -> (d0)>], iterator_types = ["parallel", "reduction"]} ins(%0 : tensor<8x64xf32>) outs(%2 : tensor<8xf32>) {
  ^bb0(%in: f32, %out: f32):
    %5 = arith.addf %in, %out : f32
    linalg.yield %5 : f32
  } -> tensor<8xf32>
  %4 = hal.tensor.export %3 "output0" : tensor<8xf32> -> !hal.buffer_view
  util.return %4 : !hal.buffer_view
}

// -----// IR Dump After RemoveZeroExtentTensorsPass (iree-global-opt-remove-zero-extent-tensors) //----- //
util.func public @reduce(%arg0: !hal.buffer_view) -> !hal.buffer_view attributes {iree.abi.stub, iree.reflection = {iree.abi.declaration = "sync func @reduce(%input0: tensor<8x64xf32>) -> (%output0: tensor<8xf32>)"}} {
  %cst = arith.constant -0.000000e+00 : f32
  %0 = hal.tensor.import %arg0 "input0" : !hal.buffer_view -> tensor<8x64xf32>
  %1 = tensor.empty() : tensor<8xf32>
  %2 = linalg.fill ins(%cst : f32) outs(%1 : tensor<8xf32>) -> tensor<8xf32>
  %3 = linalg.generic {indexing_maps = [affine_map<(d0, d1) -> (d0, d1)>, affine_map<(d0, d1) -> (d0)>], iterator_types = ["parallel", "reduction"]} ins(%0 : tensor<8x64xf32>) outs(%2 : tensor<8xf32>) {
  ^bb0(%in: f32, %out: f32):
    %5 = arith.addf %in, %out : f32
    linalg.yield %5 : f32
  } -> tensor<8xf32>
  %4 = hal.tensor.export %3 "output0" : tensor<8xf32> -> !hal.buffer_view
  util.return %4 : !hal.buffer_view
}

// -----// IR Dump After DetachElementwiseFromNamedOpsPass (iree-global-opt-detach-elementwise-from-named-ops) //----- //
util.func public @reduce(%arg0: !hal.buffer_view) -> !hal.buffer_view attributes {iree.abi.stub, iree.reflection = {iree.abi.declaration = "sync func @reduce(%input0: tensor<8x64xf32>) -> (%output0: tensor<8xf32>)"}} {
  %cst = arith.constant -0.000000e+00 : f32
  %0 = hal.tensor.import %arg0 "input0" : !hal.buffer_view -> tensor<8x64xf32>
  %1 = tensor.empty() : tensor<8xf32>
  %2 = linalg.fill ins(%cst : f32) outs(%1 : tensor<8xf32>) -> tensor<8xf32>
  %3 = linalg.generic {indexing_maps = [affine_map<(d0, d1) -> (d0, d1)>, affine_map<(d0, d1) -> (d0)>], iterator_types = ["parallel", "reduction"]} ins(%0 : tensor<8x64xf32>) outs(%2 : tensor<8xf32>) {
  ^bb0(%in: f32, %out: f32):
    %5 = arith.addf %in, %out : f32
    linalg.yield %5 : f32
  } -> tensor<8xf32>
  %4 = hal.tensor.export %3 "output0" : tensor<8xf32> -> !hal.buffer_view
  util.return %4 : !hal.buffer_view
}

// -----// IR Dump After SimplifyDepthwiseConvPass (simplify-depthwise-conv) //----- //
util.func public @reduce(%arg0: !hal.buffer_view) -> !hal.buffer_view attributes {iree.abi.stub, iree.reflection = {iree.abi.declaration = "sync func @reduce(%input0: tensor<8x64xf32>) -> (%output0: tensor<8xf32>)"}} {
  %cst = arith.constant -0.000000e+00 : f32
  %0 = hal.tensor.import %arg0 "input0" : !hal.buffer_view -> tensor<8x64xf32>
  %1 = tensor.empty() : tensor<8xf32>
  %2 = linalg.fill ins(%cst : f32) outs(%1 : tensor<8xf32>) -> tensor<8xf32>
  %3 = linalg.generic {indexing_maps = [affine_map<(d0, d1) -> (d0, d1)>, affine_map<(d0, d1) -> (d0)>], iterator_types = ["parallel", "reduction"]} ins(%0 : tensor<8x64xf32>) outs(%2 : tensor<8xf32>) {
  ^bb0(%in: f32, %out: f32):
    %5 = arith.addf %in, %out : f32
    linalg.yield %5 : f32
  } -> tensor<8xf32>
  %4 = hal.tensor.export %3 "output0" : tensor<8xf32> -> !hal.buffer_view
  util.return %4 : !hal.buffer_view
}

// -----// IR Dump After EraseUnusedLinalgOperandsPass (iree-global-opt-erase-unused-linalg-operands) //----- //
#executable_target_rocm_hsaco_fb = #hal.executable.target<"rocm", "rocm-hsaco-fb", {abi = "hip", iree.encoding.resolver = #iree_gpu.gpu_encoding_resolver<>, iree_codegen.default_tuning_spec = #rocm.builtin.tuning_module<"iree_default_tuning_spec_gfx942.mlir">, iree_codegen.target_info = #iree_gpu.target<arch = "gfx942", features = "", wgp = <compute =  fp64|fp32|fp16|int64|int32|int16|int8, storage =  b64|b32|b16|b8, subgroup =  shuffle|arithmetic, dot =  dp4xi8toi32, mma = [<MFMA_F32_16x16x16_BF16>, <MFMA_F32_32x32x8_BF16>, <MFMA_F32_16x16x32_F8E5M2FNUZ>, <MFMA_F32_16x16x32_F8E5M2FNUZ_F8E4M3FNUZ>, <MFMA_F32_16x16x32_F8E4M3FNUZ>, <MFMA_F32_16x16x32_F8E4M3FNUZ_F8E5M2FNUZ>, <MFMA_F32_32x32x16_F8E5M2FNUZ>, <MFMA_F32_32x32x16_F8E5M2FNUZ_F8E4M3FNUZ>, <MFMA_F32_32x32x16_F8E4M3FNUZ>, <MFMA_F32_32x32x16_F8E4M3FNUZ_F8E5M2FNUZ>, <MFMA_I32_16x16x32_I8>, <MFMA_I32_32x32x16_I8>, <MFMA_F64_16x16x4_F64>, <MFMA_F32_16x16x4_F32>, <MFMA_F32_16x16x16_F16>, <MFMA_F32_32x32x8_F16>], subgroup_size_choices = [64], max_workgroup_sizes = [1024, 1024, 1024], max_thread_count_per_workgroup = 1024, max_workgroup_memory_bytes = 65536, max_workgroup_counts = [2147483647, 2147483647, 2147483647], max_load_instruction_bits = 128, simds_per_wgp = 4, vgpr_space_bits = 16384, dma_sizes = [32]>>, ukernels = "none"}>
#map = affine_map<(d0, d1) -> (d0, d1)>
#map1 = affine_map<(d0, d1) -> (d0)>
#device_target_hip = #hal.device.target<"hip", [#executable_target_rocm_hsaco_fb]> : !hal.device
module attributes {stream.affinity.default = #hal.device.affinity<@__device_0>} {
  util.global private @__device_0 = #device_target_hip
  util.func public @reduce(%arg0: !hal.buffer_view) -> !hal.buffer_view attributes {iree.abi.stub, iree.reflection = {iree.abi.declaration = "sync func @reduce(%input0: tensor<8x64xf32>) -> (%output0: tensor<8xf32>)"}} {
    %cst = arith.constant -0.000000e+00 : f32
    %0 = hal.tensor.import %arg0 "input0" : !hal.buffer_view -> tensor<8x64xf32>
    %1 = tensor.empty() : tensor<8xf32>
    %2 = linalg.fill ins(%cst : f32) outs(%1 : tensor<8xf32>) -> tensor<8xf32>
    %3 = linalg.generic {indexing_maps = [#map, #map1], iterator_types = ["parallel", "reduction"]} ins(%0 : tensor<8x64xf32>) outs(%2 : tensor<8xf32>) {
    ^bb0(%in: f32, %out: f32):
      %5 = arith.addf %in, %out : f32
      linalg.yield %5 : f32
    } -> tensor<8xf32>
    %4 = hal.tensor.export %3 "output0" : tensor<8xf32> -> !hal.buffer_view
    util.return %4 : !hal.buffer_view
  }
}


// -----// IR Dump After ExpandTensorShapesPass (iree-global-opt-expand-tensor-shapes) //----- //
#executable_target_rocm_hsaco_fb = #hal.executable.target<"rocm", "rocm-hsaco-fb", {abi = "hip", iree.encoding.resolver = #iree_gpu.gpu_encoding_resolver<>, iree_codegen.default_tuning_spec = #rocm.builtin.tuning_module<"iree_default_tuning_spec_gfx942.mlir">, iree_codegen.target_info = #iree_gpu.target<arch = "gfx942", features = "", wgp = <compute =  fp64|fp32|fp16|int64|int32|int16|int8, storage =  b64|b32|b16|b8, subgroup =  shuffle|arithmetic, dot =  dp4xi8toi32, mma = [<MFMA_F32_16x16x16_BF16>, <MFMA_F32_32x32x8_BF16>, <MFMA_F32_16x16x32_F8E5M2FNUZ>, <MFMA_F32_16x16x32_F8E5M2FNUZ_F8E4M3FNUZ>, <MFMA_F32_16x16x32_F8E4M3FNUZ>, <MFMA_F32_16x16x32_F8E4M3FNUZ_F8E5M2FNUZ>, <MFMA_F32_32x32x16_F8E5M2FNUZ>, <MFMA_F32_32x32x16_F8E5M2FNUZ_F8E4M3FNUZ>, <MFMA_F32_32x32x16_F8E4M3FNUZ>, <MFMA_F32_32x32x16_F8E4M3FNUZ_F8E5M2FNUZ>, <MFMA_I32_16x16x32_I8>, <MFMA_I32_32x32x16_I8>, <MFMA_F64_16x16x4_F64>, <MFMA_F32_16x16x4_F32>, <MFMA_F32_16x16x16_F16>, <MFMA_F32_32x32x8_F16>], subgroup_size_choices = [64], max_workgroup_sizes = [1024, 1024, 1024], max_thread_count_per_workgroup = 1024, max_workgroup_memory_bytes = 65536, max_workgroup_counts = [2147483647, 2147483647, 2147483647], max_load_instruction_bits = 128, simds_per_wgp = 4, vgpr_space_bits = 16384, dma_sizes = [32]>>, ukernels = "none"}>
#map = affine_map<(d0, d1) -> (d0, d1)>
#map1 = affine_map<(d0, d1) -> (d0)>
#device_target_hip = #hal.device.target<"hip", [#executable_target_rocm_hsaco_fb]> : !hal.device
module attributes {stream.affinity.default = #hal.device.affinity<@__device_0>} {
  util.global private @__device_0 = #device_target_hip
  util.func public @reduce(%arg0: !hal.buffer_view) -> !hal.buffer_view attributes {iree.abi.stub, iree.reflection = {iree.abi.declaration = "sync func @reduce(%input0: tensor<8x64xf32>) -> (%output0: tensor<8xf32>)"}} {
    %cst = arith.constant -0.000000e+00 : f32
    %0 = hal.tensor.import %arg0 "input0" : !hal.buffer_view -> tensor<8x64xf32>
    %1 = tensor.empty() : tensor<8xf32>
    %2 = linalg.fill ins(%cst : f32) outs(%1 : tensor<8xf32>) -> tensor<8xf32>
    %3 = linalg.generic {indexing_maps = [#map, #map1], iterator_types = ["parallel", "reduction"]} ins(%0 : tensor<8x64xf32>) outs(%2 : tensor<8xf32>) {
    ^bb0(%in: f32, %out: f32):
      %5 = arith.addf %in, %out : f32
      linalg.yield %5 : f32
    } -> tensor<8xf32>
    %4 = hal.tensor.export %3 "output0" : tensor<8xf32> -> !hal.buffer_view
    util.return %4 : !hal.buffer_view
  }
}


// -----// IR Dump After ConvertElementwiseToLinalgPass (convert-elementwise-to-linalg) //----- //
util.func public @reduce(%arg0: !hal.buffer_view) -> !hal.buffer_view attributes {iree.abi.stub, iree.reflection = {iree.abi.declaration = "sync func @reduce(%input0: tensor<8x64xf32>) -> (%output0: tensor<8xf32>)"}} {
  %cst = arith.constant -0.000000e+00 : f32
  %0 = hal.tensor.import %arg0 "input0" : !hal.buffer_view -> tensor<8x64xf32>
  %1 = tensor.empty() : tensor<8xf32>
  %2 = linalg.fill ins(%cst : f32) outs(%1 : tensor<8xf32>) -> tensor<8xf32>
  %3 = linalg.generic {indexing_maps = [affine_map<(d0, d1) -> (d0, d1)>, affine_map<(d0, d1) -> (d0)>], iterator_types = ["parallel", "reduction"]} ins(%0 : tensor<8x64xf32>) outs(%2 : tensor<8xf32>) {
  ^bb0(%in: f32, %out: f32):
    %5 = arith.addf %in, %out : f32
    linalg.yield %5 : f32
  } -> tensor<8xf32>
  %4 = hal.tensor.export %3 "output0" : tensor<8xf32> -> !hal.buffer_view
  util.return %4 : !hal.buffer_view
}

// -----// IR Dump After RaiseSpecialOpsPass (iree-global-opt-raise-special-ops) //----- //
util.func public @reduce(%arg0: !hal.buffer_view) -> !hal.buffer_view attributes {iree.abi.stub, iree.reflection = {iree.abi.declaration = "sync func @reduce(%input0: tensor<8x64xf32>) -> (%output0: tensor<8xf32>)"}} {
  %cst = arith.constant -0.000000e+00 : f32
  %0 = hal.tensor.import %arg0 "input0" : !hal.buffer_view -> tensor<8x64xf32>
  %1 = tensor.empty() : tensor<8xf32>
  %2 = linalg.fill ins(%cst : f32) outs(%1 : tensor<8xf32>) -> tensor<8xf32>
  %3 = linalg.generic {indexing_maps = [affine_map<(d0, d1) -> (d0, d1)>, affine_map<(d0, d1) -> (d0)>], iterator_types = ["parallel", "reduction"]} ins(%0 : tensor<8x64xf32>) outs(%2 : tensor<8xf32>) {
  ^bb0(%in: f32, %out: f32):
    %5 = arith.addf %in, %out : f32
    linalg.yield %5 : f32
  } -> tensor<8xf32>
  %4 = hal.tensor.export %3 "output0" : tensor<8xf32> -> !hal.buffer_view
  util.return %4 : !hal.buffer_view
}

// -----// IR Dump After DecomposeConcatPass (iree-global-opt-decompose-concat) //----- //
util.func public @reduce(%arg0: !hal.buffer_view) -> !hal.buffer_view attributes {iree.abi.stub, iree.reflection = {iree.abi.declaration = "sync func @reduce(%input0: tensor<8x64xf32>) -> (%output0: tensor<8xf32>)"}} {
  %cst = arith.constant -0.000000e+00 : f32
  %0 = hal.tensor.import %arg0 "input0" : !hal.buffer_view -> tensor<8x64xf32>
  %1 = tensor.empty() : tensor<8xf32>
  %2 = linalg.fill ins(%cst : f32) outs(%1 : tensor<8xf32>) -> tensor<8xf32>
  %3 = linalg.generic {indexing_maps = [affine_map<(d0, d1) -> (d0, d1)>, affine_map<(d0, d1) -> (d0)>], iterator_types = ["parallel", "reduction"]} ins(%0 : tensor<8x64xf32>) outs(%2 : tensor<8xf32>) {
  ^bb0(%in: f32, %out: f32):
    %5 = arith.addf %in, %out : f32
    linalg.yield %5 : f32
  } -> tensor<8xf32>
  %4 = hal.tensor.export %3 "output0" : tensor<8xf32> -> !hal.buffer_view
  util.return %4 : !hal.buffer_view
}

// -----// IR Dump After GeneralizeLinalgNamedOpsPass (iree-global-opt-generalize-linalg-named-ops) //----- //
util.func public @reduce(%arg0: !hal.buffer_view) -> !hal.buffer_view attributes {iree.abi.stub, iree.reflection = {iree.abi.declaration = "sync func @reduce(%input0: tensor<8x64xf32>) -> (%output0: tensor<8xf32>)"}} {
  %cst = arith.constant -0.000000e+00 : f32
  %0 = hal.tensor.import %arg0 "input0" : !hal.buffer_view -> tensor<8x64xf32>
  %1 = tensor.empty() : tensor<8xf32>
  %2 = linalg.fill ins(%cst : f32) outs(%1 : tensor<8xf32>) -> tensor<8xf32>
  %3 = linalg.generic {indexing_maps = [affine_map<(d0, d1) -> (d0, d1)>, affine_map<(d0, d1) -> (d0)>], iterator_types = ["parallel", "reduction"]} ins(%0 : tensor<8x64xf32>) outs(%2 : tensor<8xf32>) {
  ^bb0(%in: f32, %out: f32):
    %5 = arith.addf %in, %out : f32
    linalg.yield %5 : f32
  } -> tensor<8xf32>
  %4 = hal.tensor.export %3 "output0" : tensor<8xf32> -> !hal.buffer_view
  util.return %4 : !hal.buffer_view
}

// -----// IR Dump After InsertTensorBarriersPass (iree-dispatch-creation-insert-tensor-barriers) //----- //
util.func public @reduce(%arg0: !hal.buffer_view) -> !hal.buffer_view attributes {iree.abi.stub, iree.reflection = {iree.abi.declaration = "sync func @reduce(%input0: tensor<8x64xf32>) -> (%output0: tensor<8xf32>)"}} {
  %cst = arith.constant -0.000000e+00 : f32
  %0 = hal.tensor.import %arg0 "input0" : !hal.buffer_view -> tensor<8x64xf32>
  %1 = iree_tensor_ext.compute_barrier.start %0 : tensor<8x64xf32> -> tensor<8x64xf32>
  %2 = tensor.empty() : tensor<8xf32>
  %3 = linalg.fill ins(%cst : f32) outs(%2 : tensor<8xf32>) -> tensor<8xf32>
  %4 = linalg.generic {indexing_maps = [affine_map<(d0, d1) -> (d0, d1)>, affine_map<(d0, d1) -> (d0)>], iterator_types = ["parallel", "reduction"]} ins(%1 : tensor<8x64xf32>) outs(%3 : tensor<8xf32>) {
  ^bb0(%in: f32, %out: f32):
    %7 = arith.addf %in, %out : f32
    linalg.yield %7 : f32
  } -> tensor<8xf32>
  %5 = iree_tensor_ext.compute_barrier.end %4 : tensor<8xf32> -> tensor<8xf32>
  %6 = hal.tensor.export %5 "output0" : tensor<8xf32> -> !hal.buffer_view
  util.return %6 : !hal.buffer_view
}

// -----// IR Dump After FoldUnitExtentDimsPass (iree-dispatch-creation-fold-unit-extent-dims) //----- //
#executable_target_rocm_hsaco_fb = #hal.executable.target<"rocm", "rocm-hsaco-fb", {abi = "hip", iree.encoding.resolver = #iree_gpu.gpu_encoding_resolver<>, iree_codegen.default_tuning_spec = #rocm.builtin.tuning_module<"iree_default_tuning_spec_gfx942.mlir">, iree_codegen.target_info = #iree_gpu.target<arch = "gfx942", features = "", wgp = <compute =  fp64|fp32|fp16|int64|int32|int16|int8, storage =  b64|b32|b16|b8, subgroup =  shuffle|arithmetic, dot =  dp4xi8toi32, mma = [<MFMA_F32_16x16x16_BF16>, <MFMA_F32_32x32x8_BF16>, <MFMA_F32_16x16x32_F8E5M2FNUZ>, <MFMA_F32_16x16x32_F8E5M2FNUZ_F8E4M3FNUZ>, <MFMA_F32_16x16x32_F8E4M3FNUZ>, <MFMA_F32_16x16x32_F8E4M3FNUZ_F8E5M2FNUZ>, <MFMA_F32_32x32x16_F8E5M2FNUZ>, <MFMA_F32_32x32x16_F8E5M2FNUZ_F8E4M3FNUZ>, <MFMA_F32_32x32x16_F8E4M3FNUZ>, <MFMA_F32_32x32x16_F8E4M3FNUZ_F8E5M2FNUZ>, <MFMA_I32_16x16x32_I8>, <MFMA_I32_32x32x16_I8>, <MFMA_F64_16x16x4_F64>, <MFMA_F32_16x16x4_F32>, <MFMA_F32_16x16x16_F16>, <MFMA_F32_32x32x8_F16>], subgroup_size_choices = [64], max_workgroup_sizes = [1024, 1024, 1024], max_thread_count_per_workgroup = 1024, max_workgroup_memory_bytes = 65536, max_workgroup_counts = [2147483647, 2147483647, 2147483647], max_load_instruction_bits = 128, simds_per_wgp = 4, vgpr_space_bits = 16384, dma_sizes = [32]>>, ukernels = "none"}>
#map = affine_map<(d0, d1) -> (d0, d1)>
#map1 = affine_map<(d0, d1) -> (d0)>
#device_target_hip = #hal.device.target<"hip", [#executable_target_rocm_hsaco_fb]> : !hal.device
module attributes {stream.affinity.default = #hal.device.affinity<@__device_0>} {
  util.global private @__device_0 = #device_target_hip
  util.func public @reduce(%arg0: !hal.buffer_view) -> !hal.buffer_view attributes {iree.abi.stub, iree.reflection = {iree.abi.declaration = "sync func @reduce(%input0: tensor<8x64xf32>) -> (%output0: tensor<8xf32>)"}} {
    %cst = arith.constant -0.000000e+00 : f32
    %0 = hal.tensor.import %arg0 "input0" : !hal.buffer_view -> tensor<8x64xf32>
    %1 = iree_tensor_ext.compute_barrier.start %0 : tensor<8x64xf32> -> tensor<8x64xf32>
    %2 = tensor.empty() : tensor<8xf32>
    %3 = linalg.fill ins(%cst : f32) outs(%2 : tensor<8xf32>) -> tensor<8xf32>
    %4 = linalg.generic {indexing_maps = [#map, #map1], iterator_types = ["parallel", "reduction"]} ins(%1 : tensor<8x64xf32>) outs(%3 : tensor<8xf32>) {
    ^bb0(%in: f32, %out: f32):
      %7 = arith.addf %in, %out : f32
      linalg.yield %7 : f32
    } -> tensor<8xf32>
    %5 = iree_tensor_ext.compute_barrier.end %4 : tensor<8xf32> -> tensor<8xf32>
    %6 = hal.tensor.export %5 "output0" : tensor<8xf32> -> !hal.buffer_view
    util.return %6 : !hal.buffer_view
  }
}


// -----// IR Dump After DemoteContractionInputsToBF16Pass (iree-global-opt-demote-contraction-inputs-to-bf16) //----- //
util.func public @reduce(%arg0: !hal.buffer_view) -> !hal.buffer_view attributes {iree.abi.stub, iree.reflection = {iree.abi.declaration = "sync func @reduce(%input0: tensor<8x64xf32>) -> (%output0: tensor<8xf32>)"}} {
  %cst = arith.constant -0.000000e+00 : f32
  %0 = hal.tensor.import %arg0 "input0" : !hal.buffer_view -> tensor<8x64xf32>
  %1 = iree_tensor_ext.compute_barrier.start %0 : tensor<8x64xf32> -> tensor<8x64xf32>
  %2 = tensor.empty() : tensor<8xf32>
  %3 = linalg.fill ins(%cst : f32) outs(%2 : tensor<8xf32>) -> tensor<8xf32>
  %4 = linalg.generic {indexing_maps = [affine_map<(d0, d1) -> (d0, d1)>, affine_map<(d0, d1) -> (d0)>], iterator_types = ["parallel", "reduction"]} ins(%1 : tensor<8x64xf32>) outs(%3 : tensor<8xf32>) {
  ^bb0(%in: f32, %out: f32):
    %7 = arith.addf %in, %out : f32
    linalg.yield %7 : f32
  } -> tensor<8xf32>
  %5 = iree_tensor_ext.compute_barrier.end %4 : tensor<8xf32> -> tensor<8xf32>
  %6 = hal.tensor.export %5 "output0" : tensor<8xf32> -> !hal.buffer_view
  util.return %6 : !hal.buffer_view
}

// -----// IR Dump After CanonicalizePass (iree-flow-canonicalize) //----- //
util.func public @reduce(%arg0: !hal.buffer_view) -> !hal.buffer_view attributes {iree.abi.stub, iree.reflection = {iree.abi.declaration = "sync func @reduce(%input0: tensor<8x64xf32>) -> (%output0: tensor<8xf32>)"}} {
  %cst = arith.constant -0.000000e+00 : f32
  %0 = hal.tensor.import %arg0 "input0" : !hal.buffer_view -> tensor<8x64xf32>
  %1 = iree_tensor_ext.compute_barrier.start %0 : tensor<8x64xf32> -> tensor<8x64xf32>
  %2 = tensor.empty() : tensor<8xf32>
  %3 = linalg.fill ins(%cst : f32) outs(%2 : tensor<8xf32>) -> tensor<8xf32>
  %4 = linalg.generic {indexing_maps = [affine_map<(d0, d1) -> (d0, d1)>, affine_map<(d0, d1) -> (d0)>], iterator_types = ["parallel", "reduction"]} ins(%1 : tensor<8x64xf32>) outs(%3 : tensor<8xf32>) {
  ^bb0(%in: f32, %out: f32):
    %7 = arith.addf %in, %out : f32
    linalg.yield %7 : f32
  } -> tensor<8xf32>
  %5 = iree_tensor_ext.compute_barrier.end %4 : tensor<8xf32> -> tensor<8xf32>
  %6 = hal.tensor.export %5 "output0" : tensor<8xf32> -> !hal.buffer_view
  util.return %6 : !hal.buffer_view
}

// -----// IR Dump After CSE (cse) //----- //
util.func public @reduce(%arg0: !hal.buffer_view) -> !hal.buffer_view attributes {iree.abi.stub, iree.reflection = {iree.abi.declaration = "sync func @reduce(%input0: tensor<8x64xf32>) -> (%output0: tensor<8xf32>)"}} {
  %cst = arith.constant -0.000000e+00 : f32
  %0 = hal.tensor.import %arg0 "input0" : !hal.buffer_view -> tensor<8x64xf32>
  %1 = iree_tensor_ext.compute_barrier.start %0 : tensor<8x64xf32> -> tensor<8x64xf32>
  %2 = tensor.empty() : tensor<8xf32>
  %3 = linalg.fill ins(%cst : f32) outs(%2 : tensor<8xf32>) -> tensor<8xf32>
  %4 = linalg.generic {indexing_maps = [affine_map<(d0, d1) -> (d0, d1)>, affine_map<(d0, d1) -> (d0)>], iterator_types = ["parallel", "reduction"]} ins(%1 : tensor<8x64xf32>) outs(%3 : tensor<8xf32>) {
  ^bb0(%in: f32, %out: f32):
    %7 = arith.addf %in, %out : f32
    linalg.yield %7 : f32
  } -> tensor<8xf32>
  %5 = iree_tensor_ext.compute_barrier.end %4 : tensor<8xf32> -> tensor<8xf32>
  %6 = hal.tensor.export %5 "output0" : tensor<8xf32> -> !hal.buffer_view
  util.return %6 : !hal.buffer_view
}

// -----// IR Dump After PropagateLinalgTransposePass (iree-global-opt-propagate-linalg-transpose) //----- //
util.func public @reduce(%arg0: !hal.buffer_view) -> !hal.buffer_view attributes {iree.abi.stub, iree.reflection = {iree.abi.declaration = "sync func @reduce(%input0: tensor<8x64xf32>) -> (%output0: tensor<8xf32>)"}} {
  %cst = arith.constant -0.000000e+00 : f32
  %0 = hal.tensor.import %arg0 "input0" : !hal.buffer_view -> tensor<8x64xf32>
  %1 = iree_tensor_ext.compute_barrier.start %0 : tensor<8x64xf32> -> tensor<8x64xf32>
  %2 = tensor.empty() : tensor<8xf32>
  %3 = linalg.fill ins(%cst : f32) outs(%2 : tensor<8xf32>) -> tensor<8xf32>
  %4 = linalg.generic {indexing_maps = [affine_map<(d0, d1) -> (d0, d1)>, affine_map<(d0, d1) -> (d0)>], iterator_types = ["parallel", "reduction"]} ins(%1 : tensor<8x64xf32>) outs(%3 : tensor<8xf32>) {
  ^bb0(%in: f32, %out: f32):
    %7 = arith.addf %in, %out : f32
    linalg.yield %7 : f32
  } -> tensor<8xf32>
  %5 = iree_tensor_ext.compute_barrier.end %4 : tensor<8xf32> -> tensor<8xf32>
  %6 = hal.tensor.export %5 "output0" : tensor<8xf32> -> !hal.buffer_view
  util.return %6 : !hal.buffer_view
}

// -----// IR Dump After CanonicalizePass (iree-flow-canonicalize) //----- //
util.func public @reduce(%arg0: !hal.buffer_view) -> !hal.buffer_view attributes {iree.abi.stub, iree.reflection = {iree.abi.declaration = "sync func @reduce(%input0: tensor<8x64xf32>) -> (%output0: tensor<8xf32>)"}} {
  %cst = arith.constant -0.000000e+00 : f32
  %0 = hal.tensor.import %arg0 "input0" : !hal.buffer_view -> tensor<8x64xf32>
  %1 = iree_tensor_ext.compute_barrier.start %0 : tensor<8x64xf32> -> tensor<8x64xf32>
  %2 = tensor.empty() : tensor<8xf32>
  %3 = linalg.fill ins(%cst : f32) outs(%2 : tensor<8xf32>) -> tensor<8xf32>
  %4 = linalg.generic {indexing_maps = [affine_map<(d0, d1) -> (d0, d1)>, affine_map<(d0, d1) -> (d0)>], iterator_types = ["parallel", "reduction"]} ins(%1 : tensor<8x64xf32>) outs(%3 : tensor<8xf32>) {
  ^bb0(%in: f32, %out: f32):
    %7 = arith.addf %in, %out : f32
    linalg.yield %7 : f32
  } -> tensor<8xf32>
  %5 = iree_tensor_ext.compute_barrier.end %4 : tensor<8xf32> -> tensor<8xf32>
  %6 = hal.tensor.export %5 "output0" : tensor<8xf32> -> !hal.buffer_view
  util.return %6 : !hal.buffer_view
}

// -----// IR Dump After CSE (cse) //----- //
util.func public @reduce(%arg0: !hal.buffer_view) -> !hal.buffer_view attributes {iree.abi.stub, iree.reflection = {iree.abi.declaration = "sync func @reduce(%input0: tensor<8x64xf32>) -> (%output0: tensor<8xf32>)"}} {
  %cst = arith.constant -0.000000e+00 : f32
  %0 = hal.tensor.import %arg0 "input0" : !hal.buffer_view -> tensor<8x64xf32>
  %1 = iree_tensor_ext.compute_barrier.start %0 : tensor<8x64xf32> -> tensor<8x64xf32>
  %2 = tensor.empty() : tensor<8xf32>
  %3 = linalg.fill ins(%cst : f32) outs(%2 : tensor<8xf32>) -> tensor<8xf32>
  %4 = linalg.generic {indexing_maps = [affine_map<(d0, d1) -> (d0, d1)>, affine_map<(d0, d1) -> (d0)>], iterator_types = ["parallel", "reduction"]} ins(%1 : tensor<8x64xf32>) outs(%3 : tensor<8xf32>) {
  ^bb0(%in: f32, %out: f32):
    %7 = arith.addf %in, %out : f32
    linalg.yield %7 : f32
  } -> tensor<8xf32>
  %5 = iree_tensor_ext.compute_barrier.end %4 : tensor<8xf32> -> tensor<8xf32>
  %6 = hal.tensor.export %5 "output0" : tensor<8xf32> -> !hal.buffer_view
  util.return %6 : !hal.buffer_view
}

// -----// IR Dump After ConvertStridedContractionToContractionPass (iree-global-opt-convert-strided-contraction-to-contraction) //----- //
#executable_target_rocm_hsaco_fb = #hal.executable.target<"rocm", "rocm-hsaco-fb", {abi = "hip", iree.encoding.resolver = #iree_gpu.gpu_encoding_resolver<>, iree_codegen.default_tuning_spec = #rocm.builtin.tuning_module<"iree_default_tuning_spec_gfx942.mlir">, iree_codegen.target_info = #iree_gpu.target<arch = "gfx942", features = "", wgp = <compute =  fp64|fp32|fp16|int64|int32|int16|int8, storage =  b64|b32|b16|b8, subgroup =  shuffle|arithmetic, dot =  dp4xi8toi32, mma = [<MFMA_F32_16x16x16_BF16>, <MFMA_F32_32x32x8_BF16>, <MFMA_F32_16x16x32_F8E5M2FNUZ>, <MFMA_F32_16x16x32_F8E5M2FNUZ_F8E4M3FNUZ>, <MFMA_F32_16x16x32_F8E4M3FNUZ>, <MFMA_F32_16x16x32_F8E4M3FNUZ_F8E5M2FNUZ>, <MFMA_F32_32x32x16_F8E5M2FNUZ>, <MFMA_F32_32x32x16_F8E5M2FNUZ_F8E4M3FNUZ>, <MFMA_F32_32x32x16_F8E4M3FNUZ>, <MFMA_F32_32x32x16_F8E4M3FNUZ_F8E5M2FNUZ>, <MFMA_I32_16x16x32_I8>, <MFMA_I32_32x32x16_I8>, <MFMA_F64_16x16x4_F64>, <MFMA_F32_16x16x4_F32>, <MFMA_F32_16x16x16_F16>, <MFMA_F32_32x32x8_F16>], subgroup_size_choices = [64], max_workgroup_sizes = [1024, 1024, 1024], max_thread_count_per_workgroup = 1024, max_workgroup_memory_bytes = 65536, max_workgroup_counts = [2147483647, 2147483647, 2147483647], max_load_instruction_bits = 128, simds_per_wgp = 4, vgpr_space_bits = 16384, dma_sizes = [32]>>, ukernels = "none"}>
#map = affine_map<(d0, d1) -> (d0, d1)>
#map1 = affine_map<(d0, d1) -> (d0)>
#device_target_hip = #hal.device.target<"hip", [#executable_target_rocm_hsaco_fb]> : !hal.device
module attributes {stream.affinity.default = #hal.device.affinity<@__device_0>} {
  util.global private @__device_0 = #device_target_hip
  util.func public @reduce(%arg0: !hal.buffer_view) -> !hal.buffer_view attributes {iree.abi.stub, iree.reflection = {iree.abi.declaration = "sync func @reduce(%input0: tensor<8x64xf32>) -> (%output0: tensor<8xf32>)"}} {
    %cst = arith.constant -0.000000e+00 : f32
    %0 = hal.tensor.import %arg0 "input0" : !hal.buffer_view -> tensor<8x64xf32>
    %1 = iree_tensor_ext.compute_barrier.start %0 : tensor<8x64xf32> -> tensor<8x64xf32>
    %2 = tensor.empty() : tensor<8xf32>
    %3 = linalg.fill ins(%cst : f32) outs(%2 : tensor<8xf32>) -> tensor<8xf32>
    %4 = linalg.generic {indexing_maps = [#map, #map1], iterator_types = ["parallel", "reduction"]} ins(%1 : tensor<8x64xf32>) outs(%3 : tensor<8xf32>) {
    ^bb0(%in: f32, %out: f32):
      %7 = arith.addf %in, %out : f32
      linalg.yield %7 : f32
    } -> tensor<8xf32>
    %5 = iree_tensor_ext.compute_barrier.end %4 : tensor<8xf32> -> tensor<8xf32>
    %6 = hal.tensor.export %5 "output0" : tensor<8xf32> -> !hal.buffer_view
    util.return %6 : !hal.buffer_view
  }
}


// -----// IR Dump After GeneralizeLinalgNamedOpsPass (iree-global-opt-generalize-linalg-named-ops) //----- //
util.func public @reduce(%arg0: !hal.buffer_view) -> !hal.buffer_view attributes {iree.abi.stub, iree.reflection = {iree.abi.declaration = "sync func @reduce(%input0: tensor<8x64xf32>) -> (%output0: tensor<8xf32>)"}} {
  %cst = arith.constant -0.000000e+00 : f32
  %0 = hal.tensor.import %arg0 "input0" : !hal.buffer_view -> tensor<8x64xf32>
  %1 = iree_tensor_ext.compute_barrier.start %0 : tensor<8x64xf32> -> tensor<8x64xf32>
  %2 = tensor.empty() : tensor<8xf32>
  %3 = linalg.fill ins(%cst : f32) outs(%2 : tensor<8xf32>) -> tensor<8xf32>
  %4 = linalg.generic {indexing_maps = [affine_map<(d0, d1) -> (d0, d1)>, affine_map<(d0, d1) -> (d0)>], iterator_types = ["parallel", "reduction"]} ins(%1 : tensor<8x64xf32>) outs(%3 : tensor<8xf32>) {
  ^bb0(%in: f32, %out: f32):
    %7 = arith.addf %in, %out : f32
    linalg.yield %7 : f32
  } -> tensor<8xf32>
  %5 = iree_tensor_ext.compute_barrier.end %4 : tensor<8xf32> -> tensor<8xf32>
  %6 = hal.tensor.export %5 "output0" : tensor<8xf32> -> !hal.buffer_view
  util.return %6 : !hal.buffer_view
}

// -----// IR Dump After GlobalLoopInvariantCodeMotionPass (iree-global-opt-loop-invariant-code-motion) //----- //
util.func public @reduce(%arg0: !hal.buffer_view) -> !hal.buffer_view attributes {iree.abi.stub, iree.reflection = {iree.abi.declaration = "sync func @reduce(%input0: tensor<8x64xf32>) -> (%output0: tensor<8xf32>)"}} {
  %cst = arith.constant -0.000000e+00 : f32
  %0 = hal.tensor.import %arg0 "input0" : !hal.buffer_view -> tensor<8x64xf32>
  %1 = iree_tensor_ext.compute_barrier.start %0 : tensor<8x64xf32> -> tensor<8x64xf32>
  %2 = tensor.empty() : tensor<8xf32>
  %3 = linalg.fill ins(%cst : f32) outs(%2 : tensor<8xf32>) -> tensor<8xf32>
  %4 = linalg.generic {indexing_maps = [affine_map<(d0, d1) -> (d0, d1)>, affine_map<(d0, d1) -> (d0)>], iterator_types = ["parallel", "reduction"]} ins(%1 : tensor<8x64xf32>) outs(%3 : tensor<8xf32>) {
  ^bb0(%in: f32, %out: f32):
    %7 = arith.addf %in, %out : f32
    linalg.yield %7 : f32
  } -> tensor<8xf32>
  %5 = iree_tensor_ext.compute_barrier.end %4 : tensor<8xf32> -> tensor<8xf32>
  %6 = hal.tensor.export %5 "output0" : tensor<8xf32> -> !hal.buffer_view
  util.return %6 : !hal.buffer_view
}

// -----// IR Dump After CanonicalizePass (iree-flow-canonicalize) //----- //
util.func public @reduce(%arg0: !hal.buffer_view) -> !hal.buffer_view attributes {iree.abi.stub, iree.reflection = {iree.abi.declaration = "sync func @reduce(%input0: tensor<8x64xf32>) -> (%output0: tensor<8xf32>)"}} {
  %cst = arith.constant -0.000000e+00 : f32
  %0 = hal.tensor.import %arg0 "input0" : !hal.buffer_view -> tensor<8x64xf32>
  %1 = iree_tensor_ext.compute_barrier.start %0 : tensor<8x64xf32> -> tensor<8x64xf32>
  %2 = tensor.empty() : tensor<8xf32>
  %3 = linalg.fill ins(%cst : f32) outs(%2 : tensor<8xf32>) -> tensor<8xf32>
  %4 = linalg.generic {indexing_maps = [affine_map<(d0, d1) -> (d0, d1)>, affine_map<(d0, d1) -> (d0)>], iterator_types = ["parallel", "reduction"]} ins(%1 : tensor<8x64xf32>) outs(%3 : tensor<8xf32>) {
  ^bb0(%in: f32, %out: f32):
    %7 = arith.addf %in, %out : f32
    linalg.yield %7 : f32
  } -> tensor<8xf32>
  %5 = iree_tensor_ext.compute_barrier.end %4 : tensor<8xf32> -> tensor<8xf32>
  %6 = hal.tensor.export %5 "output0" : tensor<8xf32> -> !hal.buffer_view
  util.return %6 : !hal.buffer_view
}

// -----// IR Dump After CSE (cse) //----- //
util.func public @reduce(%arg0: !hal.buffer_view) -> !hal.buffer_view attributes {iree.abi.stub, iree.reflection = {iree.abi.declaration = "sync func @reduce(%input0: tensor<8x64xf32>) -> (%output0: tensor<8xf32>)"}} {
  %cst = arith.constant -0.000000e+00 : f32
  %0 = hal.tensor.import %arg0 "input0" : !hal.buffer_view -> tensor<8x64xf32>
  %1 = iree_tensor_ext.compute_barrier.start %0 : tensor<8x64xf32> -> tensor<8x64xf32>
  %2 = tensor.empty() : tensor<8xf32>
  %3 = linalg.fill ins(%cst : f32) outs(%2 : tensor<8xf32>) -> tensor<8xf32>
  %4 = linalg.generic {indexing_maps = [affine_map<(d0, d1) -> (d0, d1)>, affine_map<(d0, d1) -> (d0)>], iterator_types = ["parallel", "reduction"]} ins(%1 : tensor<8x64xf32>) outs(%3 : tensor<8xf32>) {
  ^bb0(%in: f32, %out: f32):
    %7 = arith.addf %in, %out : f32
    linalg.yield %7 : f32
  } -> tensor<8xf32>
  %5 = iree_tensor_ext.compute_barrier.end %4 : tensor<8xf32> -> tensor<8xf32>
  %6 = hal.tensor.export %5 "output0" : tensor<8xf32> -> !hal.buffer_view
  util.return %6 : !hal.buffer_view
}

// -----// IR Dump After SimplifyGlobalAccessesPass (iree-util-simplify-global-accesses) //----- //
util.func public @reduce(%arg0: !hal.buffer_view) -> !hal.buffer_view attributes {iree.abi.stub, iree.reflection = {iree.abi.declaration = "sync func @reduce(%input0: tensor<8x64xf32>) -> (%output0: tensor<8xf32>)"}} {
  %cst = arith.constant -0.000000e+00 : f32
  %0 = hal.tensor.import %arg0 "input0" : !hal.buffer_view -> tensor<8x64xf32>
  %1 = iree_tensor_ext.compute_barrier.start %0 : tensor<8x64xf32> -> tensor<8x64xf32>
  %2 = tensor.empty() : tensor<8xf32>
  %3 = linalg.fill ins(%cst : f32) outs(%2 : tensor<8xf32>) -> tensor<8xf32>
  %4 = linalg.generic {indexing_maps = [affine_map<(d0, d1) -> (d0, d1)>, affine_map<(d0, d1) -> (d0)>], iterator_types = ["parallel", "reduction"]} ins(%1 : tensor<8x64xf32>) outs(%3 : tensor<8xf32>) {
  ^bb0(%in: f32, %out: f32):
    %7 = arith.addf %in, %out : f32
    linalg.yield %7 : f32
  } -> tensor<8xf32>
  %5 = iree_tensor_ext.compute_barrier.end %4 : tensor<8xf32> -> tensor<8xf32>
  %6 = hal.tensor.export %5 "output0" : tensor<8xf32> -> !hal.buffer_view
  util.return %6 : !hal.buffer_view
}

// -----// IR Dump After ApplyPatternsPass (iree-util-apply-patterns) //----- //
util.func public @reduce(%arg0: !hal.buffer_view) -> !hal.buffer_view attributes {iree.abi.stub, iree.reflection = {iree.abi.declaration = "sync func @reduce(%input0: tensor<8x64xf32>) -> (%output0: tensor<8xf32>)"}} {
  %cst = arith.constant -0.000000e+00 : f32
  %0 = hal.tensor.import %arg0 "input0" : !hal.buffer_view -> tensor<8x64xf32>
  %1 = iree_tensor_ext.compute_barrier.start %0 : tensor<8x64xf32> -> tensor<8x64xf32>
  %2 = tensor.empty() : tensor<8xf32>
  %3 = linalg.fill ins(%cst : f32) outs(%2 : tensor<8xf32>) -> tensor<8xf32>
  %4 = linalg.generic {indexing_maps = [affine_map<(d0, d1) -> (d0, d1)>, affine_map<(d0, d1) -> (d0)>], iterator_types = ["parallel", "reduction"]} ins(%1 : tensor<8x64xf32>) outs(%3 : tensor<8xf32>) {
  ^bb0(%in: f32, %out: f32):
    %7 = arith.addf %in, %out : f32
    linalg.yield %7 : f32
  } -> tensor<8xf32>
  %5 = iree_tensor_ext.compute_barrier.end %4 : tensor<8xf32> -> tensor<8xf32>
  %6 = hal.tensor.export %5 "output0" : tensor<8xf32> -> !hal.buffer_view
  util.return %6 : !hal.buffer_view
}

// -----// IR Dump After FoldGlobalsPass (iree-util-fold-globals) //----- //
#executable_target_rocm_hsaco_fb = #hal.executable.target<"rocm", "rocm-hsaco-fb", {abi = "hip", iree.encoding.resolver = #iree_gpu.gpu_encoding_resolver<>, iree_codegen.default_tuning_spec = #rocm.builtin.tuning_module<"iree_default_tuning_spec_gfx942.mlir">, iree_codegen.target_info = #iree_gpu.target<arch = "gfx942", features = "", wgp = <compute =  fp64|fp32|fp16|int64|int32|int16|int8, storage =  b64|b32|b16|b8, subgroup =  shuffle|arithmetic, dot =  dp4xi8toi32, mma = [<MFMA_F32_16x16x16_BF16>, <MFMA_F32_32x32x8_BF16>, <MFMA_F32_16x16x32_F8E5M2FNUZ>, <MFMA_F32_16x16x32_F8E5M2FNUZ_F8E4M3FNUZ>, <MFMA_F32_16x16x32_F8E4M3FNUZ>, <MFMA_F32_16x16x32_F8E4M3FNUZ_F8E5M2FNUZ>, <MFMA_F32_32x32x16_F8E5M2FNUZ>, <MFMA_F32_32x32x16_F8E5M2FNUZ_F8E4M3FNUZ>, <MFMA_F32_32x32x16_F8E4M3FNUZ>, <MFMA_F32_32x32x16_F8E4M3FNUZ_F8E5M2FNUZ>, <MFMA_I32_16x16x32_I8>, <MFMA_I32_32x32x16_I8>, <MFMA_F64_16x16x4_F64>, <MFMA_F32_16x16x4_F32>, <MFMA_F32_16x16x16_F16>, <MFMA_F32_32x32x8_F16>], subgroup_size_choices = [64], max_workgroup_sizes = [1024, 1024, 1024], max_thread_count_per_workgroup = 1024, max_workgroup_memory_bytes = 65536, max_workgroup_counts = [2147483647, 2147483647, 2147483647], max_load_instruction_bits = 128, simds_per_wgp = 4, vgpr_space_bits = 16384, dma_sizes = [32]>>, ukernels = "none"}>
#map = affine_map<(d0, d1) -> (d0, d1)>
#map1 = affine_map<(d0, d1) -> (d0)>
#device_target_hip = #hal.device.target<"hip", [#executable_target_rocm_hsaco_fb]> : !hal.device
module attributes {stream.affinity.default = #hal.device.affinity<@__device_0>} {
  util.global private @__device_0 = #device_target_hip
  util.func public @reduce(%arg0: !hal.buffer_view) -> !hal.buffer_view attributes {iree.abi.stub, iree.reflection = {iree.abi.declaration = "sync func @reduce(%input0: tensor<8x64xf32>) -> (%output0: tensor<8xf32>)"}} {
    %cst = arith.constant -0.000000e+00 : f32
    %0 = hal.tensor.import %arg0 "input0" : !hal.buffer_view -> tensor<8x64xf32>
    %1 = iree_tensor_ext.compute_barrier.start %0 : tensor<8x64xf32> -> tensor<8x64xf32>
    %2 = tensor.empty() : tensor<8xf32>
    %3 = linalg.fill ins(%cst : f32) outs(%2 : tensor<8xf32>) -> tensor<8xf32>
    %4 = linalg.generic {indexing_maps = [#map, #map1], iterator_types = ["parallel", "reduction"]} ins(%1 : tensor<8x64xf32>) outs(%3 : tensor<8xf32>) {
    ^bb0(%in: f32, %out: f32):
      %7 = arith.addf %in, %out : f32
      linalg.yield %7 : f32
    } -> tensor<8xf32>
    %5 = iree_tensor_ext.compute_barrier.end %4 : tensor<8xf32> -> tensor<8xf32>
    %6 = hal.tensor.export %5 "output0" : tensor<8xf32> -> !hal.buffer_view
    util.return %6 : !hal.buffer_view
  }
}


// -----// IR Dump After IPOPass (iree-util-ipo) //----- //
#executable_target_rocm_hsaco_fb = #hal.executable.target<"rocm", "rocm-hsaco-fb", {abi = "hip", iree.encoding.resolver = #iree_gpu.gpu_encoding_resolver<>, iree_codegen.default_tuning_spec = #rocm.builtin.tuning_module<"iree_default_tuning_spec_gfx942.mlir">, iree_codegen.target_info = #iree_gpu.target<arch = "gfx942", features = "", wgp = <compute =  fp64|fp32|fp16|int64|int32|int16|int8, storage =  b64|b32|b16|b8, subgroup =  shuffle|arithmetic, dot =  dp4xi8toi32, mma = [<MFMA_F32_16x16x16_BF16>, <MFMA_F32_32x32x8_BF16>, <MFMA_F32_16x16x32_F8E5M2FNUZ>, <MFMA_F32_16x16x32_F8E5M2FNUZ_F8E4M3FNUZ>, <MFMA_F32_16x16x32_F8E4M3FNUZ>, <MFMA_F32_16x16x32_F8E4M3FNUZ_F8E5M2FNUZ>, <MFMA_F32_32x32x16_F8E5M2FNUZ>, <MFMA_F32_32x32x16_F8E5M2FNUZ_F8E4M3FNUZ>, <MFMA_F32_32x32x16_F8E4M3FNUZ>, <MFMA_F32_32x32x16_F8E4M3FNUZ_F8E5M2FNUZ>, <MFMA_I32_16x16x32_I8>, <MFMA_I32_32x32x16_I8>, <MFMA_F64_16x16x4_F64>, <MFMA_F32_16x16x4_F32>, <MFMA_F32_16x16x16_F16>, <MFMA_F32_32x32x8_F16>], subgroup_size_choices = [64], max_workgroup_sizes = [1024, 1024, 1024], max_thread_count_per_workgroup = 1024, max_workgroup_memory_bytes = 65536, max_workgroup_counts = [2147483647, 2147483647, 2147483647], max_load_instruction_bits = 128, simds_per_wgp = 4, vgpr_space_bits = 16384, dma_sizes = [32]>>, ukernels = "none"}>
#map = affine_map<(d0, d1) -> (d0, d1)>
#map1 = affine_map<(d0, d1) -> (d0)>
#device_target_hip = #hal.device.target<"hip", [#executable_target_rocm_hsaco_fb]> : !hal.device
module attributes {stream.affinity.default = #hal.device.affinity<@__device_0>} {
  util.global private @__device_0 = #device_target_hip
  util.func public @reduce(%arg0: !hal.buffer_view) -> !hal.buffer_view attributes {iree.abi.stub, iree.reflection = {iree.abi.declaration = "sync func @reduce(%input0: tensor<8x64xf32>) -> (%output0: tensor<8xf32>)"}} {
    %cst = arith.constant -0.000000e+00 : f32
    %0 = hal.tensor.import %arg0 "input0" : !hal.buffer_view -> tensor<8x64xf32>
    %1 = iree_tensor_ext.compute_barrier.start %0 : tensor<8x64xf32> -> tensor<8x64xf32>
    %2 = tensor.empty() : tensor<8xf32>
    %3 = linalg.fill ins(%cst : f32) outs(%2 : tensor<8xf32>) -> tensor<8xf32>
    %4 = linalg.generic {indexing_maps = [#map, #map1], iterator_types = ["parallel", "reduction"]} ins(%1 : tensor<8x64xf32>) outs(%3 : tensor<8xf32>) {
    ^bb0(%in: f32, %out: f32):
      %7 = arith.addf %in, %out : f32
      linalg.yield %7 : f32
    } -> tensor<8xf32>
    %5 = iree_tensor_ext.compute_barrier.end %4 : tensor<8xf32> -> tensor<8xf32>
    %6 = hal.tensor.export %5 "output0" : tensor<8xf32> -> !hal.buffer_view
    util.return %6 : !hal.buffer_view
  }
}


// -----// IR Dump After OptimizeIntArithmeticPass (iree-util-optimize-int-arithmetic) //----- //
util.func public @reduce(%arg0: !hal.buffer_view) -> !hal.buffer_view attributes {iree.abi.stub, iree.reflection = {iree.abi.declaration = "sync func @reduce(%input0: tensor<8x64xf32>) -> (%output0: tensor<8xf32>)"}} {
  %cst = arith.constant -0.000000e+00 : f32
  %0 = hal.tensor.import %arg0 "input0" : !hal.buffer_view -> tensor<8x64xf32>
  %1 = iree_tensor_ext.compute_barrier.start %0 : tensor<8x64xf32> -> tensor<8x64xf32>
  %2 = tensor.empty() : tensor<8xf32>
  %3 = linalg.fill ins(%cst : f32) outs(%2 : tensor<8xf32>) -> tensor<8xf32>
  %4 = linalg.generic {indexing_maps = [affine_map<(d0, d1) -> (d0, d1)>, affine_map<(d0, d1) -> (d0)>], iterator_types = ["parallel", "reduction"]} ins(%1 : tensor<8x64xf32>) outs(%3 : tensor<8xf32>) {
  ^bb0(%in: f32, %out: f32):
    %7 = arith.addf %in, %out : f32
    linalg.yield %7 : f32
  } -> tensor<8xf32>
  %5 = iree_tensor_ext.compute_barrier.end %4 : tensor<8xf32> -> tensor<8xf32>
  %6 = hal.tensor.export %5 "output0" : tensor<8xf32> -> !hal.buffer_view
  util.return %6 : !hal.buffer_view
}

// -----// IR Dump After CanonicalizePass (iree-flow-canonicalize) //----- //
util.func public @reduce(%arg0: !hal.buffer_view) -> !hal.buffer_view attributes {iree.abi.stub, iree.reflection = {iree.abi.declaration = "sync func @reduce(%input0: tensor<8x64xf32>) -> (%output0: tensor<8xf32>)"}} {
  %cst = arith.constant -0.000000e+00 : f32
  %0 = hal.tensor.import %arg0 "input0" : !hal.buffer_view -> tensor<8x64xf32>
  %1 = iree_tensor_ext.compute_barrier.start %0 : tensor<8x64xf32> -> tensor<8x64xf32>
  %2 = tensor.empty() : tensor<8xf32>
  %3 = linalg.fill ins(%cst : f32) outs(%2 : tensor<8xf32>) -> tensor<8xf32>
  %4 = linalg.generic {indexing_maps = [affine_map<(d0, d1) -> (d0, d1)>, affine_map<(d0, d1) -> (d0)>], iterator_types = ["parallel", "reduction"]} ins(%1 : tensor<8x64xf32>) outs(%3 : tensor<8xf32>) {
  ^bb0(%in: f32, %out: f32):
    %7 = arith.addf %in, %out : f32
    linalg.yield %7 : f32
  } -> tensor<8xf32>
  %5 = iree_tensor_ext.compute_barrier.end %4 : tensor<8xf32> -> tensor<8xf32>
  %6 = hal.tensor.export %5 "output0" : tensor<8xf32> -> !hal.buffer_view
  util.return %6 : !hal.buffer_view
}

// -----// IR Dump After CSE (cse) //----- //
util.func public @reduce(%arg0: !hal.buffer_view) -> !hal.buffer_view attributes {iree.abi.stub, iree.reflection = {iree.abi.declaration = "sync func @reduce(%input0: tensor<8x64xf32>) -> (%output0: tensor<8xf32>)"}} {
  %cst = arith.constant -0.000000e+00 : f32
  %0 = hal.tensor.import %arg0 "input0" : !hal.buffer_view -> tensor<8x64xf32>
  %1 = iree_tensor_ext.compute_barrier.start %0 : tensor<8x64xf32> -> tensor<8x64xf32>
  %2 = tensor.empty() : tensor<8xf32>
  %3 = linalg.fill ins(%cst : f32) outs(%2 : tensor<8xf32>) -> tensor<8xf32>
  %4 = linalg.generic {indexing_maps = [affine_map<(d0, d1) -> (d0, d1)>, affine_map<(d0, d1) -> (d0)>], iterator_types = ["parallel", "reduction"]} ins(%1 : tensor<8x64xf32>) outs(%3 : tensor<8xf32>) {
  ^bb0(%in: f32, %out: f32):
    %7 = arith.addf %in, %out : f32
    linalg.yield %7 : f32
  } -> tensor<8xf32>
  %5 = iree_tensor_ext.compute_barrier.end %4 : tensor<8xf32> -> tensor<8xf32>
  %6 = hal.tensor.export %5 "output0" : tensor<8xf32> -> !hal.buffer_view
  util.return %6 : !hal.buffer_view
}

// -----// IR Dump After HoistIntoGlobalsPass (iree-util-hoist-into-globals) //----- //
#executable_target_rocm_hsaco_fb = #hal.executable.target<"rocm", "rocm-hsaco-fb", {abi = "hip", iree.encoding.resolver = #iree_gpu.gpu_encoding_resolver<>, iree_codegen.default_tuning_spec = #rocm.builtin.tuning_module<"iree_default_tuning_spec_gfx942.mlir">, iree_codegen.target_info = #iree_gpu.target<arch = "gfx942", features = "", wgp = <compute =  fp64|fp32|fp16|int64|int32|int16|int8, storage =  b64|b32|b16|b8, subgroup =  shuffle|arithmetic, dot =  dp4xi8toi32, mma = [<MFMA_F32_16x16x16_BF16>, <MFMA_F32_32x32x8_BF16>, <MFMA_F32_16x16x32_F8E5M2FNUZ>, <MFMA_F32_16x16x32_F8E5M2FNUZ_F8E4M3FNUZ>, <MFMA_F32_16x16x32_F8E4M3FNUZ>, <MFMA_F32_16x16x32_F8E4M3FNUZ_F8E5M2FNUZ>, <MFMA_F32_32x32x16_F8E5M2FNUZ>, <MFMA_F32_32x32x16_F8E5M2FNUZ_F8E4M3FNUZ>, <MFMA_F32_32x32x16_F8E4M3FNUZ>, <MFMA_F32_32x32x16_F8E4M3FNUZ_F8E5M2FNUZ>, <MFMA_I32_16x16x32_I8>, <MFMA_I32_32x32x16_I8>, <MFMA_F64_16x16x4_F64>, <MFMA_F32_16x16x4_F32>, <MFMA_F32_16x16x16_F16>, <MFMA_F32_32x32x8_F16>], subgroup_size_choices = [64], max_workgroup_sizes = [1024, 1024, 1024], max_thread_count_per_workgroup = 1024, max_workgroup_memory_bytes = 65536, max_workgroup_counts = [2147483647, 2147483647, 2147483647], max_load_instruction_bits = 128, simds_per_wgp = 4, vgpr_space_bits = 16384, dma_sizes = [32]>>, ukernels = "none"}>
#map = affine_map<(d0, d1) -> (d0, d1)>
#map1 = affine_map<(d0, d1) -> (d0)>
#device_target_hip = #hal.device.target<"hip", [#executable_target_rocm_hsaco_fb]> : !hal.device
module attributes {stream.affinity.default = #hal.device.affinity<@__device_0>} {
  util.global private @__device_0 = #device_target_hip
  util.func public @reduce(%arg0: !hal.buffer_view) -> !hal.buffer_view attributes {iree.abi.stub, iree.reflection = {iree.abi.declaration = "sync func @reduce(%input0: tensor<8x64xf32>) -> (%output0: tensor<8xf32>)"}} {
    %cst = arith.constant -0.000000e+00 : f32
    %0 = hal.tensor.import %arg0 "input0" : !hal.buffer_view -> tensor<8x64xf32>
    %1 = iree_tensor_ext.compute_barrier.start %0 : tensor<8x64xf32> -> tensor<8x64xf32>
    %2 = tensor.empty() : tensor<8xf32>
    %3 = linalg.fill ins(%cst : f32) outs(%2 : tensor<8xf32>) -> tensor<8xf32>
    %4 = linalg.generic {indexing_maps = [#map, #map1], iterator_types = ["parallel", "reduction"]} ins(%1 : tensor<8x64xf32>) outs(%3 : tensor<8xf32>) {
    ^bb0(%in: f32, %out: f32):
      %7 = arith.addf %in, %out : f32
      linalg.yield %7 : f32
    } -> tensor<8xf32>
    %5 = iree_tensor_ext.compute_barrier.end %4 : tensor<8xf32> -> tensor<8xf32>
    %6 = hal.tensor.export %5 "output0" : tensor<8xf32> -> !hal.buffer_view
    util.return %6 : !hal.buffer_view
  }
}


// -----// IR Dump After JitGlobalsPass (iree-consteval-jit-globals) //----- //
#executable_target_rocm_hsaco_fb = #hal.executable.target<"rocm", "rocm-hsaco-fb", {abi = "hip", iree.encoding.resolver = #iree_gpu.gpu_encoding_resolver<>, iree_codegen.default_tuning_spec = #rocm.builtin.tuning_module<"iree_default_tuning_spec_gfx942.mlir">, iree_codegen.target_info = #iree_gpu.target<arch = "gfx942", features = "", wgp = <compute =  fp64|fp32|fp16|int64|int32|int16|int8, storage =  b64|b32|b16|b8, subgroup =  shuffle|arithmetic, dot =  dp4xi8toi32, mma = [<MFMA_F32_16x16x16_BF16>, <MFMA_F32_32x32x8_BF16>, <MFMA_F32_16x16x32_F8E5M2FNUZ>, <MFMA_F32_16x16x32_F8E5M2FNUZ_F8E4M3FNUZ>, <MFMA_F32_16x16x32_F8E4M3FNUZ>, <MFMA_F32_16x16x32_F8E4M3FNUZ_F8E5M2FNUZ>, <MFMA_F32_32x32x16_F8E5M2FNUZ>, <MFMA_F32_32x32x16_F8E5M2FNUZ_F8E4M3FNUZ>, <MFMA_F32_32x32x16_F8E4M3FNUZ>, <MFMA_F32_32x32x16_F8E4M3FNUZ_F8E5M2FNUZ>, <MFMA_I32_16x16x32_I8>, <MFMA_I32_32x32x16_I8>, <MFMA_F64_16x16x4_F64>, <MFMA_F32_16x16x4_F32>, <MFMA_F32_16x16x16_F16>, <MFMA_F32_32x32x8_F16>], subgroup_size_choices = [64], max_workgroup_sizes = [1024, 1024, 1024], max_thread_count_per_workgroup = 1024, max_workgroup_memory_bytes = 65536, max_workgroup_counts = [2147483647, 2147483647, 2147483647], max_load_instruction_bits = 128, simds_per_wgp = 4, vgpr_space_bits = 16384, dma_sizes = [32]>>, ukernels = "none"}>
#map = affine_map<(d0, d1) -> (d0, d1)>
#map1 = affine_map<(d0, d1) -> (d0)>
#device_target_hip = #hal.device.target<"hip", [#executable_target_rocm_hsaco_fb]> : !hal.device
module attributes {stream.affinity.default = #hal.device.affinity<@__device_0>} {
  util.global private @__device_0 = #device_target_hip
  util.func public @reduce(%arg0: !hal.buffer_view) -> !hal.buffer_view attributes {iree.abi.stub, iree.reflection = {iree.abi.declaration = "sync func @reduce(%input0: tensor<8x64xf32>) -> (%output0: tensor<8xf32>)"}} {
    %cst = arith.constant -0.000000e+00 : f32
    %0 = hal.tensor.import %arg0 "input0" : !hal.buffer_view -> tensor<8x64xf32>
    %1 = iree_tensor_ext.compute_barrier.start %0 : tensor<8x64xf32> -> tensor<8x64xf32>
    %2 = tensor.empty() : tensor<8xf32>
    %3 = linalg.fill ins(%cst : f32) outs(%2 : tensor<8xf32>) -> tensor<8xf32>
    %4 = linalg.generic {indexing_maps = [#map, #map1], iterator_types = ["parallel", "reduction"]} ins(%1 : tensor<8x64xf32>) outs(%3 : tensor<8xf32>) {
    ^bb0(%in: f32, %out: f32):
      %7 = arith.addf %in, %out : f32
      linalg.yield %7 : f32
    } -> tensor<8xf32>
    %5 = iree_tensor_ext.compute_barrier.end %4 : tensor<8xf32> -> tensor<8xf32>
    %6 = hal.tensor.export %5 "output0" : tensor<8xf32> -> !hal.buffer_view
    util.return %6 : !hal.buffer_view
  }
}


// -----// IR Dump After CanonicalizePass (iree-flow-canonicalize) //----- //
util.func public @reduce(%arg0: !hal.buffer_view) -> !hal.buffer_view attributes {iree.abi.stub, iree.reflection = {iree.abi.declaration = "sync func @reduce(%input0: tensor<8x64xf32>) -> (%output0: tensor<8xf32>)"}} {
  %cst = arith.constant -0.000000e+00 : f32
  %0 = hal.tensor.import %arg0 "input0" : !hal.buffer_view -> tensor<8x64xf32>
  %1 = iree_tensor_ext.compute_barrier.start %0 : tensor<8x64xf32> -> tensor<8x64xf32>
  %2 = tensor.empty() : tensor<8xf32>
  %3 = linalg.fill ins(%cst : f32) outs(%2 : tensor<8xf32>) -> tensor<8xf32>
  %4 = linalg.generic {indexing_maps = [affine_map<(d0, d1) -> (d0, d1)>, affine_map<(d0, d1) -> (d0)>], iterator_types = ["parallel", "reduction"]} ins(%1 : tensor<8x64xf32>) outs(%3 : tensor<8xf32>) {
  ^bb0(%in: f32, %out: f32):
    %7 = arith.addf %in, %out : f32
    linalg.yield %7 : f32
  } -> tensor<8xf32>
  %5 = iree_tensor_ext.compute_barrier.end %4 : tensor<8xf32> -> tensor<8xf32>
  %6 = hal.tensor.export %5 "output0" : tensor<8xf32> -> !hal.buffer_view
  util.return %6 : !hal.buffer_view
}

// -----// IR Dump After CSE (cse) //----- //
util.func public @reduce(%arg0: !hal.buffer_view) -> !hal.buffer_view attributes {iree.abi.stub, iree.reflection = {iree.abi.declaration = "sync func @reduce(%input0: tensor<8x64xf32>) -> (%output0: tensor<8xf32>)"}} {
  %cst = arith.constant -0.000000e+00 : f32
  %0 = hal.tensor.import %arg0 "input0" : !hal.buffer_view -> tensor<8x64xf32>
  %1 = iree_tensor_ext.compute_barrier.start %0 : tensor<8x64xf32> -> tensor<8x64xf32>
  %2 = tensor.empty() : tensor<8xf32>
  %3 = linalg.fill ins(%cst : f32) outs(%2 : tensor<8xf32>) -> tensor<8xf32>
  %4 = linalg.generic {indexing_maps = [affine_map<(d0, d1) -> (d0, d1)>, affine_map<(d0, d1) -> (d0)>], iterator_types = ["parallel", "reduction"]} ins(%1 : tensor<8x64xf32>) outs(%3 : tensor<8xf32>) {
  ^bb0(%in: f32, %out: f32):
    %7 = arith.addf %in, %out : f32
    linalg.yield %7 : f32
  } -> tensor<8xf32>
  %5 = iree_tensor_ext.compute_barrier.end %4 : tensor<8xf32> -> tensor<8xf32>
  %6 = hal.tensor.export %5 "output0" : tensor<8xf32> -> !hal.buffer_view
  util.return %6 : !hal.buffer_view
}

// -----// IR Dump After RaiseSpecialOpsPass (iree-global-opt-raise-special-ops) //----- //
util.func public @reduce(%arg0: !hal.buffer_view) -> !hal.buffer_view attributes {iree.abi.stub, iree.reflection = {iree.abi.declaration = "sync func @reduce(%input0: tensor<8x64xf32>) -> (%output0: tensor<8xf32>)"}} {
  %cst = arith.constant -0.000000e+00 : f32
  %0 = hal.tensor.import %arg0 "input0" : !hal.buffer_view -> tensor<8x64xf32>
  %1 = iree_tensor_ext.compute_barrier.start %0 : tensor<8x64xf32> -> tensor<8x64xf32>
  %2 = tensor.empty() : tensor<8xf32>
  %3 = linalg.fill ins(%cst : f32) outs(%2 : tensor<8xf32>) -> tensor<8xf32>
  %4 = linalg.generic {indexing_maps = [affine_map<(d0, d1) -> (d0, d1)>, affine_map<(d0, d1) -> (d0)>], iterator_types = ["parallel", "reduction"]} ins(%1 : tensor<8x64xf32>) outs(%3 : tensor<8xf32>) {
  ^bb0(%in: f32, %out: f32):
    %7 = arith.addf %in, %out : f32
    linalg.yield %7 : f32
  } -> tensor<8xf32>
  %5 = iree_tensor_ext.compute_barrier.end %4 : tensor<8xf32> -> tensor<8xf32>
  %6 = hal.tensor.export %5 "output0" : tensor<8xf32> -> !hal.buffer_view
  util.return %6 : !hal.buffer_view
}

// -----// IR Dump After InjectTensorTracingPass (iree-flow-inject-tensor-tracing) //----- //
util.func public @reduce(%arg0: !hal.buffer_view) -> !hal.buffer_view attributes {iree.abi.stub, iree.reflection = {iree.abi.declaration = "sync func @reduce(%input0: tensor<8x64xf32>) -> (%output0: tensor<8xf32>)"}} {
  %cst = arith.constant -0.000000e+00 : f32
  %0 = hal.tensor.import %arg0 "input0" : !hal.buffer_view -> tensor<8x64xf32>
  %1 = iree_tensor_ext.compute_barrier.start %0 : tensor<8x64xf32> -> tensor<8x64xf32>
  %2 = tensor.empty() : tensor<8xf32>
  %3 = linalg.fill ins(%cst : f32) outs(%2 : tensor<8xf32>) -> tensor<8xf32>
  %4 = linalg.generic {indexing_maps = [affine_map<(d0, d1) -> (d0, d1)>, affine_map<(d0, d1) -> (d0)>], iterator_types = ["parallel", "reduction"]} ins(%1 : tensor<8x64xf32>) outs(%3 : tensor<8xf32>) {
  ^bb0(%in: f32, %out: f32):
    %7 = arith.addf %in, %out : f32
    linalg.yield %7 : f32
  } -> tensor<8xf32>
  %5 = iree_tensor_ext.compute_barrier.end %4 : tensor<8xf32> -> tensor<8xf32>
  %6 = hal.tensor.export %5 "output0" : tensor<8xf32> -> !hal.buffer_view
  util.return %6 : !hal.buffer_view
}

// -----// IR Dump After TensorPadToTensorInsertSlicePass (iree-dispatch-creation-tensor-pad-to-tensor-insert-slice) //----- //
#executable_target_rocm_hsaco_fb = #hal.executable.target<"rocm", "rocm-hsaco-fb", {abi = "hip", iree.encoding.resolver = #iree_gpu.gpu_encoding_resolver<>, iree_codegen.default_tuning_spec = #rocm.builtin.tuning_module<"iree_default_tuning_spec_gfx942.mlir">, iree_codegen.target_info = #iree_gpu.target<arch = "gfx942", features = "", wgp = <compute =  fp64|fp32|fp16|int64|int32|int16|int8, storage =  b64|b32|b16|b8, subgroup =  shuffle|arithmetic, dot =  dp4xi8toi32, mma = [<MFMA_F32_16x16x16_BF16>, <MFMA_F32_32x32x8_BF16>, <MFMA_F32_16x16x32_F8E5M2FNUZ>, <MFMA_F32_16x16x32_F8E5M2FNUZ_F8E4M3FNUZ>, <MFMA_F32_16x16x32_F8E4M3FNUZ>, <MFMA_F32_16x16x32_F8E4M3FNUZ_F8E5M2FNUZ>, <MFMA_F32_32x32x16_F8E5M2FNUZ>, <MFMA_F32_32x32x16_F8E5M2FNUZ_F8E4M3FNUZ>, <MFMA_F32_32x32x16_F8E4M3FNUZ>, <MFMA_F32_32x32x16_F8E4M3FNUZ_F8E5M2FNUZ>, <MFMA_I32_16x16x32_I8>, <MFMA_I32_32x32x16_I8>, <MFMA_F64_16x16x4_F64>, <MFMA_F32_16x16x4_F32>, <MFMA_F32_16x16x16_F16>, <MFMA_F32_32x32x8_F16>], subgroup_size_choices = [64], max_workgroup_sizes = [1024, 1024, 1024], max_thread_count_per_workgroup = 1024, max_workgroup_memory_bytes = 65536, max_workgroup_counts = [2147483647, 2147483647, 2147483647], max_load_instruction_bits = 128, simds_per_wgp = 4, vgpr_space_bits = 16384, dma_sizes = [32]>>, ukernels = "none"}>
#map = affine_map<(d0, d1) -> (d0, d1)>
#map1 = affine_map<(d0, d1) -> (d0)>
#device_target_hip = #hal.device.target<"hip", [#executable_target_rocm_hsaco_fb]> : !hal.device
module attributes {stream.affinity.default = #hal.device.affinity<@__device_0>} {
  util.global private @__device_0 = #device_target_hip
  util.func public @reduce(%arg0: !hal.buffer_view) -> !hal.buffer_view attributes {iree.abi.stub, iree.reflection = {iree.abi.declaration = "sync func @reduce(%input0: tensor<8x64xf32>) -> (%output0: tensor<8xf32>)"}} {
    %cst = arith.constant -0.000000e+00 : f32
    %0 = hal.tensor.import %arg0 "input0" : !hal.buffer_view -> tensor<8x64xf32>
    %1 = iree_tensor_ext.compute_barrier.start %0 : tensor<8x64xf32> -> tensor<8x64xf32>
    %2 = tensor.empty() : tensor<8xf32>
    %3 = linalg.fill ins(%cst : f32) outs(%2 : tensor<8xf32>) -> tensor<8xf32>
    %4 = linalg.generic {indexing_maps = [#map, #map1], iterator_types = ["parallel", "reduction"]} ins(%1 : tensor<8x64xf32>) outs(%3 : tensor<8xf32>) {
    ^bb0(%in: f32, %out: f32):
      %7 = arith.addf %in, %out : f32
      linalg.yield %7 : f32
    } -> tensor<8xf32>
    %5 = iree_tensor_ext.compute_barrier.end %4 : tensor<8xf32> -> tensor<8xf32>
    %6 = hal.tensor.export %5 "output0" : tensor<8xf32> -> !hal.buffer_view
    util.return %6 : !hal.buffer_view
  }
}


// -----// IR Dump After CanonicalizePass (iree-flow-canonicalize) //----- //
util.func public @reduce(%arg0: !hal.buffer_view) -> !hal.buffer_view attributes {iree.abi.stub, iree.reflection = {iree.abi.declaration = "sync func @reduce(%input0: tensor<8x64xf32>) -> (%output0: tensor<8xf32>)"}} {
  %cst = arith.constant -0.000000e+00 : f32
  %0 = hal.tensor.import %arg0 "input0" : !hal.buffer_view -> tensor<8x64xf32>
  %1 = iree_tensor_ext.compute_barrier.start %0 : tensor<8x64xf32> -> tensor<8x64xf32>
  %2 = tensor.empty() : tensor<8xf32>
  %3 = linalg.fill ins(%cst : f32) outs(%2 : tensor<8xf32>) -> tensor<8xf32>
  %4 = linalg.generic {indexing_maps = [affine_map<(d0, d1) -> (d0, d1)>, affine_map<(d0, d1) -> (d0)>], iterator_types = ["parallel", "reduction"]} ins(%1 : tensor<8x64xf32>) outs(%3 : tensor<8xf32>) {
  ^bb0(%in: f32, %out: f32):
    %7 = arith.addf %in, %out : f32
    linalg.yield %7 : f32
  } -> tensor<8xf32>
  %5 = iree_tensor_ext.compute_barrier.end %4 : tensor<8xf32> -> tensor<8xf32>
  %6 = hal.tensor.export %5 "output0" : tensor<8xf32> -> !hal.buffer_view
  util.return %6 : !hal.buffer_view
}

// -----// IR Dump After CSE (cse) //----- //
util.func public @reduce(%arg0: !hal.buffer_view) -> !hal.buffer_view attributes {iree.abi.stub, iree.reflection = {iree.abi.declaration = "sync func @reduce(%input0: tensor<8x64xf32>) -> (%output0: tensor<8xf32>)"}} {
  %cst = arith.constant -0.000000e+00 : f32
  %0 = hal.tensor.import %arg0 "input0" : !hal.buffer_view -> tensor<8x64xf32>
  %1 = iree_tensor_ext.compute_barrier.start %0 : tensor<8x64xf32> -> tensor<8x64xf32>
  %2 = tensor.empty() : tensor<8xf32>
  %3 = linalg.fill ins(%cst : f32) outs(%2 : tensor<8xf32>) -> tensor<8xf32>
  %4 = linalg.generic {indexing_maps = [affine_map<(d0, d1) -> (d0, d1)>, affine_map<(d0, d1) -> (d0)>], iterator_types = ["parallel", "reduction"]} ins(%1 : tensor<8x64xf32>) outs(%3 : tensor<8xf32>) {
  ^bb0(%in: f32, %out: f32):
    %7 = arith.addf %in, %out : f32
    linalg.yield %7 : f32
  } -> tensor<8xf32>
  %5 = iree_tensor_ext.compute_barrier.end %4 : tensor<8xf32> -> tensor<8xf32>
  %6 = hal.tensor.export %5 "output0" : tensor<8xf32> -> !hal.buffer_view
  util.return %6 : !hal.buffer_view
}

// -----// IR Dump After SimplifyGlobalAccessesPass (iree-util-simplify-global-accesses) //----- //
util.func public @reduce(%arg0: !hal.buffer_view) -> !hal.buffer_view attributes {iree.abi.stub, iree.reflection = {iree.abi.declaration = "sync func @reduce(%input0: tensor<8x64xf32>) -> (%output0: tensor<8xf32>)"}} {
  %cst = arith.constant -0.000000e+00 : f32
  %0 = hal.tensor.import %arg0 "input0" : !hal.buffer_view -> tensor<8x64xf32>
  %1 = iree_tensor_ext.compute_barrier.start %0 : tensor<8x64xf32> -> tensor<8x64xf32>
  %2 = tensor.empty() : tensor<8xf32>
  %3 = linalg.fill ins(%cst : f32) outs(%2 : tensor<8xf32>) -> tensor<8xf32>
  %4 = linalg.generic {indexing_maps = [affine_map<(d0, d1) -> (d0, d1)>, affine_map<(d0, d1) -> (d0)>], iterator_types = ["parallel", "reduction"]} ins(%1 : tensor<8x64xf32>) outs(%3 : tensor<8xf32>) {
  ^bb0(%in: f32, %out: f32):
    %7 = arith.addf %in, %out : f32
    linalg.yield %7 : f32
  } -> tensor<8xf32>
  %5 = iree_tensor_ext.compute_barrier.end %4 : tensor<8xf32> -> tensor<8xf32>
  %6 = hal.tensor.export %5 "output0" : tensor<8xf32> -> !hal.buffer_view
  util.return %6 : !hal.buffer_view
}

// -----// IR Dump After ApplyPatternsPass (iree-util-apply-patterns) //----- //
util.func public @reduce(%arg0: !hal.buffer_view) -> !hal.buffer_view attributes {iree.abi.stub, iree.reflection = {iree.abi.declaration = "sync func @reduce(%input0: tensor<8x64xf32>) -> (%output0: tensor<8xf32>)"}} {
  %cst = arith.constant -0.000000e+00 : f32
  %0 = hal.tensor.import %arg0 "input0" : !hal.buffer_view -> tensor<8x64xf32>
  %1 = iree_tensor_ext.compute_barrier.start %0 : tensor<8x64xf32> -> tensor<8x64xf32>
  %2 = tensor.empty() : tensor<8xf32>
  %3 = linalg.fill ins(%cst : f32) outs(%2 : tensor<8xf32>) -> tensor<8xf32>
  %4 = linalg.generic {indexing_maps = [affine_map<(d0, d1) -> (d0, d1)>, affine_map<(d0, d1) -> (d0)>], iterator_types = ["parallel", "reduction"]} ins(%1 : tensor<8x64xf32>) outs(%3 : tensor<8xf32>) {
  ^bb0(%in: f32, %out: f32):
    %7 = arith.addf %in, %out : f32
    linalg.yield %7 : f32
  } -> tensor<8xf32>
  %5 = iree_tensor_ext.compute_barrier.end %4 : tensor<8xf32> -> tensor<8xf32>
  %6 = hal.tensor.export %5 "output0" : tensor<8xf32> -> !hal.buffer_view
  util.return %6 : !hal.buffer_view
}

// -----// IR Dump After FoldGlobalsPass (iree-util-fold-globals) //----- //
#executable_target_rocm_hsaco_fb = #hal.executable.target<"rocm", "rocm-hsaco-fb", {abi = "hip", iree.encoding.resolver = #iree_gpu.gpu_encoding_resolver<>, iree_codegen.default_tuning_spec = #rocm.builtin.tuning_module<"iree_default_tuning_spec_gfx942.mlir">, iree_codegen.target_info = #iree_gpu.target<arch = "gfx942", features = "", wgp = <compute =  fp64|fp32|fp16|int64|int32|int16|int8, storage =  b64|b32|b16|b8, subgroup =  shuffle|arithmetic, dot =  dp4xi8toi32, mma = [<MFMA_F32_16x16x16_BF16>, <MFMA_F32_32x32x8_BF16>, <MFMA_F32_16x16x32_F8E5M2FNUZ>, <MFMA_F32_16x16x32_F8E5M2FNUZ_F8E4M3FNUZ>, <MFMA_F32_16x16x32_F8E4M3FNUZ>, <MFMA_F32_16x16x32_F8E4M3FNUZ_F8E5M2FNUZ>, <MFMA_F32_32x32x16_F8E5M2FNUZ>, <MFMA_F32_32x32x16_F8E5M2FNUZ_F8E4M3FNUZ>, <MFMA_F32_32x32x16_F8E4M3FNUZ>, <MFMA_F32_32x32x16_F8E4M3FNUZ_F8E5M2FNUZ>, <MFMA_I32_16x16x32_I8>, <MFMA_I32_32x32x16_I8>, <MFMA_F64_16x16x4_F64>, <MFMA_F32_16x16x4_F32>, <MFMA_F32_16x16x16_F16>, <MFMA_F32_32x32x8_F16>], subgroup_size_choices = [64], max_workgroup_sizes = [1024, 1024, 1024], max_thread_count_per_workgroup = 1024, max_workgroup_memory_bytes = 65536, max_workgroup_counts = [2147483647, 2147483647, 2147483647], max_load_instruction_bits = 128, simds_per_wgp = 4, vgpr_space_bits = 16384, dma_sizes = [32]>>, ukernels = "none"}>
#map = affine_map<(d0, d1) -> (d0, d1)>
#map1 = affine_map<(d0, d1) -> (d0)>
#device_target_hip = #hal.device.target<"hip", [#executable_target_rocm_hsaco_fb]> : !hal.device
module attributes {iree.fixedpoint.iteration = 0 : index, stream.affinity.default = #hal.device.affinity<@__device_0>} {
  util.global private @__device_0 = #device_target_hip
  util.func public @reduce(%arg0: !hal.buffer_view) -> !hal.buffer_view attributes {iree.abi.stub, iree.reflection = {iree.abi.declaration = "sync func @reduce(%input0: tensor<8x64xf32>) -> (%output0: tensor<8xf32>)"}} {
    %cst = arith.constant -0.000000e+00 : f32
    %0 = hal.tensor.import %arg0 "input0" : !hal.buffer_view -> tensor<8x64xf32>
    %1 = iree_tensor_ext.compute_barrier.start %0 : tensor<8x64xf32> -> tensor<8x64xf32>
    %2 = tensor.empty() : tensor<8xf32>
    %3 = linalg.fill ins(%cst : f32) outs(%2 : tensor<8xf32>) -> tensor<8xf32>
    %4 = linalg.generic {indexing_maps = [#map, #map1], iterator_types = ["parallel", "reduction"]} ins(%1 : tensor<8x64xf32>) outs(%3 : tensor<8xf32>) {
    ^bb0(%in: f32, %out: f32):
      %7 = arith.addf %in, %out : f32
      linalg.yield %7 : f32
    } -> tensor<8xf32>
    %5 = iree_tensor_ext.compute_barrier.end %4 : tensor<8xf32> -> tensor<8xf32>
    %6 = hal.tensor.export %5 "output0" : tensor<8xf32> -> !hal.buffer_view
    util.return %6 : !hal.buffer_view
  }
}


// -----// IR Dump After FuseGlobalsPass (iree-util-fuse-globals) //----- //
#executable_target_rocm_hsaco_fb = #hal.executable.target<"rocm", "rocm-hsaco-fb", {abi = "hip", iree.encoding.resolver = #iree_gpu.gpu_encoding_resolver<>, iree_codegen.default_tuning_spec = #rocm.builtin.tuning_module<"iree_default_tuning_spec_gfx942.mlir">, iree_codegen.target_info = #iree_gpu.target<arch = "gfx942", features = "", wgp = <compute =  fp64|fp32|fp16|int64|int32|int16|int8, storage =  b64|b32|b16|b8, subgroup =  shuffle|arithmetic, dot =  dp4xi8toi32, mma = [<MFMA_F32_16x16x16_BF16>, <MFMA_F32_32x32x8_BF16>, <MFMA_F32_16x16x32_F8E5M2FNUZ>, <MFMA_F32_16x16x32_F8E5M2FNUZ_F8E4M3FNUZ>, <MFMA_F32_16x16x32_F8E4M3FNUZ>, <MFMA_F32_16x16x32_F8E4M3FNUZ_F8E5M2FNUZ>, <MFMA_F32_32x32x16_F8E5M2FNUZ>, <MFMA_F32_32x32x16_F8E5M2FNUZ_F8E4M3FNUZ>, <MFMA_F32_32x32x16_F8E4M3FNUZ>, <MFMA_F32_32x32x16_F8E4M3FNUZ_F8E5M2FNUZ>, <MFMA_I32_16x16x32_I8>, <MFMA_I32_32x32x16_I8>, <MFMA_F64_16x16x4_F64>, <MFMA_F32_16x16x4_F32>, <MFMA_F32_16x16x16_F16>, <MFMA_F32_32x32x8_F16>], subgroup_size_choices = [64], max_workgroup_sizes = [1024, 1024, 1024], max_thread_count_per_workgroup = 1024, max_workgroup_memory_bytes = 65536, max_workgroup_counts = [2147483647, 2147483647, 2147483647], max_load_instruction_bits = 128, simds_per_wgp = 4, vgpr_space_bits = 16384, dma_sizes = [32]>>, ukernels = "none"}>
#map = affine_map<(d0, d1) -> (d0, d1)>
#map1 = affine_map<(d0, d1) -> (d0)>
#device_target_hip = #hal.device.target<"hip", [#executable_target_rocm_hsaco_fb]> : !hal.device
module attributes {iree.fixedpoint.iteration = 0 : index, stream.affinity.default = #hal.device.affinity<@__device_0>} {
  util.global private @__device_0 = #device_target_hip
  util.func public @reduce(%arg0: !hal.buffer_view) -> !hal.buffer_view attributes {iree.abi.stub, iree.reflection = {iree.abi.declaration = "sync func @reduce(%input0: tensor<8x64xf32>) -> (%output0: tensor<8xf32>)"}} {
    %cst = arith.constant -0.000000e+00 : f32
    %0 = hal.tensor.import %arg0 "input0" : !hal.buffer_view -> tensor<8x64xf32>
    %1 = iree_tensor_ext.compute_barrier.start %0 : tensor<8x64xf32> -> tensor<8x64xf32>
    %2 = tensor.empty() : tensor<8xf32>
    %3 = linalg.fill ins(%cst : f32) outs(%2 : tensor<8xf32>) -> tensor<8xf32>
    %4 = linalg.generic {indexing_maps = [#map, #map1], iterator_types = ["parallel", "reduction"]} ins(%1 : tensor<8x64xf32>) outs(%3 : tensor<8xf32>) {
    ^bb0(%in: f32, %out: f32):
      %7 = arith.addf %in, %out : f32
      linalg.yield %7 : f32
    } -> tensor<8xf32>
    %5 = iree_tensor_ext.compute_barrier.end %4 : tensor<8xf32> -> tensor<8xf32>
    %6 = hal.tensor.export %5 "output0" : tensor<8xf32> -> !hal.buffer_view
    util.return %6 : !hal.buffer_view
  }
}


// -----// IR Dump After IPOPass (iree-util-ipo) //----- //
#executable_target_rocm_hsaco_fb = #hal.executable.target<"rocm", "rocm-hsaco-fb", {abi = "hip", iree.encoding.resolver = #iree_gpu.gpu_encoding_resolver<>, iree_codegen.default_tuning_spec = #rocm.builtin.tuning_module<"iree_default_tuning_spec_gfx942.mlir">, iree_codegen.target_info = #iree_gpu.target<arch = "gfx942", features = "", wgp = <compute =  fp64|fp32|fp16|int64|int32|int16|int8, storage =  b64|b32|b16|b8, subgroup =  shuffle|arithmetic, dot =  dp4xi8toi32, mma = [<MFMA_F32_16x16x16_BF16>, <MFMA_F32_32x32x8_BF16>, <MFMA_F32_16x16x32_F8E5M2FNUZ>, <MFMA_F32_16x16x32_F8E5M2FNUZ_F8E4M3FNUZ>, <MFMA_F32_16x16x32_F8E4M3FNUZ>, <MFMA_F32_16x16x32_F8E4M3FNUZ_F8E5M2FNUZ>, <MFMA_F32_32x32x16_F8E5M2FNUZ>, <MFMA_F32_32x32x16_F8E5M2FNUZ_F8E4M3FNUZ>, <MFMA_F32_32x32x16_F8E4M3FNUZ>, <MFMA_F32_32x32x16_F8E4M3FNUZ_F8E5M2FNUZ>, <MFMA_I32_16x16x32_I8>, <MFMA_I32_32x32x16_I8>, <MFMA_F64_16x16x4_F64>, <MFMA_F32_16x16x4_F32>, <MFMA_F32_16x16x16_F16>, <MFMA_F32_32x32x8_F16>], subgroup_size_choices = [64], max_workgroup_sizes = [1024, 1024, 1024], max_thread_count_per_workgroup = 1024, max_workgroup_memory_bytes = 65536, max_workgroup_counts = [2147483647, 2147483647, 2147483647], max_load_instruction_bits = 128, simds_per_wgp = 4, vgpr_space_bits = 16384, dma_sizes = [32]>>, ukernels = "none"}>
#map = affine_map<(d0, d1) -> (d0, d1)>
#map1 = affine_map<(d0, d1) -> (d0)>
#device_target_hip = #hal.device.target<"hip", [#executable_target_rocm_hsaco_fb]> : !hal.device
module attributes {iree.fixedpoint.iteration = 0 : index, stream.affinity.default = #hal.device.affinity<@__device_0>} {
  util.global private @__device_0 = #device_target_hip
  util.func public @reduce(%arg0: !hal.buffer_view) -> !hal.buffer_view attributes {iree.abi.stub, iree.reflection = {iree.abi.declaration = "sync func @reduce(%input0: tensor<8x64xf32>) -> (%output0: tensor<8xf32>)"}} {
    %cst = arith.constant -0.000000e+00 : f32
    %0 = hal.tensor.import %arg0 "input0" : !hal.buffer_view -> tensor<8x64xf32>
    %1 = iree_tensor_ext.compute_barrier.start %0 : tensor<8x64xf32> -> tensor<8x64xf32>
    %2 = tensor.empty() : tensor<8xf32>
    %3 = linalg.fill ins(%cst : f32) outs(%2 : tensor<8xf32>) -> tensor<8xf32>
    %4 = linalg.generic {indexing_maps = [#map, #map1], iterator_types = ["parallel", "reduction"]} ins(%1 : tensor<8x64xf32>) outs(%3 : tensor<8xf32>) {
    ^bb0(%in: f32, %out: f32):
      %7 = arith.addf %in, %out : f32
      linalg.yield %7 : f32
    } -> tensor<8xf32>
    %5 = iree_tensor_ext.compute_barrier.end %4 : tensor<8xf32> -> tensor<8xf32>
    %6 = hal.tensor.export %5 "output0" : tensor<8xf32> -> !hal.buffer_view
    util.return %6 : !hal.buffer_view
  }
}


// -----// IR Dump After FixedPointIteratorPass (iree-util-fixed-point-iterator) //----- //
#executable_target_rocm_hsaco_fb = #hal.executable.target<"rocm", "rocm-hsaco-fb", {abi = "hip", iree.encoding.resolver = #iree_gpu.gpu_encoding_resolver<>, iree_codegen.default_tuning_spec = #rocm.builtin.tuning_module<"iree_default_tuning_spec_gfx942.mlir">, iree_codegen.target_info = #iree_gpu.target<arch = "gfx942", features = "", wgp = <compute =  fp64|fp32|fp16|int64|int32|int16|int8, storage =  b64|b32|b16|b8, subgroup =  shuffle|arithmetic, dot =  dp4xi8toi32, mma = [<MFMA_F32_16x16x16_BF16>, <MFMA_F32_32x32x8_BF16>, <MFMA_F32_16x16x32_F8E5M2FNUZ>, <MFMA_F32_16x16x32_F8E5M2FNUZ_F8E4M3FNUZ>, <MFMA_F32_16x16x32_F8E4M3FNUZ>, <MFMA_F32_16x16x32_F8E4M3FNUZ_F8E5M2FNUZ>, <MFMA_F32_32x32x16_F8E5M2FNUZ>, <MFMA_F32_32x32x16_F8E5M2FNUZ_F8E4M3FNUZ>, <MFMA_F32_32x32x16_F8E4M3FNUZ>, <MFMA_F32_32x32x16_F8E4M3FNUZ_F8E5M2FNUZ>, <MFMA_I32_16x16x32_I8>, <MFMA_I32_32x32x16_I8>, <MFMA_F64_16x16x4_F64>, <MFMA_F32_16x16x4_F32>, <MFMA_F32_16x16x16_F16>, <MFMA_F32_32x32x8_F16>], subgroup_size_choices = [64], max_workgroup_sizes = [1024, 1024, 1024], max_thread_count_per_workgroup = 1024, max_workgroup_memory_bytes = 65536, max_workgroup_counts = [2147483647, 2147483647, 2147483647], max_load_instruction_bits = 128, simds_per_wgp = 4, vgpr_space_bits = 16384, dma_sizes = [32]>>, ukernels = "none"}>
#map = affine_map<(d0, d1) -> (d0, d1)>
#map1 = affine_map<(d0, d1) -> (d0)>
#device_target_hip = #hal.device.target<"hip", [#executable_target_rocm_hsaco_fb]> : !hal.device
module attributes {stream.affinity.default = #hal.device.affinity<@__device_0>} {
  util.global private @__device_0 = #device_target_hip
  util.func public @reduce(%arg0: !hal.buffer_view) -> !hal.buffer_view attributes {iree.abi.stub, iree.reflection = {iree.abi.declaration = "sync func @reduce(%input0: tensor<8x64xf32>) -> (%output0: tensor<8xf32>)"}} {
    %cst = arith.constant -0.000000e+00 : f32
    %0 = hal.tensor.import %arg0 "input0" : !hal.buffer_view -> tensor<8x64xf32>
    %1 = iree_tensor_ext.compute_barrier.start %0 : tensor<8x64xf32> -> tensor<8x64xf32>
    %2 = tensor.empty() : tensor<8xf32>
    %3 = linalg.fill ins(%cst : f32) outs(%2 : tensor<8xf32>) -> tensor<8xf32>
    %4 = linalg.generic {indexing_maps = [#map, #map1], iterator_types = ["parallel", "reduction"]} ins(%1 : tensor<8x64xf32>) outs(%3 : tensor<8xf32>) {
    ^bb0(%in: f32, %out: f32):
      %7 = arith.addf %in, %out : f32
      linalg.yield %7 : f32
    } -> tensor<8xf32>
    %5 = iree_tensor_ext.compute_barrier.end %4 : tensor<8xf32> -> tensor<8xf32>
    %6 = hal.tensor.export %5 "output0" : tensor<8xf32> -> !hal.buffer_view
    util.return %6 : !hal.buffer_view
  }
}


// -----// IR Dump After FusionPreprocessingPass (iree-dispatch-creation-fusion-preprocessing) //----- //
util.func public @reduce(%arg0: !hal.buffer_view) -> !hal.buffer_view attributes {iree.abi.stub, iree.reflection = {iree.abi.declaration = "sync func @reduce(%input0: tensor<8x64xf32>) -> (%output0: tensor<8xf32>)"}} {
  %cst = arith.constant -0.000000e+00 : f32
  %0 = hal.tensor.import %arg0 "input0" : !hal.buffer_view -> tensor<8x64xf32>
  %1 = iree_tensor_ext.compute_barrier.start %0 : tensor<8x64xf32> -> tensor<8x64xf32>
  %2 = tensor.empty() : tensor<8xf32>
  %3 = linalg.fill ins(%cst : f32) outs(%2 : tensor<8xf32>) -> tensor<8xf32>
  %4 = linalg.generic {indexing_maps = [affine_map<(d0, d1) -> (d0, d1)>, affine_map<(d0, d1) -> (d0)>], iterator_types = ["parallel", "reduction"]} ins(%1 : tensor<8x64xf32>) outs(%3 : tensor<8xf32>) {
  ^bb0(%in: f32, %out: f32):
    %7 = arith.addf %in, %out : f32
    linalg.yield %7 : f32
  } -> tensor<8xf32>
  %5 = iree_tensor_ext.compute_barrier.end %4 : tensor<8xf32> -> tensor<8xf32>
  %6 = hal.tensor.export %5 "output0" : tensor<8xf32> -> !hal.buffer_view
  util.return %6 : !hal.buffer_view
}

// -----// IR Dump After CanonicalizePass (iree-flow-canonicalize) //----- //
util.func public @reduce(%arg0: !hal.buffer_view) -> !hal.buffer_view attributes {iree.abi.stub, iree.reflection = {iree.abi.declaration = "sync func @reduce(%input0: tensor<8x64xf32>) -> (%output0: tensor<8xf32>)"}} {
  %cst = arith.constant -0.000000e+00 : f32
  %0 = hal.tensor.import %arg0 "input0" : !hal.buffer_view -> tensor<8x64xf32>
  %1 = iree_tensor_ext.compute_barrier.start %0 : tensor<8x64xf32> -> tensor<8x64xf32>
  %2 = tensor.empty() : tensor<8xf32>
  %3 = linalg.fill ins(%cst : f32) outs(%2 : tensor<8xf32>) -> tensor<8xf32>
  %4 = linalg.generic {indexing_maps = [affine_map<(d0, d1) -> (d0, d1)>, affine_map<(d0, d1) -> (d0)>], iterator_types = ["parallel", "reduction"]} ins(%1 : tensor<8x64xf32>) outs(%3 : tensor<8xf32>) {
  ^bb0(%in: f32, %out: f32):
    %7 = arith.addf %in, %out : f32
    linalg.yield %7 : f32
  } -> tensor<8xf32>
  %5 = iree_tensor_ext.compute_barrier.end %4 : tensor<8xf32> -> tensor<8xf32>
  %6 = hal.tensor.export %5 "output0" : tensor<8xf32> -> !hal.buffer_view
  util.return %6 : !hal.buffer_view
}

// -----// IR Dump After CSE (cse) //----- //
util.func public @reduce(%arg0: !hal.buffer_view) -> !hal.buffer_view attributes {iree.abi.stub, iree.reflection = {iree.abi.declaration = "sync func @reduce(%input0: tensor<8x64xf32>) -> (%output0: tensor<8xf32>)"}} {
  %cst = arith.constant -0.000000e+00 : f32
  %0 = hal.tensor.import %arg0 "input0" : !hal.buffer_view -> tensor<8x64xf32>
  %1 = iree_tensor_ext.compute_barrier.start %0 : tensor<8x64xf32> -> tensor<8x64xf32>
  %2 = tensor.empty() : tensor<8xf32>
  %3 = linalg.fill ins(%cst : f32) outs(%2 : tensor<8xf32>) -> tensor<8xf32>
  %4 = linalg.generic {indexing_maps = [affine_map<(d0, d1) -> (d0, d1)>, affine_map<(d0, d1) -> (d0)>], iterator_types = ["parallel", "reduction"]} ins(%1 : tensor<8x64xf32>) outs(%3 : tensor<8xf32>) {
  ^bb0(%in: f32, %out: f32):
    %7 = arith.addf %in, %out : f32
    linalg.yield %7 : f32
  } -> tensor<8xf32>
  %5 = iree_tensor_ext.compute_barrier.end %4 : tensor<8xf32> -> tensor<8xf32>
  %6 = hal.tensor.export %5 "output0" : tensor<8xf32> -> !hal.buffer_view
  util.return %6 : !hal.buffer_view
}

// -----// IR Dump After ElementwiseOpFusionPass (iree-dispatch-creation-elementwise-op-fusion) //----- //
util.func public @reduce(%arg0: !hal.buffer_view) -> !hal.buffer_view attributes {iree.abi.stub, iree.reflection = {iree.abi.declaration = "sync func @reduce(%input0: tensor<8x64xf32>) -> (%output0: tensor<8xf32>)"}} {
  %cst = arith.constant -0.000000e+00 : f32
  %0 = hal.tensor.import %arg0 "input0" : !hal.buffer_view -> tensor<8x64xf32>
  %1 = iree_tensor_ext.compute_barrier.start %0 : tensor<8x64xf32> -> tensor<8x64xf32>
  %2 = tensor.empty() : tensor<8xf32>
  %3 = linalg.fill ins(%cst : f32) outs(%2 : tensor<8xf32>) -> tensor<8xf32>
  %4 = linalg.generic {indexing_maps = [affine_map<(d0, d1) -> (d0, d1)>, affine_map<(d0, d1) -> (d0)>], iterator_types = ["parallel", "reduction"]} ins(%1 : tensor<8x64xf32>) outs(%3 : tensor<8xf32>) {
  ^bb0(%in: f32, %out: f32):
    %7 = arith.addf %in, %out : f32
    linalg.yield %7 : f32
  } -> tensor<8xf32>
  %5 = iree_tensor_ext.compute_barrier.end %4 : tensor<8xf32> -> tensor<8xf32>
  %6 = hal.tensor.export %5 "output0" : tensor<8xf32> -> !hal.buffer_view
  util.return %6 : !hal.buffer_view
}

// -----// IR Dump After CanonicalizePass (iree-flow-canonicalize) //----- //
util.func public @reduce(%arg0: !hal.buffer_view) -> !hal.buffer_view attributes {iree.abi.stub, iree.reflection = {iree.abi.declaration = "sync func @reduce(%input0: tensor<8x64xf32>) -> (%output0: tensor<8xf32>)"}} {
  %cst = arith.constant -0.000000e+00 : f32
  %0 = hal.tensor.import %arg0 "input0" : !hal.buffer_view -> tensor<8x64xf32>
  %1 = iree_tensor_ext.compute_barrier.start %0 : tensor<8x64xf32> -> tensor<8x64xf32>
  %2 = tensor.empty() : tensor<8xf32>
  %3 = linalg.fill ins(%cst : f32) outs(%2 : tensor<8xf32>) -> tensor<8xf32>
  %4 = linalg.generic {indexing_maps = [affine_map<(d0, d1) -> (d0, d1)>, affine_map<(d0, d1) -> (d0)>], iterator_types = ["parallel", "reduction"]} ins(%1 : tensor<8x64xf32>) outs(%3 : tensor<8xf32>) {
  ^bb0(%in: f32, %out: f32):
    %7 = arith.addf %in, %out : f32
    linalg.yield %7 : f32
  } -> tensor<8xf32>
  %5 = iree_tensor_ext.compute_barrier.end %4 : tensor<8xf32> -> tensor<8xf32>
  %6 = hal.tensor.export %5 "output0" : tensor<8xf32> -> !hal.buffer_view
  util.return %6 : !hal.buffer_view
}

// -----// IR Dump After CSE (cse) //----- //
util.func public @reduce(%arg0: !hal.buffer_view) -> !hal.buffer_view attributes {iree.abi.stub, iree.reflection = {iree.abi.declaration = "sync func @reduce(%input0: tensor<8x64xf32>) -> (%output0: tensor<8xf32>)"}} {
  %cst = arith.constant -0.000000e+00 : f32
  %0 = hal.tensor.import %arg0 "input0" : !hal.buffer_view -> tensor<8x64xf32>
  %1 = iree_tensor_ext.compute_barrier.start %0 : tensor<8x64xf32> -> tensor<8x64xf32>
  %2 = tensor.empty() : tensor<8xf32>
  %3 = linalg.fill ins(%cst : f32) outs(%2 : tensor<8xf32>) -> tensor<8xf32>
  %4 = linalg.generic {indexing_maps = [affine_map<(d0, d1) -> (d0, d1)>, affine_map<(d0, d1) -> (d0)>], iterator_types = ["parallel", "reduction"]} ins(%1 : tensor<8x64xf32>) outs(%3 : tensor<8xf32>) {
  ^bb0(%in: f32, %out: f32):
    %7 = arith.addf %in, %out : f32
    linalg.yield %7 : f32
  } -> tensor<8xf32>
  %5 = iree_tensor_ext.compute_barrier.end %4 : tensor<8xf32> -> tensor<8xf32>
  %6 = hal.tensor.export %5 "output0" : tensor<8xf32> -> !hal.buffer_view
  util.return %6 : !hal.buffer_view
}

// -----// IR Dump After BubbleUpExpandShapesPass (iree-dispatch-creation-bubble-up-expand-shapes) //----- //
util.func public @reduce(%arg0: !hal.buffer_view) -> !hal.buffer_view attributes {iree.abi.stub, iree.reflection = {iree.abi.declaration = "sync func @reduce(%input0: tensor<8x64xf32>) -> (%output0: tensor<8xf32>)"}} {
  %cst = arith.constant -0.000000e+00 : f32
  %0 = hal.tensor.import %arg0 "input0" : !hal.buffer_view -> tensor<8x64xf32>
  %1 = iree_tensor_ext.compute_barrier.start %0 : tensor<8x64xf32> -> tensor<8x64xf32>
  %2 = tensor.empty() : tensor<8xf32>
  %3 = linalg.fill ins(%cst : f32) outs(%2 : tensor<8xf32>) -> tensor<8xf32>
  %4 = linalg.generic {indexing_maps = [affine_map<(d0, d1) -> (d0, d1)>, affine_map<(d0, d1) -> (d0)>], iterator_types = ["parallel", "reduction"]} ins(%1 : tensor<8x64xf32>) outs(%3 : tensor<8xf32>) {
  ^bb0(%in: f32, %out: f32):
    %7 = arith.addf %in, %out : f32
    linalg.yield %7 : f32
  } -> tensor<8xf32>
  %5 = iree_tensor_ext.compute_barrier.end %4 : tensor<8xf32> -> tensor<8xf32>
  %6 = hal.tensor.export %5 "output0" : tensor<8xf32> -> !hal.buffer_view
  util.return %6 : !hal.buffer_view
}

// -----// IR Dump After CanonicalizePass (iree-flow-canonicalize) //----- //
util.func public @reduce(%arg0: !hal.buffer_view) -> !hal.buffer_view attributes {iree.abi.stub, iree.reflection = {iree.abi.declaration = "sync func @reduce(%input0: tensor<8x64xf32>) -> (%output0: tensor<8xf32>)"}} {
  %cst = arith.constant -0.000000e+00 : f32
  %0 = hal.tensor.import %arg0 "input0" : !hal.buffer_view -> tensor<8x64xf32>
  %1 = iree_tensor_ext.compute_barrier.start %0 : tensor<8x64xf32> -> tensor<8x64xf32>
  %2 = tensor.empty() : tensor<8xf32>
  %3 = linalg.fill ins(%cst : f32) outs(%2 : tensor<8xf32>) -> tensor<8xf32>
  %4 = linalg.generic {indexing_maps = [affine_map<(d0, d1) -> (d0, d1)>, affine_map<(d0, d1) -> (d0)>], iterator_types = ["parallel", "reduction"]} ins(%1 : tensor<8x64xf32>) outs(%3 : tensor<8xf32>) {
  ^bb0(%in: f32, %out: f32):
    %7 = arith.addf %in, %out : f32
    linalg.yield %7 : f32
  } -> tensor<8xf32>
  %5 = iree_tensor_ext.compute_barrier.end %4 : tensor<8xf32> -> tensor<8xf32>
  %6 = hal.tensor.export %5 "output0" : tensor<8xf32> -> !hal.buffer_view
  util.return %6 : !hal.buffer_view
}

// -----// IR Dump After CSE (cse) //----- //
util.func public @reduce(%arg0: !hal.buffer_view) -> !hal.buffer_view attributes {iree.abi.stub, iree.reflection = {iree.abi.declaration = "sync func @reduce(%input0: tensor<8x64xf32>) -> (%output0: tensor<8xf32>)"}} {
  %cst = arith.constant -0.000000e+00 : f32
  %0 = hal.tensor.import %arg0 "input0" : !hal.buffer_view -> tensor<8x64xf32>
  %1 = iree_tensor_ext.compute_barrier.start %0 : tensor<8x64xf32> -> tensor<8x64xf32>
  %2 = tensor.empty() : tensor<8xf32>
  %3 = linalg.fill ins(%cst : f32) outs(%2 : tensor<8xf32>) -> tensor<8xf32>
  %4 = linalg.generic {indexing_maps = [affine_map<(d0, d1) -> (d0, d1)>, affine_map<(d0, d1) -> (d0)>], iterator_types = ["parallel", "reduction"]} ins(%1 : tensor<8x64xf32>) outs(%3 : tensor<8xf32>) {
  ^bb0(%in: f32, %out: f32):
    %7 = arith.addf %in, %out : f32
    linalg.yield %7 : f32
  } -> tensor<8xf32>
  %5 = iree_tensor_ext.compute_barrier.end %4 : tensor<8xf32> -> tensor<8xf32>
  %6 = hal.tensor.export %5 "output0" : tensor<8xf32> -> !hal.buffer_view
  util.return %6 : !hal.buffer_view
}

// -----// IR Dump After ElementwiseOpFusionPass (iree-dispatch-creation-elementwise-op-fusion) //----- //
util.func public @reduce(%arg0: !hal.buffer_view) -> !hal.buffer_view attributes {iree.abi.stub, iree.reflection = {iree.abi.declaration = "sync func @reduce(%input0: tensor<8x64xf32>) -> (%output0: tensor<8xf32>)"}} {
  %cst = arith.constant -0.000000e+00 : f32
  %0 = hal.tensor.import %arg0 "input0" : !hal.buffer_view -> tensor<8x64xf32>
  %1 = iree_tensor_ext.compute_barrier.start %0 : tensor<8x64xf32> -> tensor<8x64xf32>
  %2 = tensor.empty() : tensor<8xf32>
  %3 = linalg.fill ins(%cst : f32) outs(%2 : tensor<8xf32>) -> tensor<8xf32>
  %4 = linalg.generic {indexing_maps = [affine_map<(d0, d1) -> (d0, d1)>, affine_map<(d0, d1) -> (d0)>], iterator_types = ["parallel", "reduction"]} ins(%1 : tensor<8x64xf32>) outs(%3 : tensor<8xf32>) {
  ^bb0(%in: f32, %out: f32):
    %7 = arith.addf %in, %out : f32
    linalg.yield %7 : f32
  } -> tensor<8xf32>
  %5 = iree_tensor_ext.compute_barrier.end %4 : tensor<8xf32> -> tensor<8xf32>
  %6 = hal.tensor.export %5 "output0" : tensor<8xf32> -> !hal.buffer_view
  util.return %6 : !hal.buffer_view
}

// -----// IR Dump After CanonicalizePass (iree-flow-canonicalize) //----- //
util.func public @reduce(%arg0: !hal.buffer_view) -> !hal.buffer_view attributes {iree.abi.stub, iree.reflection = {iree.abi.declaration = "sync func @reduce(%input0: tensor<8x64xf32>) -> (%output0: tensor<8xf32>)"}} {
  %cst = arith.constant -0.000000e+00 : f32
  %0 = hal.tensor.import %arg0 "input0" : !hal.buffer_view -> tensor<8x64xf32>
  %1 = iree_tensor_ext.compute_barrier.start %0 : tensor<8x64xf32> -> tensor<8x64xf32>
  %2 = tensor.empty() : tensor<8xf32>
  %3 = linalg.fill ins(%cst : f32) outs(%2 : tensor<8xf32>) -> tensor<8xf32>
  %4 = linalg.generic {indexing_maps = [affine_map<(d0, d1) -> (d0, d1)>, affine_map<(d0, d1) -> (d0)>], iterator_types = ["parallel", "reduction"]} ins(%1 : tensor<8x64xf32>) outs(%3 : tensor<8xf32>) {
  ^bb0(%in: f32, %out: f32):
    %7 = arith.addf %in, %out : f32
    linalg.yield %7 : f32
  } -> tensor<8xf32>
  %5 = iree_tensor_ext.compute_barrier.end %4 : tensor<8xf32> -> tensor<8xf32>
  %6 = hal.tensor.export %5 "output0" : tensor<8xf32> -> !hal.buffer_view
  util.return %6 : !hal.buffer_view
}

// -----// IR Dump After CSE (cse) //----- //
util.func public @reduce(%arg0: !hal.buffer_view) -> !hal.buffer_view attributes {iree.abi.stub, iree.reflection = {iree.abi.declaration = "sync func @reduce(%input0: tensor<8x64xf32>) -> (%output0: tensor<8xf32>)"}} {
  %cst = arith.constant -0.000000e+00 : f32
  %0 = hal.tensor.import %arg0 "input0" : !hal.buffer_view -> tensor<8x64xf32>
  %1 = iree_tensor_ext.compute_barrier.start %0 : tensor<8x64xf32> -> tensor<8x64xf32>
  %2 = tensor.empty() : tensor<8xf32>
  %3 = linalg.fill ins(%cst : f32) outs(%2 : tensor<8xf32>) -> tensor<8xf32>
  %4 = linalg.generic {indexing_maps = [affine_map<(d0, d1) -> (d0, d1)>, affine_map<(d0, d1) -> (d0)>], iterator_types = ["parallel", "reduction"]} ins(%1 : tensor<8x64xf32>) outs(%3 : tensor<8xf32>) {
  ^bb0(%in: f32, %out: f32):
    %7 = arith.addf %in, %out : f32
    linalg.yield %7 : f32
  } -> tensor<8xf32>
  %5 = iree_tensor_ext.compute_barrier.end %4 : tensor<8xf32> -> tensor<8xf32>
  %6 = hal.tensor.export %5 "output0" : tensor<8xf32> -> !hal.buffer_view
  util.return %6 : !hal.buffer_view
}

// -----// IR Dump After SinkReshapesPass (iree-dispatch-creation-sink-reshapes) //----- //
util.func public @reduce(%arg0: !hal.buffer_view) -> !hal.buffer_view attributes {iree.abi.stub, iree.reflection = {iree.abi.declaration = "sync func @reduce(%input0: tensor<8x64xf32>) -> (%output0: tensor<8xf32>)"}} {
  %cst = arith.constant -0.000000e+00 : f32
  %0 = hal.tensor.import %arg0 "input0" : !hal.buffer_view -> tensor<8x64xf32>
  %1 = iree_tensor_ext.compute_barrier.start %0 : tensor<8x64xf32> -> tensor<8x64xf32>
  %2 = tensor.empty() : tensor<8xf32>
  %3 = linalg.fill ins(%cst : f32) outs(%2 : tensor<8xf32>) -> tensor<8xf32>
  %4 = linalg.generic {indexing_maps = [affine_map<(d0, d1) -> (d0, d1)>, affine_map<(d0, d1) -> (d0)>], iterator_types = ["parallel", "reduction"]} ins(%1 : tensor<8x64xf32>) outs(%3 : tensor<8xf32>) {
  ^bb0(%in: f32, %out: f32):
    %7 = arith.addf %in, %out : f32
    linalg.yield %7 : f32
  } -> tensor<8xf32>
  %5 = iree_tensor_ext.compute_barrier.end %4 : tensor<8xf32> -> tensor<8xf32>
  %6 = hal.tensor.export %5 "output0" : tensor<8xf32> -> !hal.buffer_view
  util.return %6 : !hal.buffer_view
}

// -----// IR Dump After CanonicalizePass (iree-flow-canonicalize) //----- //
util.func public @reduce(%arg0: !hal.buffer_view) -> !hal.buffer_view attributes {iree.abi.stub, iree.reflection = {iree.abi.declaration = "sync func @reduce(%input0: tensor<8x64xf32>) -> (%output0: tensor<8xf32>)"}} {
  %cst = arith.constant -0.000000e+00 : f32
  %0 = hal.tensor.import %arg0 "input0" : !hal.buffer_view -> tensor<8x64xf32>
  %1 = iree_tensor_ext.compute_barrier.start %0 : tensor<8x64xf32> -> tensor<8x64xf32>
  %2 = tensor.empty() : tensor<8xf32>
  %3 = linalg.fill ins(%cst : f32) outs(%2 : tensor<8xf32>) -> tensor<8xf32>
  %4 = linalg.generic {indexing_maps = [affine_map<(d0, d1) -> (d0, d1)>, affine_map<(d0, d1) -> (d0)>], iterator_types = ["parallel", "reduction"]} ins(%1 : tensor<8x64xf32>) outs(%3 : tensor<8xf32>) {
  ^bb0(%in: f32, %out: f32):
    %7 = arith.addf %in, %out : f32
    linalg.yield %7 : f32
  } -> tensor<8xf32>
  %5 = iree_tensor_ext.compute_barrier.end %4 : tensor<8xf32> -> tensor<8xf32>
  %6 = hal.tensor.export %5 "output0" : tensor<8xf32> -> !hal.buffer_view
  util.return %6 : !hal.buffer_view
}

// -----// IR Dump After CSE (cse) //----- //
util.func public @reduce(%arg0: !hal.buffer_view) -> !hal.buffer_view attributes {iree.abi.stub, iree.reflection = {iree.abi.declaration = "sync func @reduce(%input0: tensor<8x64xf32>) -> (%output0: tensor<8xf32>)"}} {
  %cst = arith.constant -0.000000e+00 : f32
  %0 = hal.tensor.import %arg0 "input0" : !hal.buffer_view -> tensor<8x64xf32>
  %1 = iree_tensor_ext.compute_barrier.start %0 : tensor<8x64xf32> -> tensor<8x64xf32>
  %2 = tensor.empty() : tensor<8xf32>
  %3 = linalg.fill ins(%cst : f32) outs(%2 : tensor<8xf32>) -> tensor<8xf32>
  %4 = linalg.generic {indexing_maps = [affine_map<(d0, d1) -> (d0, d1)>, affine_map<(d0, d1) -> (d0)>], iterator_types = ["parallel", "reduction"]} ins(%1 : tensor<8x64xf32>) outs(%3 : tensor<8xf32>) {
  ^bb0(%in: f32, %out: f32):
    %7 = arith.addf %in, %out : f32
    linalg.yield %7 : f32
  } -> tensor<8xf32>
  %5 = iree_tensor_ext.compute_barrier.end %4 : tensor<8xf32> -> tensor<8xf32>
  %6 = hal.tensor.export %5 "output0" : tensor<8xf32> -> !hal.buffer_view
  util.return %6 : !hal.buffer_view
}

// -----// IR Dump After FuseMultiUseElementwiseProducerPass (iree-dispatch-creation-fuse-multi-use-elementwise-producer) //----- //
util.func public @reduce(%arg0: !hal.buffer_view) -> !hal.buffer_view attributes {iree.abi.stub, iree.reflection = {iree.abi.declaration = "sync func @reduce(%input0: tensor<8x64xf32>) -> (%output0: tensor<8xf32>)"}} {
  %cst = arith.constant -0.000000e+00 : f32
  %0 = hal.tensor.import %arg0 "input0" : !hal.buffer_view -> tensor<8x64xf32>
  %1 = iree_tensor_ext.compute_barrier.start %0 : tensor<8x64xf32> -> tensor<8x64xf32>
  %2 = tensor.empty() : tensor<8xf32>
  %3 = linalg.fill ins(%cst : f32) outs(%2 : tensor<8xf32>) -> tensor<8xf32>
  %4 = linalg.generic {indexing_maps = [affine_map<(d0, d1) -> (d0, d1)>, affine_map<(d0, d1) -> (d0)>], iterator_types = ["parallel", "reduction"]} ins(%1 : tensor<8x64xf32>) outs(%3 : tensor<8xf32>) {
  ^bb0(%in: f32, %out: f32):
    %7 = arith.addf %in, %out : f32
    linalg.yield %7 : f32
  } -> tensor<8xf32>
  %5 = iree_tensor_ext.compute_barrier.end %4 : tensor<8xf32> -> tensor<8xf32>
  %6 = hal.tensor.export %5 "output0" : tensor<8xf32> -> !hal.buffer_view
  util.return %6 : !hal.buffer_view
}

// -----// IR Dump After CanonicalizePass (iree-flow-canonicalize) //----- //
util.func public @reduce(%arg0: !hal.buffer_view) -> !hal.buffer_view attributes {iree.abi.stub, iree.reflection = {iree.abi.declaration = "sync func @reduce(%input0: tensor<8x64xf32>) -> (%output0: tensor<8xf32>)"}} {
  %cst = arith.constant -0.000000e+00 : f32
  %0 = hal.tensor.import %arg0 "input0" : !hal.buffer_view -> tensor<8x64xf32>
  %1 = iree_tensor_ext.compute_barrier.start %0 : tensor<8x64xf32> -> tensor<8x64xf32>
  %2 = tensor.empty() : tensor<8xf32>
  %3 = linalg.fill ins(%cst : f32) outs(%2 : tensor<8xf32>) -> tensor<8xf32>
  %4 = linalg.generic {indexing_maps = [affine_map<(d0, d1) -> (d0, d1)>, affine_map<(d0, d1) -> (d0)>], iterator_types = ["parallel", "reduction"]} ins(%1 : tensor<8x64xf32>) outs(%3 : tensor<8xf32>) {
  ^bb0(%in: f32, %out: f32):
    %7 = arith.addf %in, %out : f32
    linalg.yield %7 : f32
  } -> tensor<8xf32>
  %5 = iree_tensor_ext.compute_barrier.end %4 : tensor<8xf32> -> tensor<8xf32>
  %6 = hal.tensor.export %5 "output0" : tensor<8xf32> -> !hal.buffer_view
  util.return %6 : !hal.buffer_view
}

// -----// IR Dump After CSE (cse) //----- //
util.func public @reduce(%arg0: !hal.buffer_view) -> !hal.buffer_view attributes {iree.abi.stub, iree.reflection = {iree.abi.declaration = "sync func @reduce(%input0: tensor<8x64xf32>) -> (%output0: tensor<8xf32>)"}} {
  %cst = arith.constant -0.000000e+00 : f32
  %0 = hal.tensor.import %arg0 "input0" : !hal.buffer_view -> tensor<8x64xf32>
  %1 = iree_tensor_ext.compute_barrier.start %0 : tensor<8x64xf32> -> tensor<8x64xf32>
  %2 = tensor.empty() : tensor<8xf32>
  %3 = linalg.fill ins(%cst : f32) outs(%2 : tensor<8xf32>) -> tensor<8xf32>
  %4 = linalg.generic {indexing_maps = [affine_map<(d0, d1) -> (d0, d1)>, affine_map<(d0, d1) -> (d0)>], iterator_types = ["parallel", "reduction"]} ins(%1 : tensor<8x64xf32>) outs(%3 : tensor<8xf32>) {
  ^bb0(%in: f32, %out: f32):
    %7 = arith.addf %in, %out : f32
    linalg.yield %7 : f32
  } -> tensor<8xf32>
  %5 = iree_tensor_ext.compute_barrier.end %4 : tensor<8xf32> -> tensor<8xf32>
  %6 = hal.tensor.export %5 "output0" : tensor<8xf32> -> !hal.buffer_view
  util.return %6 : !hal.buffer_view
}

// -----// IR Dump After SplitReductionPass (iree-dispatch-creation-split-reduction-ops) //----- //
util.func public @reduce(%arg0: !hal.buffer_view) -> !hal.buffer_view attributes {iree.abi.stub, iree.reflection = {iree.abi.declaration = "sync func @reduce(%input0: tensor<8x64xf32>) -> (%output0: tensor<8xf32>)"}} {
  %cst = arith.constant -0.000000e+00 : f32
  %0 = hal.tensor.import %arg0 "input0" : !hal.buffer_view -> tensor<8x64xf32>
  %1 = iree_tensor_ext.compute_barrier.start %0 : tensor<8x64xf32> -> tensor<8x64xf32>
  %2 = tensor.empty() : tensor<8xf32>
  %3 = linalg.fill ins(%cst : f32) outs(%2 : tensor<8xf32>) -> tensor<8xf32>
  %4 = linalg.generic {indexing_maps = [affine_map<(d0, d1) -> (d0, d1)>, affine_map<(d0, d1) -> (d0)>], iterator_types = ["parallel", "reduction"]} ins(%1 : tensor<8x64xf32>) outs(%3 : tensor<8xf32>) {
  ^bb0(%in: f32, %out: f32):
    %7 = arith.addf %in, %out : f32
    linalg.yield %7 : f32
  } -> tensor<8xf32>
  %5 = iree_tensor_ext.compute_barrier.end %4 : tensor<8xf32> -> tensor<8xf32>
  %6 = hal.tensor.export %5 "output0" : tensor<8xf32> -> !hal.buffer_view
  util.return %6 : !hal.buffer_view
}

// -----// IR Dump After FormSplitReductionDispatchesPass (iree-dispatch-creation-form-split-reduction-dispatches) //----- //
util.func public @reduce(%arg0: !hal.buffer_view) -> !hal.buffer_view attributes {iree.abi.stub, iree.reflection = {iree.abi.declaration = "sync func @reduce(%input0: tensor<8x64xf32>) -> (%output0: tensor<8xf32>)"}} {
  %cst = arith.constant -0.000000e+00 : f32
  %0 = hal.tensor.import %arg0 "input0" : !hal.buffer_view -> tensor<8x64xf32>
  %1 = iree_tensor_ext.compute_barrier.start %0 : tensor<8x64xf32> -> tensor<8x64xf32>
  %2 = tensor.empty() : tensor<8xf32>
  %3 = linalg.fill ins(%cst : f32) outs(%2 : tensor<8xf32>) -> tensor<8xf32>
  %4 = linalg.generic {indexing_maps = [affine_map<(d0, d1) -> (d0, d1)>, affine_map<(d0, d1) -> (d0)>], iterator_types = ["parallel", "reduction"]} ins(%1 : tensor<8x64xf32>) outs(%3 : tensor<8xf32>) {
  ^bb0(%in: f32, %out: f32):
    %7 = arith.addf %in, %out : f32
    linalg.yield %7 : f32
  } -> tensor<8xf32>
  %5 = iree_tensor_ext.compute_barrier.end %4 : tensor<8xf32> -> tensor<8xf32>
  %6 = hal.tensor.export %5 "output0" : tensor<8xf32> -> !hal.buffer_view
  util.return %6 : !hal.buffer_view
}

// -----// IR Dump After TransposeGenericOpsPass (iree-dispatch-creation-transpose-generic-ops) //----- //
util.func public @reduce(%arg0: !hal.buffer_view) -> !hal.buffer_view attributes {iree.abi.stub, iree.reflection = {iree.abi.declaration = "sync func @reduce(%input0: tensor<8x64xf32>) -> (%output0: tensor<8xf32>)"}} {
  %cst = arith.constant -0.000000e+00 : f32
  %0 = hal.tensor.import %arg0 "input0" : !hal.buffer_view -> tensor<8x64xf32>
  %1 = iree_tensor_ext.compute_barrier.start %0 : tensor<8x64xf32> -> tensor<8x64xf32>
  %2 = tensor.empty() : tensor<8xf32>
  %3 = linalg.fill ins(%cst : f32) outs(%2 : tensor<8xf32>) -> tensor<8xf32>
  %4 = linalg.generic {indexing_maps = [affine_map<(d0, d1) -> (d0, d1)>, affine_map<(d0, d1) -> (d0)>], iterator_types = ["parallel", "reduction"]} ins(%1 : tensor<8x64xf32>) outs(%3 : tensor<8xf32>) {
  ^bb0(%in: f32, %out: f32):
    %7 = arith.addf %in, %out : f32
    linalg.yield %7 : f32
  } -> tensor<8xf32>
  %5 = iree_tensor_ext.compute_barrier.end %4 : tensor<8xf32> -> tensor<8xf32>
  %6 = hal.tensor.export %5 "output0" : tensor<8xf32> -> !hal.buffer_view
  util.return %6 : !hal.buffer_view
}

// -----// IR Dump After PropagateEncodingsPass (iree-dispatch-creation-propagate-encodings) //----- //
util.func public @reduce(%arg0: !hal.buffer_view) -> !hal.buffer_view attributes {iree.abi.stub, iree.reflection = {iree.abi.declaration = "sync func @reduce(%input0: tensor<8x64xf32>) -> (%output0: tensor<8xf32>)"}} {
  %cst = arith.constant -0.000000e+00 : f32
  %0 = hal.tensor.import %arg0 "input0" : !hal.buffer_view -> tensor<8x64xf32>
  %1 = iree_tensor_ext.compute_barrier.start %0 : tensor<8x64xf32> -> tensor<8x64xf32>
  %2 = tensor.empty() : tensor<8xf32>
  %3 = linalg.fill ins(%cst : f32) outs(%2 : tensor<8xf32>) -> tensor<8xf32>
  %4 = linalg.generic {indexing_maps = [affine_map<(d0, d1) -> (d0, d1)>, affine_map<(d0, d1) -> (d0)>], iterator_types = ["parallel", "reduction"]} ins(%1 : tensor<8x64xf32>) outs(%3 : tensor<8xf32>) {
  ^bb0(%in: f32, %out: f32):
    %7 = arith.addf %in, %out : f32
    linalg.yield %7 : f32
  } -> tensor<8xf32>
  %5 = iree_tensor_ext.compute_barrier.end %4 : tensor<8xf32> -> tensor<8xf32>
  %6 = hal.tensor.export %5 "output0" : tensor<8xf32> -> !hal.buffer_view
  util.return %6 : !hal.buffer_view
}

// -----// IR Dump After HoistIntoGlobalsPass (iree-util-hoist-into-globals) //----- //
#executable_target_rocm_hsaco_fb = #hal.executable.target<"rocm", "rocm-hsaco-fb", {abi = "hip", iree.encoding.resolver = #iree_gpu.gpu_encoding_resolver<>, iree_codegen.default_tuning_spec = #rocm.builtin.tuning_module<"iree_default_tuning_spec_gfx942.mlir">, iree_codegen.target_info = #iree_gpu.target<arch = "gfx942", features = "", wgp = <compute =  fp64|fp32|fp16|int64|int32|int16|int8, storage =  b64|b32|b16|b8, subgroup =  shuffle|arithmetic, dot =  dp4xi8toi32, mma = [<MFMA_F32_16x16x16_BF16>, <MFMA_F32_32x32x8_BF16>, <MFMA_F32_16x16x32_F8E5M2FNUZ>, <MFMA_F32_16x16x32_F8E5M2FNUZ_F8E4M3FNUZ>, <MFMA_F32_16x16x32_F8E4M3FNUZ>, <MFMA_F32_16x16x32_F8E4M3FNUZ_F8E5M2FNUZ>, <MFMA_F32_32x32x16_F8E5M2FNUZ>, <MFMA_F32_32x32x16_F8E5M2FNUZ_F8E4M3FNUZ>, <MFMA_F32_32x32x16_F8E4M3FNUZ>, <MFMA_F32_32x32x16_F8E4M3FNUZ_F8E5M2FNUZ>, <MFMA_I32_16x16x32_I8>, <MFMA_I32_32x32x16_I8>, <MFMA_F64_16x16x4_F64>, <MFMA_F32_16x16x4_F32>, <MFMA_F32_16x16x16_F16>, <MFMA_F32_32x32x8_F16>], subgroup_size_choices = [64], max_workgroup_sizes = [1024, 1024, 1024], max_thread_count_per_workgroup = 1024, max_workgroup_memory_bytes = 65536, max_workgroup_counts = [2147483647, 2147483647, 2147483647], max_load_instruction_bits = 128, simds_per_wgp = 4, vgpr_space_bits = 16384, dma_sizes = [32]>>, ukernels = "none"}>
#map = affine_map<(d0, d1) -> (d0, d1)>
#map1 = affine_map<(d0, d1) -> (d0)>
#device_target_hip = #hal.device.target<"hip", [#executable_target_rocm_hsaco_fb]> : !hal.device
module attributes {stream.affinity.default = #hal.device.affinity<@__device_0>} {
  util.global private @__device_0 = #device_target_hip
  util.func public @reduce(%arg0: !hal.buffer_view) -> !hal.buffer_view attributes {iree.abi.stub, iree.reflection = {iree.abi.declaration = "sync func @reduce(%input0: tensor<8x64xf32>) -> (%output0: tensor<8xf32>)"}} {
    %cst = arith.constant -0.000000e+00 : f32
    %0 = hal.tensor.import %arg0 "input0" : !hal.buffer_view -> tensor<8x64xf32>
    %1 = iree_tensor_ext.compute_barrier.start %0 : tensor<8x64xf32> -> tensor<8x64xf32>
    %2 = tensor.empty() : tensor<8xf32>
    %3 = linalg.fill ins(%cst : f32) outs(%2 : tensor<8xf32>) -> tensor<8xf32>
    %4 = linalg.generic {indexing_maps = [#map, #map1], iterator_types = ["parallel", "reduction"]} ins(%1 : tensor<8x64xf32>) outs(%3 : tensor<8xf32>) {
    ^bb0(%in: f32, %out: f32):
      %7 = arith.addf %in, %out : f32
      linalg.yield %7 : f32
    } -> tensor<8xf32>
    %5 = iree_tensor_ext.compute_barrier.end %4 : tensor<8xf32> -> tensor<8xf32>
    %6 = hal.tensor.export %5 "output0" : tensor<8xf32> -> !hal.buffer_view
    util.return %6 : !hal.buffer_view
  }
}


// -----// IR Dump After CanonicalizePass (iree-flow-canonicalize) //----- //
util.func public @reduce(%arg0: !hal.buffer_view) -> !hal.buffer_view attributes {iree.abi.stub, iree.reflection = {iree.abi.declaration = "sync func @reduce(%input0: tensor<8x64xf32>) -> (%output0: tensor<8xf32>)"}} {
  %cst = arith.constant -0.000000e+00 : f32
  %0 = hal.tensor.import %arg0 "input0" : !hal.buffer_view -> tensor<8x64xf32>
  %1 = iree_tensor_ext.compute_barrier.start %0 : tensor<8x64xf32> -> tensor<8x64xf32>
  %2 = tensor.empty() : tensor<8xf32>
  %3 = linalg.fill ins(%cst : f32) outs(%2 : tensor<8xf32>) -> tensor<8xf32>
  %4 = linalg.generic {indexing_maps = [affine_map<(d0, d1) -> (d0, d1)>, affine_map<(d0, d1) -> (d0)>], iterator_types = ["parallel", "reduction"]} ins(%1 : tensor<8x64xf32>) outs(%3 : tensor<8xf32>) {
  ^bb0(%in: f32, %out: f32):
    %7 = arith.addf %in, %out : f32
    linalg.yield %7 : f32
  } -> tensor<8xf32>
  %5 = iree_tensor_ext.compute_barrier.end %4 : tensor<8xf32> -> tensor<8xf32>
  %6 = hal.tensor.export %5 "output0" : tensor<8xf32> -> !hal.buffer_view
  util.return %6 : !hal.buffer_view
}

// -----// IR Dump After CSE (cse) //----- //
util.func public @reduce(%arg0: !hal.buffer_view) -> !hal.buffer_view attributes {iree.abi.stub, iree.reflection = {iree.abi.declaration = "sync func @reduce(%input0: tensor<8x64xf32>) -> (%output0: tensor<8xf32>)"}} {
  %cst = arith.constant -0.000000e+00 : f32
  %0 = hal.tensor.import %arg0 "input0" : !hal.buffer_view -> tensor<8x64xf32>
  %1 = iree_tensor_ext.compute_barrier.start %0 : tensor<8x64xf32> -> tensor<8x64xf32>
  %2 = tensor.empty() : tensor<8xf32>
  %3 = linalg.fill ins(%cst : f32) outs(%2 : tensor<8xf32>) -> tensor<8xf32>
  %4 = linalg.generic {indexing_maps = [affine_map<(d0, d1) -> (d0, d1)>, affine_map<(d0, d1) -> (d0)>], iterator_types = ["parallel", "reduction"]} ins(%1 : tensor<8x64xf32>) outs(%3 : tensor<8xf32>) {
  ^bb0(%in: f32, %out: f32):
    %7 = arith.addf %in, %out : f32
    linalg.yield %7 : f32
  } -> tensor<8xf32>
  %5 = iree_tensor_ext.compute_barrier.end %4 : tensor<8xf32> -> tensor<8xf32>
  %6 = hal.tensor.export %5 "output0" : tensor<8xf32> -> !hal.buffer_view
  util.return %6 : !hal.buffer_view
}

// -----// IR Dump After FormScalarDispatchesPass (iree-dispatch-creation-form-scalar-dispatches) //----- //
util.func public @reduce(%arg0: !hal.buffer_view) -> !hal.buffer_view attributes {iree.abi.stub, iree.reflection = {iree.abi.declaration = "sync func @reduce(%input0: tensor<8x64xf32>) -> (%output0: tensor<8xf32>)"}} {
  %cst = arith.constant -0.000000e+00 : f32
  %0 = hal.tensor.import %arg0 "input0" : !hal.buffer_view -> tensor<8x64xf32>
  %1 = iree_tensor_ext.compute_barrier.start %0 : tensor<8x64xf32> -> tensor<8x64xf32>
  %2 = tensor.empty() : tensor<8xf32>
  %3 = linalg.fill ins(%cst : f32) outs(%2 : tensor<8xf32>) -> tensor<8xf32>
  %4 = linalg.generic {indexing_maps = [affine_map<(d0, d1) -> (d0, d1)>, affine_map<(d0, d1) -> (d0)>], iterator_types = ["parallel", "reduction"]} ins(%1 : tensor<8x64xf32>) outs(%3 : tensor<8xf32>) {
  ^bb0(%in: f32, %out: f32):
    %7 = arith.addf %in, %out : f32
    linalg.yield %7 : f32
  } -> tensor<8xf32>
  %5 = iree_tensor_ext.compute_barrier.end %4 : tensor<8xf32> -> tensor<8xf32>
  %6 = hal.tensor.export %5 "output0" : tensor<8xf32> -> !hal.buffer_view
  util.return %6 : !hal.buffer_view
}

// -----// IR Dump After FormDispatchRegionsPass (iree-dispatch-creation-form-dispatch-regions) //----- //
util.func public @reduce(%arg0: !hal.buffer_view) -> !hal.buffer_view attributes {iree.abi.stub, iree.reflection = {iree.abi.declaration = "sync func @reduce(%input0: tensor<8x64xf32>) -> (%output0: tensor<8xf32>)"}} {
  %cst = arith.constant -0.000000e+00 : f32
  %0 = hal.tensor.import %arg0 "input0" : !hal.buffer_view -> tensor<8x64xf32>
  %1 = iree_tensor_ext.compute_barrier.start %0 : tensor<8x64xf32> -> tensor<8x64xf32>
  %2 = tensor.empty() : tensor<8xf32>
  %3 = linalg.fill ins(%cst : f32) outs(%2 : tensor<8xf32>) -> tensor<8xf32>
  %4 = flow.dispatch.region -> (tensor<8xf32>) {
    %7 = linalg.generic {indexing_maps = [affine_map<(d0, d1) -> (d0, d1)>, affine_map<(d0, d1) -> (d0)>], iterator_types = ["parallel", "reduction"]} ins(%1 : tensor<8x64xf32>) outs(%3 : tensor<8xf32>) {
    ^bb0(%in: f32, %out: f32):
      %8 = arith.addf %in, %out : f32
      linalg.yield %8 : f32
    } -> tensor<8xf32>
    flow.return %7 : tensor<8xf32>
  }
  %5 = iree_tensor_ext.compute_barrier.end %4 : tensor<8xf32> -> tensor<8xf32>
  %6 = hal.tensor.export %5 "output0" : tensor<8xf32> -> !hal.buffer_view
  util.return %6 : !hal.buffer_view
}

// -----// IR Dump After ElementwiseOpFusionPass (iree-dispatch-creation-elementwise-op-fusion) //----- //
util.func public @reduce(%arg0: !hal.buffer_view) -> !hal.buffer_view attributes {iree.abi.stub, iree.reflection = {iree.abi.declaration = "sync func @reduce(%input0: tensor<8x64xf32>) -> (%output0: tensor<8xf32>)"}} {
  %cst = arith.constant -0.000000e+00 : f32
  %0 = hal.tensor.import %arg0 "input0" : !hal.buffer_view -> tensor<8x64xf32>
  %1 = iree_tensor_ext.compute_barrier.start %0 : tensor<8x64xf32> -> tensor<8x64xf32>
  %2 = tensor.empty() : tensor<8xf32>
  %3 = linalg.fill ins(%cst : f32) outs(%2 : tensor<8xf32>) -> tensor<8xf32>
  %4 = flow.dispatch.region -> (tensor<8xf32>) {
    %7 = linalg.generic {indexing_maps = [affine_map<(d0, d1) -> (d0, d1)>, affine_map<(d0, d1) -> (d0)>], iterator_types = ["parallel", "reduction"]} ins(%1 : tensor<8x64xf32>) outs(%3 : tensor<8xf32>) {
    ^bb0(%in: f32, %out: f32):
      %8 = arith.addf %in, %out : f32
      linalg.yield %8 : f32
    } -> tensor<8xf32>
    flow.return %7 : tensor<8xf32>
  }
  %5 = iree_tensor_ext.compute_barrier.end %4 : tensor<8xf32> -> tensor<8xf32>
  %6 = hal.tensor.export %5 "output0" : tensor<8xf32> -> !hal.buffer_view
  util.return %6 : !hal.buffer_view
}

// -----// IR Dump After FuseMultiUseElementwiseProducerPass (iree-dispatch-creation-fuse-multi-use-elementwise-producer) //----- //
util.func public @reduce(%arg0: !hal.buffer_view) -> !hal.buffer_view attributes {iree.abi.stub, iree.reflection = {iree.abi.declaration = "sync func @reduce(%input0: tensor<8x64xf32>) -> (%output0: tensor<8xf32>)"}} {
  %cst = arith.constant -0.000000e+00 : f32
  %0 = hal.tensor.import %arg0 "input0" : !hal.buffer_view -> tensor<8x64xf32>
  %1 = iree_tensor_ext.compute_barrier.start %0 : tensor<8x64xf32> -> tensor<8x64xf32>
  %2 = tensor.empty() : tensor<8xf32>
  %3 = linalg.fill ins(%cst : f32) outs(%2 : tensor<8xf32>) -> tensor<8xf32>
  %4 = flow.dispatch.region -> (tensor<8xf32>) {
    %7 = linalg.generic {indexing_maps = [affine_map<(d0, d1) -> (d0, d1)>, affine_map<(d0, d1) -> (d0)>], iterator_types = ["parallel", "reduction"]} ins(%1 : tensor<8x64xf32>) outs(%3 : tensor<8xf32>) {
    ^bb0(%in: f32, %out: f32):
      %8 = arith.addf %in, %out : f32
      linalg.yield %8 : f32
    } -> tensor<8xf32>
    flow.return %7 : tensor<8xf32>
  }
  %5 = iree_tensor_ext.compute_barrier.end %4 : tensor<8xf32> -> tensor<8xf32>
  %6 = hal.tensor.export %5 "output0" : tensor<8xf32> -> !hal.buffer_view
  util.return %6 : !hal.buffer_view
}

// -----// IR Dump After CloneProducersIntoDispatchRegionsPass (iree-dispatch-creation-clone-producers-into-dispatch-regions) //----- //
util.func public @reduce(%arg0: !hal.buffer_view) -> !hal.buffer_view attributes {iree.abi.stub, iree.reflection = {iree.abi.declaration = "sync func @reduce(%input0: tensor<8x64xf32>) -> (%output0: tensor<8xf32>)"}} {
  %0 = hal.tensor.import %arg0 "input0" : !hal.buffer_view -> tensor<8x64xf32>
  %1 = iree_tensor_ext.compute_barrier.start %0 : tensor<8x64xf32> -> tensor<8x64xf32>
  %2 = flow.dispatch.region -> (tensor<8xf32>) {
    %5 = tensor.empty() : tensor<8xf32>
    %cst = arith.constant -0.000000e+00 : f32
    %6 = linalg.fill ins(%cst : f32) outs(%5 : tensor<8xf32>) -> tensor<8xf32>
    %7 = linalg.generic {indexing_maps = [affine_map<(d0, d1) -> (d0, d1)>, affine_map<(d0, d1) -> (d0)>], iterator_types = ["parallel", "reduction"]} ins(%1 : tensor<8x64xf32>) outs(%6 : tensor<8xf32>) {
    ^bb0(%in: f32, %out: f32):
      %8 = arith.addf %in, %out : f32
      linalg.yield %8 : f32
    } -> tensor<8xf32>
    flow.return %7 : tensor<8xf32>
  }
  %3 = iree_tensor_ext.compute_barrier.end %2 : tensor<8xf32> -> tensor<8xf32>
  %4 = hal.tensor.export %3 "output0" : tensor<8xf32> -> !hal.buffer_view
  util.return %4 : !hal.buffer_view
}

// -----// IR Dump After CollapseDimensionsPass (iree-dispatch-creation-collapse-dimensions) //----- //
util.func public @reduce(%arg0: !hal.buffer_view) -> !hal.buffer_view attributes {iree.abi.stub, iree.reflection = {iree.abi.declaration = "sync func @reduce(%input0: tensor<8x64xf32>) -> (%output0: tensor<8xf32>)"}} {
  %0 = hal.tensor.import %arg0 "input0" : !hal.buffer_view -> tensor<8x64xf32>
  %1 = iree_tensor_ext.compute_barrier.start %0 : tensor<8x64xf32> -> tensor<8x64xf32>
  %2 = flow.dispatch.region -> (tensor<8xf32>) {
    %5 = tensor.empty() : tensor<8xf32>
    %cst = arith.constant -0.000000e+00 : f32
    %6 = linalg.fill ins(%cst : f32) outs(%5 : tensor<8xf32>) -> tensor<8xf32>
    %7 = linalg.generic {indexing_maps = [affine_map<(d0, d1) -> (d0, d1)>, affine_map<(d0, d1) -> (d0)>], iterator_types = ["parallel", "reduction"]} ins(%1 : tensor<8x64xf32>) outs(%6 : tensor<8xf32>) {
    ^bb0(%in: f32, %out: f32):
      %8 = arith.addf %in, %out : f32
      linalg.yield %8 : f32
    } -> tensor<8xf32>
    flow.return %7 : tensor<8xf32>
  }
  %3 = iree_tensor_ext.compute_barrier.end %2 : tensor<8xf32> -> tensor<8xf32>
  %4 = hal.tensor.export %3 "output0" : tensor<8xf32> -> !hal.buffer_view
  util.return %4 : !hal.buffer_view
}

// -----// IR Dump After HoistUniformScalarComputePass (iree-dispatch-creation-hoist-uniform-scalar-compute) //----- //
util.func public @reduce(%arg0: !hal.buffer_view) -> !hal.buffer_view attributes {iree.abi.stub, iree.reflection = {iree.abi.declaration = "sync func @reduce(%input0: tensor<8x64xf32>) -> (%output0: tensor<8xf32>)"}} {
  %0 = hal.tensor.import %arg0 "input0" : !hal.buffer_view -> tensor<8x64xf32>
  %1 = iree_tensor_ext.compute_barrier.start %0 : tensor<8x64xf32> -> tensor<8x64xf32>
  %2 = flow.dispatch.region -> (tensor<8xf32>) {
    %5 = tensor.empty() : tensor<8xf32>
    %cst = arith.constant -0.000000e+00 : f32
    %6 = linalg.fill ins(%cst : f32) outs(%5 : tensor<8xf32>) -> tensor<8xf32>
    %7 = linalg.generic {indexing_maps = [affine_map<(d0, d1) -> (d0, d1)>, affine_map<(d0, d1) -> (d0)>], iterator_types = ["parallel", "reduction"]} ins(%1 : tensor<8x64xf32>) outs(%6 : tensor<8xf32>) {
    ^bb0(%in: f32, %out: f32):
      %8 = arith.addf %in, %out : f32
      linalg.yield %8 : f32
    } -> tensor<8xf32>
    flow.return %7 : tensor<8xf32>
  }
  %3 = iree_tensor_ext.compute_barrier.end %2 : tensor<8xf32> -> tensor<8xf32>
  %4 = hal.tensor.export %3 "output0" : tensor<8xf32> -> !hal.buffer_view
  util.return %4 : !hal.buffer_view
}

// -----// IR Dump After FuseEncodingOpsIntoDispatchRegionsPass (iree-dispatch-creation-fuse-encoding-ops-into-dispatch-regions-pass) //----- //
util.func public @reduce(%arg0: !hal.buffer_view) -> !hal.buffer_view attributes {iree.abi.stub, iree.reflection = {iree.abi.declaration = "sync func @reduce(%input0: tensor<8x64xf32>) -> (%output0: tensor<8xf32>)"}} {
  %0 = hal.tensor.import %arg0 "input0" : !hal.buffer_view -> tensor<8x64xf32>
  %1 = iree_tensor_ext.compute_barrier.start %0 : tensor<8x64xf32> -> tensor<8x64xf32>
  %2 = flow.dispatch.region -> (tensor<8xf32>) {
    %5 = tensor.empty() : tensor<8xf32>
    %cst = arith.constant -0.000000e+00 : f32
    %6 = linalg.fill ins(%cst : f32) outs(%5 : tensor<8xf32>) -> tensor<8xf32>
    %7 = linalg.generic {indexing_maps = [affine_map<(d0, d1) -> (d0, d1)>, affine_map<(d0, d1) -> (d0)>], iterator_types = ["parallel", "reduction"]} ins(%1 : tensor<8x64xf32>) outs(%6 : tensor<8xf32>) {
    ^bb0(%in: f32, %out: f32):
      %8 = arith.addf %in, %out : f32
      linalg.yield %8 : f32
    } -> tensor<8xf32>
    flow.return %7 : tensor<8xf32>
  }
  %3 = iree_tensor_ext.compute_barrier.end %2 : tensor<8xf32> -> tensor<8xf32>
  %4 = hal.tensor.export %3 "output0" : tensor<8xf32> -> !hal.buffer_view
  util.return %4 : !hal.buffer_view
}

// -----// IR Dump After ConvertEncodingToFlowPass (iree-dispatch-creation-convert-encoding-to-flow) //----- //
util.func public @reduce(%arg0: !hal.buffer_view) -> !hal.buffer_view attributes {iree.abi.stub, iree.reflection = {iree.abi.declaration = "sync func @reduce(%input0: tensor<8x64xf32>) -> (%output0: tensor<8xf32>)"}} {
  %0 = hal.tensor.import %arg0 "input0" : !hal.buffer_view -> tensor<8x64xf32>
  %1 = iree_tensor_ext.compute_barrier.start %0 : tensor<8x64xf32> -> tensor<8x64xf32>
  %2 = flow.dispatch.region -> (tensor<8xf32>) {
    %5 = tensor.empty() : tensor<8xf32>
    %cst = arith.constant -0.000000e+00 : f32
    %6 = linalg.fill ins(%cst : f32) outs(%5 : tensor<8xf32>) -> tensor<8xf32>
    %7 = linalg.generic {indexing_maps = [affine_map<(d0, d1) -> (d0, d1)>, affine_map<(d0, d1) -> (d0)>], iterator_types = ["parallel", "reduction"]} ins(%1 : tensor<8x64xf32>) outs(%6 : tensor<8xf32>) {
    ^bb0(%in: f32, %out: f32):
      %8 = arith.addf %in, %out : f32
      linalg.yield %8 : f32
    } -> tensor<8xf32>
    flow.return %7 : tensor<8xf32>
  }
  %3 = iree_tensor_ext.compute_barrier.end %2 : tensor<8xf32> -> tensor<8xf32>
  %4 = hal.tensor.export %3 "output0" : tensor<8xf32> -> !hal.buffer_view
  util.return %4 : !hal.buffer_view
}

// -----// IR Dump After HoistIntoGlobalsPass (iree-util-hoist-into-globals) //----- //
#executable_target_rocm_hsaco_fb = #hal.executable.target<"rocm", "rocm-hsaco-fb", {abi = "hip", iree.encoding.resolver = #iree_gpu.gpu_encoding_resolver<>, iree_codegen.default_tuning_spec = #rocm.builtin.tuning_module<"iree_default_tuning_spec_gfx942.mlir">, iree_codegen.target_info = #iree_gpu.target<arch = "gfx942", features = "", wgp = <compute =  fp64|fp32|fp16|int64|int32|int16|int8, storage =  b64|b32|b16|b8, subgroup =  shuffle|arithmetic, dot =  dp4xi8toi32, mma = [<MFMA_F32_16x16x16_BF16>, <MFMA_F32_32x32x8_BF16>, <MFMA_F32_16x16x32_F8E5M2FNUZ>, <MFMA_F32_16x16x32_F8E5M2FNUZ_F8E4M3FNUZ>, <MFMA_F32_16x16x32_F8E4M3FNUZ>, <MFMA_F32_16x16x32_F8E4M3FNUZ_F8E5M2FNUZ>, <MFMA_F32_32x32x16_F8E5M2FNUZ>, <MFMA_F32_32x32x16_F8E5M2FNUZ_F8E4M3FNUZ>, <MFMA_F32_32x32x16_F8E4M3FNUZ>, <MFMA_F32_32x32x16_F8E4M3FNUZ_F8E5M2FNUZ>, <MFMA_I32_16x16x32_I8>, <MFMA_I32_32x32x16_I8>, <MFMA_F64_16x16x4_F64>, <MFMA_F32_16x16x4_F32>, <MFMA_F32_16x16x16_F16>, <MFMA_F32_32x32x8_F16>], subgroup_size_choices = [64], max_workgroup_sizes = [1024, 1024, 1024], max_thread_count_per_workgroup = 1024, max_workgroup_memory_bytes = 65536, max_workgroup_counts = [2147483647, 2147483647, 2147483647], max_load_instruction_bits = 128, simds_per_wgp = 4, vgpr_space_bits = 16384, dma_sizes = [32]>>, ukernels = "none"}>
#map = affine_map<(d0, d1) -> (d0, d1)>
#map1 = affine_map<(d0, d1) -> (d0)>
#device_target_hip = #hal.device.target<"hip", [#executable_target_rocm_hsaco_fb]> : !hal.device
module attributes {stream.affinity.default = #hal.device.affinity<@__device_0>} {
  util.global private @__device_0 = #device_target_hip
  util.func public @reduce(%arg0: !hal.buffer_view) -> !hal.buffer_view attributes {iree.abi.stub, iree.reflection = {iree.abi.declaration = "sync func @reduce(%input0: tensor<8x64xf32>) -> (%output0: tensor<8xf32>)"}} {
    %0 = hal.tensor.import %arg0 "input0" : !hal.buffer_view -> tensor<8x64xf32>
    %1 = iree_tensor_ext.compute_barrier.start %0 : tensor<8x64xf32> -> tensor<8x64xf32>
    %2 = flow.dispatch.region -> (tensor<8xf32>) {
      %5 = tensor.empty() : tensor<8xf32>
      %cst = arith.constant -0.000000e+00 : f32
      %6 = linalg.fill ins(%cst : f32) outs(%5 : tensor<8xf32>) -> tensor<8xf32>
      %7 = linalg.generic {indexing_maps = [#map, #map1], iterator_types = ["parallel", "reduction"]} ins(%1 : tensor<8x64xf32>) outs(%6 : tensor<8xf32>) {
      ^bb0(%in: f32, %out: f32):
        %8 = arith.addf %in, %out : f32
        linalg.yield %8 : f32
      } -> tensor<8xf32>
      flow.return %7 : tensor<8xf32>
    }
    %3 = iree_tensor_ext.compute_barrier.end %2 : tensor<8xf32> -> tensor<8xf32>
    %4 = hal.tensor.export %3 "output0" : tensor<8xf32> -> !hal.buffer_view
    util.return %4 : !hal.buffer_view
  }
}


// -----// IR Dump After RemoveTensorBarriersPass (iree-dispatch-creation-remove-tensor-barriers) //----- //
util.func public @reduce(%arg0: !hal.buffer_view) -> !hal.buffer_view attributes {iree.abi.stub, iree.reflection = {iree.abi.declaration = "sync func @reduce(%input0: tensor<8x64xf32>) -> (%output0: tensor<8xf32>)"}} {
  %0 = hal.tensor.import %arg0 "input0" : !hal.buffer_view -> tensor<8x64xf32>
  %1 = flow.dispatch.region -> (tensor<8xf32>) {
    %3 = tensor.empty() : tensor<8xf32>
    %cst = arith.constant -0.000000e+00 : f32
    %4 = linalg.fill ins(%cst : f32) outs(%3 : tensor<8xf32>) -> tensor<8xf32>
    %5 = linalg.generic {indexing_maps = [affine_map<(d0, d1) -> (d0, d1)>, affine_map<(d0, d1) -> (d0)>], iterator_types = ["parallel", "reduction"]} ins(%0 : tensor<8x64xf32>) outs(%4 : tensor<8xf32>) {
    ^bb0(%in: f32, %out: f32):
      %6 = arith.addf %in, %out : f32
      linalg.yield %6 : f32
    } -> tensor<8xf32>
    flow.return %5 : tensor<8xf32>
  }
  %2 = hal.tensor.export %1 "output0" : tensor<8xf32> -> !hal.buffer_view
  util.return %2 : !hal.buffer_view
}

// -----// IR Dump After ConvertDispatchRegionsToWorkgroupsPass (iree-dispatch-creation-convert-dispatch-regions-to-workgroups) //----- //
util.func public @reduce(%arg0: !hal.buffer_view) -> !hal.buffer_view attributes {iree.abi.stub, iree.reflection = {iree.abi.declaration = "sync func @reduce(%input0: tensor<8x64xf32>) -> (%output0: tensor<8xf32>)"}} {
  %0 = hal.tensor.import %arg0 "input0" : !hal.buffer_view -> tensor<8x64xf32>
  %1 = flow.dispatch.workgroups(%0) : (tensor<8x64xf32>) -> tensor<8xf32> =
      (%arg1: !iree_tensor_ext.dispatch.tensor<readonly:tensor<8x64xf32>>, %arg2: !iree_tensor_ext.dispatch.tensor<writeonly:tensor<8xf32>>) {
    %3 = iree_tensor_ext.dispatch.tensor.load %arg1, offsets = [0, 0], sizes = [8, 64], strides = [1, 1] : !iree_tensor_ext.dispatch.tensor<readonly:tensor<8x64xf32>> -> tensor<8x64xf32>
    %4 = tensor.empty() : tensor<8xf32>
    %cst = arith.constant -0.000000e+00 : f32
    %5 = linalg.fill ins(%cst : f32) outs(%4 : tensor<8xf32>) -> tensor<8xf32>
    %6 = linalg.generic {indexing_maps = [affine_map<(d0, d1) -> (d0, d1)>, affine_map<(d0, d1) -> (d0)>], iterator_types = ["parallel", "reduction"]} ins(%3 : tensor<8x64xf32>) outs(%5 : tensor<8xf32>) {
    ^bb0(%in: f32, %out: f32):
      %7 = arith.addf %in, %out : f32
      linalg.yield %7 : f32
    } -> tensor<8xf32>
    iree_tensor_ext.dispatch.tensor.store %6, %arg2, offsets = [0], sizes = [8], strides = [1] : tensor<8xf32> -> !iree_tensor_ext.dispatch.tensor<writeonly:tensor<8xf32>>
    flow.return
  }
  %2 = hal.tensor.export %1 "output0" : tensor<8xf32> -> !hal.buffer_view
  util.return %2 : !hal.buffer_view
}

// -----// IR Dump After ConvertTensorToFlowPass (iree-dispatch-creation-convert-tensor-to-flow) //----- //
util.func public @reduce(%arg0: !hal.buffer_view) -> !hal.buffer_view attributes {iree.abi.stub, iree.reflection = {iree.abi.declaration = "sync func @reduce(%input0: tensor<8x64xf32>) -> (%output0: tensor<8xf32>)"}} {
  %0 = hal.tensor.import %arg0 "input0" : !hal.buffer_view -> tensor<8x64xf32>
  %1 = flow.dispatch.workgroups(%0) : (tensor<8x64xf32>) -> tensor<8xf32> =
      (%arg1: !iree_tensor_ext.dispatch.tensor<readonly:tensor<8x64xf32>>, %arg2: !iree_tensor_ext.dispatch.tensor<writeonly:tensor<8xf32>>) {
    %cst = arith.constant -0.000000e+00 : f32
    %3 = iree_tensor_ext.dispatch.tensor.load %arg1, offsets = [0, 0], sizes = [8, 64], strides = [1, 1] : !iree_tensor_ext.dispatch.tensor<readonly:tensor<8x64xf32>> -> tensor<8x64xf32>
    %4 = tensor.empty() : tensor<8xf32>
    %5 = linalg.fill ins(%cst : f32) outs(%4 : tensor<8xf32>) -> tensor<8xf32>
    %6 = linalg.generic {indexing_maps = [affine_map<(d0, d1) -> (d0, d1)>, affine_map<(d0, d1) -> (d0)>], iterator_types = ["parallel", "reduction"]} ins(%3 : tensor<8x64xf32>) outs(%5 : tensor<8xf32>) {
    ^bb0(%in: f32, %out: f32):
      %7 = arith.addf %in, %out : f32
      linalg.yield %7 : f32
    } -> tensor<8xf32>
    iree_tensor_ext.dispatch.tensor.store %6, %arg2, offsets = [0], sizes = [8], strides = [1] : tensor<8xf32> -> !iree_tensor_ext.dispatch.tensor<writeonly:tensor<8xf32>>
    flow.return
  }
  %2 = hal.tensor.export %1 "output0" : tensor<8xf32> -> !hal.buffer_view
  util.return %2 : !hal.buffer_view
}

// -----// IR Dump After CSE (cse) //----- //
util.func public @reduce(%arg0: !hal.buffer_view) -> !hal.buffer_view attributes {iree.abi.stub, iree.reflection = {iree.abi.declaration = "sync func @reduce(%input0: tensor<8x64xf32>) -> (%output0: tensor<8xf32>)"}} {
  %0 = hal.tensor.import %arg0 "input0" : !hal.buffer_view -> tensor<8x64xf32>
  %1 = flow.dispatch.workgroups(%0) : (tensor<8x64xf32>) -> tensor<8xf32> =
      (%arg1: !iree_tensor_ext.dispatch.tensor<readonly:tensor<8x64xf32>>, %arg2: !iree_tensor_ext.dispatch.tensor<writeonly:tensor<8xf32>>) {
    %cst = arith.constant -0.000000e+00 : f32
    %3 = iree_tensor_ext.dispatch.tensor.load %arg1, offsets = [0, 0], sizes = [8, 64], strides = [1, 1] : !iree_tensor_ext.dispatch.tensor<readonly:tensor<8x64xf32>> -> tensor<8x64xf32>
    %4 = tensor.empty() : tensor<8xf32>
    %5 = linalg.fill ins(%cst : f32) outs(%4 : tensor<8xf32>) -> tensor<8xf32>
    %6 = linalg.generic {indexing_maps = [affine_map<(d0, d1) -> (d0, d1)>, affine_map<(d0, d1) -> (d0)>], iterator_types = ["parallel", "reduction"]} ins(%3 : tensor<8x64xf32>) outs(%5 : tensor<8xf32>) {
    ^bb0(%in: f32, %out: f32):
      %7 = arith.addf %in, %out : f32
      linalg.yield %7 : f32
    } -> tensor<8xf32>
    iree_tensor_ext.dispatch.tensor.store %6, %arg2, offsets = [0], sizes = [8], strides = [1] : tensor<8xf32> -> !iree_tensor_ext.dispatch.tensor<writeonly:tensor<8xf32>>
    flow.return
  }
  %2 = hal.tensor.export %1 "output0" : tensor<8xf32> -> !hal.buffer_view
  util.return %2 : !hal.buffer_view
}

// -----// IR Dump After CanonicalizePass (iree-flow-canonicalize) //----- //
util.func public @reduce(%arg0: !hal.buffer_view) -> !hal.buffer_view attributes {iree.abi.stub, iree.reflection = {iree.abi.declaration = "sync func @reduce(%input0: tensor<8x64xf32>) -> (%output0: tensor<8xf32>)"}} {
  %0 = hal.tensor.import %arg0 "input0" : !hal.buffer_view -> tensor<8x64xf32>
  %1 = flow.dispatch.workgroups(%0) : (tensor<8x64xf32>) -> tensor<8xf32> =
      (%arg1: !iree_tensor_ext.dispatch.tensor<readonly:tensor<8x64xf32>>, %arg2: !iree_tensor_ext.dispatch.tensor<writeonly:tensor<8xf32>>) {
    %cst = arith.constant -0.000000e+00 : f32
    %3 = iree_tensor_ext.dispatch.tensor.load %arg1, offsets = [0, 0], sizes = [8, 64], strides = [1, 1] : !iree_tensor_ext.dispatch.tensor<readonly:tensor<8x64xf32>> -> tensor<8x64xf32>
    %4 = tensor.empty() : tensor<8xf32>
    %5 = linalg.fill ins(%cst : f32) outs(%4 : tensor<8xf32>) -> tensor<8xf32>
    %6 = linalg.generic {indexing_maps = [affine_map<(d0, d1) -> (d0, d1)>, affine_map<(d0, d1) -> (d0)>], iterator_types = ["parallel", "reduction"]} ins(%3 : tensor<8x64xf32>) outs(%5 : tensor<8xf32>) {
    ^bb0(%in: f32, %out: f32):
      %7 = arith.addf %in, %out : f32
      linalg.yield %7 : f32
    } -> tensor<8xf32>
    iree_tensor_ext.dispatch.tensor.store %6, %arg2, offsets = [0], sizes = [8], strides = [1] : tensor<8xf32> -> !iree_tensor_ext.dispatch.tensor<writeonly:tensor<8xf32>>
    flow.return
  }
  %2 = hal.tensor.export %1 "output0" : tensor<8xf32> -> !hal.buffer_view
  util.return %2 : !hal.buffer_view
}

// -----// IR Dump After MaterializeDefaultWorkgroupCountRegionPass (iree-dispatch-creation-materialize-default-workgroup-count-region) //----- //
util.func public @reduce(%arg0: !hal.buffer_view) -> !hal.buffer_view attributes {iree.abi.stub, iree.reflection = {iree.abi.declaration = "sync func @reduce(%input0: tensor<8x64xf32>) -> (%output0: tensor<8xf32>)"}} {
  %0 = hal.tensor.import %arg0 "input0" : !hal.buffer_view -> tensor<8x64xf32>
  %1 = flow.dispatch.workgroups(%0) : (tensor<8x64xf32>) -> tensor<8xf32> =
      (%arg1: !iree_tensor_ext.dispatch.tensor<readonly:tensor<8x64xf32>>, %arg2: !iree_tensor_ext.dispatch.tensor<writeonly:tensor<8xf32>>) {
    %cst = arith.constant -0.000000e+00 : f32
    %3 = iree_tensor_ext.dispatch.tensor.load %arg1, offsets = [0, 0], sizes = [8, 64], strides = [1, 1] : !iree_tensor_ext.dispatch.tensor<readonly:tensor<8x64xf32>> -> tensor<8x64xf32>
    %4 = tensor.empty() : tensor<8xf32>
    %5 = linalg.fill ins(%cst : f32) outs(%4 : tensor<8xf32>) -> tensor<8xf32>
    %6 = linalg.generic {indexing_maps = [affine_map<(d0, d1) -> (d0, d1)>, affine_map<(d0, d1) -> (d0)>], iterator_types = ["parallel", "reduction"]} ins(%3 : tensor<8x64xf32>) outs(%5 : tensor<8xf32>) {
    ^bb0(%in: f32, %out: f32):
      %7 = arith.addf %in, %out : f32
      linalg.yield %7 : f32
    } -> tensor<8xf32>
    iree_tensor_ext.dispatch.tensor.store %6, %arg2, offsets = [0], sizes = [8], strides = [1] : tensor<8xf32> -> !iree_tensor_ext.dispatch.tensor<writeonly:tensor<8xf32>>
    flow.return
  } count() -> (index, index, index) {
    %x, %y, %z = iree_tensor_ext.dispatch.workgroup_count_from_slice()
    flow.return %x, %y, %z : index, index, index
  }
  %2 = hal.tensor.export %1 "output0" : tensor<8xf32> -> !hal.buffer_view
  util.return %2 : !hal.buffer_view
}

…
    vm.call.variadic @hal.device.queue.execute.indirect(%__device_0, %c-1, %ref_2, %ref_4, %__reduce_memoize_result_0_device_0, %zero, [(%ref, %zero, %c2048), (%ref_3, %zero, %c32)]) : (!vm.ref<!hal.device>, i64, !vm.ref<!hal.fence>, !vm.ref<!hal.fence>, !vm.ref<!hal.command_buffer>, i64, tuple<!vm.ref<!hal.buffer>, i64, i64> ...)
    %0 = vm.call.variadic @hal.fence.await(%c-1_0, %zero, [%ref_4]) : (i32, i64, !vm.ref<!hal.fence> ...) -> i32
    vm.cond_br %0, ^bb2, ^bb1
  ^bb1:  // pred: ^bb0
    %ref_5 = vm.call.variadic @hal.buffer_view.create(%ref_3, %zero, %c32, %c553648160, %c1, [%c8]) {nosideeffects} : (!vm.ref<!hal.buffer>, i64, i64, i32, i32, i64 ...) -> !vm.ref<!hal.buffer_view>
    vm.return %ref_5 : !vm.ref<!hal.buffer_view>
  ^bb2:  // pred: ^bb0
    vm.fail %0, "failed to wait on timepoint"
  }
  vm.export @reduce attributes {iree.abi.stub, iree.reflection = {iree.abi.declaration = "sync func @reduce(%input0: tensor<8x64xf32>) -> (%output0: tensor<8xf32>)"}}
  vm.export @__init
  vm.func private @__init() {
    %c1 = vm.const.i32 1
    %null = vm.const.ref.zero : !vm.buffer
    %c14 = vm.const.i32 14
    %c-1 = vm.const.i64 -1
    %c18 = vm.const.i32 18
    %zero = vm.const.i32.zero
    %zero_0 = vm.const.i64.zero
    %c1_1 = vm.const.i64 1
    %null_2 = vm.const.ref.zero : !vm.ref<!hal.device>
    %0 = vm.call @hal.devices.count() {nosideeffects} : () -> i32
    %1 = vm.ext.i32.i64.s %0 : i32 -> i64
    vm.br ^bb1(%zero_0, %zero_0, %null_2 : i64, i64, !vm.ref<!hal.device>)
  ^bb1(%2: i64, %3: i64, %4: !vm.ref<!hal.device>):  // 2 preds: ^bb0, ^bb4
    %rnz = vm.cmp.nz.ref %4 : !vm.ref<!hal.device>
    %5 = vm.xor.i32 %rnz, %c1 : i32
    %slt = vm.cmp.lt.i64.s %2, %1 : i64
    %6 = vm.and.i32 %5, %slt : i32
    vm.cond_br %6, ^bb2, ^bb5
  ^bb2:  // pred: ^bb1
    %7 = vm.trunc.i64.i32 %2 : i64 -> i32
    %ref = vm.call @hal.devices.get(%7) {nosideeffects} : (i32) -> !vm.ref<!hal.device>
    %_utf8_hal_device_id_C6650FF277232B5A = vm.const.ref.rodata @_utf8_hal_device_id_C6650FF277232B5A : !vm.buffer
    %_utf8_hip_2D25314D056B7F99 = vm.const.ref.rodata @_utf8_hip_2D25314D056B7F99 : !vm.buffer
    %8:2 = vm.call @hal.device.query.i64(%ref, %_utf8_hal_device_id_C6650FF277232B5A, %_utf8_hip_2D25314D056B7F99) {nosideeffects} : (!vm.ref<!hal.device>, !vm.buffer, !vm.buffer) -> (i32, i64)
    %nz = vm.cmp.nz.i64 %8#1 : i64
    %9 = vm.select.i32 %8#0, %nz, %zero : i32
    vm.cond_br %9, ^bb3, ^bb4(%zero : i32)
  ^bb3:  // pred: ^bb2
    %_utf8_hal_executable_format_E03EECB63A2AAF52 = vm.const.ref.rodata @_utf8_hal_executable_format_E03EECB63A2AAF52 : !vm.buffer
    %_utf8_rocm_hsaco_fb_1C72FE9185115983 = vm.const.ref.rodata @_utf8_rocm_hsaco_fb_1C72FE9185115983 : !vm.buffer
    %10:2 = vm.call @hal.device.query.i64(%ref, %_utf8_hal_executable_format_E03EECB63A2AAF52, %_utf8_rocm_hsaco_fb_1C72FE9185115983) {nosideeffects} : (!vm.ref<!hal.device>, !vm.buffer, !vm.buffer) -> (i32, i64)
    %nz_3 = vm.cmp.nz.i64 %10#1 : i64
    %11 = vm.select.i32 %10#0, %nz_3, %zero : i32
    vm.br ^bb4(%11 : i32)
  ^bb4(%12: i32):  // 2 preds: ^bb2, ^bb3
    %eq = vm.cmp.eq.i64 %3, %zero_0 : i64
    %13 = vm.select.i64 %12, %c1_1, %zero_0 : i64
    %14 = vm.add.i64 %3, %13 : i64
    %15 = vm.and.i32 %12, %eq : i32
    %ref_4 = vm.select.ref %15, %ref, %null_2 : !vm.ref<!hal.device>
    %16 = vm.add.i64 %2, %c1_1 : i64
    vm.br ^bb1(%16, %14, %ref_4 : i64, i64, !vm.ref<!hal.device>)
  ^bb5:  // pred: ^bb1
    vm.cond_br %5, ^bb6, ^bb7
  ^bb6:  // pred: ^bb5
    vm.fail %c18, "HAL device `__device_0` not found or unavailable: #hal.device.target<\22hip\22, [#hal.executable.target<\22rocm\22, \22rocm-hsaco-fb\22, {abi = \22hip\22, iree.encoding.resolver = #iree_gpu.gpu_encoding_resolver<>, iree_codegen.default_tuning_spec = #rocm.builtin.tuning_module<\22iree_default_tuning_spec_gfx942.mlir\22>, iree_codegen.target_info = #iree_gpu.target<arch = \22gfx942\22, features = \22\22, wgp = <compute =  fp64|fp32|fp16|int64|int32|int16|int8, storage =  b64|b32|b16|b8, subgroup =  shuffle|arithmetic, dot =  dp4xi8toi32, mma = [<MFMA_F32_16x16x16_BF16>, <MFMA_F32_32x32x8_BF16>, <MFMA_F32_16x16x32_F8E5M2FNUZ>, <MFMA_F32_16x16x32_F8E5M2FNUZ_F8E4M3FNUZ>, <MFMA_F32_16x16x32_F8E4M3FNUZ>, <MFMA_F32_16x16x32_F8E4M3FNUZ_F8E5M2FNUZ>, <MFMA_F32_32x32x16_F8E5M2FNUZ>, <MFMA_F32_32x32x16_F8E5M2FNUZ_F8E4M3FNUZ>, <MFMA_F32_32x32x16_F8E4M3FNUZ>, <MFMA_F32_32x32x16_F8E4M3FNUZ_F8E5M2FNUZ>, <MFMA_I32_16x16x32_I8>, <MFMA_I32_32x32x16_I8>, <MFMA_F64_16x16x4_F64>, <MFMA_F32_16x16x4_F32>, <MFMA_F32_16x16x16_F16>, <MFMA_F32_32x32x8_F16>], subgroup_size_choices = [64], max_workgroup_sizes = [1024, 1024, 1024], max_thread_count_per_workgroup = 1024, max_workgroup_memory_bytes = 65536, max_workgroup_counts = [2147483647, 2147483647, 2147483647], max_load_instruction_bits = 128, simds_per_wgp = 4, vgpr_space_bits = 16384, dma_sizes = [32]>>, ukernels = \22none\22}>]>"
  ^bb7:  // pred: ^bb5
    %_utf8_hal_executable_format_E03EECB63A2AAF52_5 = vm.const.ref.rodata @_utf8_hal_executable_format_E03EECB63A2AAF52 : !vm.buffer
    %_utf8_rocm_hsaco_fb_1C72FE9185115983_6 = vm.const.ref.rodata @_utf8_rocm_hsaco_fb_1C72FE9185115983 : !vm.buffer
    %17:2 = vm.call @hal.device.query.i64(%4, %_utf8_hal_executable_format_E03EECB63A2AAF52_5, %_utf8_rocm_hsaco_fb_1C72FE9185115983_6) {nosideeffects} : (!vm.ref<!hal.device>, !vm.buffer, !vm.buffer) -> (i32, i64)
    %nz_7 = vm.cmp.nz.i64 %17#1 : i64
    %18 = vm.select.i32 %17#0, %nz_7, %zero : i32
    %19 = vm.select.i64 %18, %zero_0, %c-1 : i64
    %eq_8 = vm.cmp.eq.i64 %19, %zero_0 : i64
    vm.global.store.ref %4, @__device_0 : !vm.ref<!hal.device>
    vm.cond_br %eq_8, ^bb8, ^bb9
  ^bb8:  // pred: ^bb7
    %reduce_dispatch_0_rocm_hsaco_fb = vm.const.ref.rodata @reduce_dispatch_0_rocm_hsaco_fb : !vm.buffer
    %ref_9 = vm.call @hal.executable.create(%4, %c-1, %_utf8_rocm_hsaco_fb_1C72FE9185115983_6, %reduce_dispatch_0_rocm_hsaco_fb, %null) {nosideeffects} : (!vm.ref<!hal.device>, i64, !vm.buffer, !vm.buffer, !vm.buffer) -> !vm.ref<!hal.executable>
    vm.global.store.ref %ref_9, @__device_0_executable_0_reduce_dispatch_0 : !vm.ref<!hal.executable>
    %ref_10 = vm.call @__reduce_memoize_apply() : () -> !vm.ref<!hal.command_buffer>
    vm.global.store.ref %ref_10, @__reduce_memoize_result_0_device_0 : !vm.ref<!hal.command_buffer>
    vm.return
  ^bb9:  // pred: ^bb7
    vm.fail %c14, "HAL device `__device_0` does not support any variant of executable `reduce_dispatch_0`; available formats: [rocm-hsaco-fb]"
  }
}

// -----// IR Dump After Canonicalizer (canonicalize) //----- //
vm.module public @module {
  vm.global.ref private mutable @__device_0 : !vm.ref<!hal.device>
  vm.global.ref private mutable @__device_0_executable_0_reduce_dispatch_0 : !vm.ref<!hal.executable>
  vm.global.ref private mutable @__reduce_memoize_result_0_device_0 : !vm.ref<!hal.command_buffer>
  vm.rodata private @_utf8_hal_device_id_C6650FF277232B5A {alignment = 1 : i64} "hal.device.id"
  vm.rodata private @_utf8_hip_2D25314D056B7F99 {alignment = 1 : i64} "hip"
  vm.rodata private @_utf8_hal_executable_format_E03EECB63A2AAF52 {alignment = 1 : i64} "hal.executable.format"
  vm.rodata private @_utf8_rocm_hsaco_fb_1C72FE9185115983 {alignment = 1 : i64} "rocm-hsaco-fb"
  vm.rodata private @reduce_dispatch_0_rocm_hsaco_fb {alignment = 16 : i64, mime_type = "application/x-flatbuffers"} dense<"…"> : vector<5408xi8>
  vm.func private @__reduce_memoize_apply() -> !vm.ref<!hal.command_buffer> attributes {inlining_policy = #util.inline.never} {
    %c13 = vm.const.i32 13
    %c28 = vm.const.i32 28
    %null = vm.const.ref.zero : !vm.ref<!hal.buffer>
    %c1 = vm.const.i32 1
    %c8 = vm.const.i32 8
    %c2 = vm.const.i32 2
    %c3 = vm.const.i32 3
    %zero = vm.const.i32.zero
    %c32 = vm.const.i64 32
    %c2048 = vm.const.i64 2048
    %zero_0 = vm.const.i64.zero
    %c-1 = vm.const.i64 -1
    %__device_0 = vm.global.load.ref @__device_0 : !vm.ref<!hal.device>
    %__device_0_executable_0_reduce_dispatch_0 = vm.global.load.ref @__device_0_executable_0_reduce_dispatch_0 : !vm.ref<!hal.executable>
    %ref = vm.call @hal.command_buffer.create(%__device_0, %zero, %c3, %c-1, %c2) : (!vm.ref<!hal.device>, i32, i32, i64, i32) -> !vm.ref<!hal.command_buffer>
    vm.call.variadic @hal.command_buffer.dispatch(%ref, %__device_0_executable_0_reduce_dispatch_0, %zero, %c8, %c1, %c1, %zero_0, [], [(%zero, %zero, %null, %zero_0, %c2048), (%zero, %c1, %null, %zero_0, %c32)]) : (!vm.ref<!hal.command_buffer>, !vm.ref<!hal.executable>, i32, i32, i32, i32, i64, i32 ..., tuple<i32, i32, !vm.ref<!hal.buffer>, i64, i64> ...)
    vm.call @hal.command_buffer.execution_barrier(%ref, %c28, %c13, %zero_0) : (!vm.ref<!hal.command_buffer>, i32, i32, i64) -> ()
    vm.call @hal.command_buffer.finalize(%ref) : (!vm.ref<!hal.command_buffer>) -> ()
    vm.return %ref : !vm.ref<!hal.command_buffer>
  }
  vm.import private @hal.buffer.assert(%buffer : !vm.ref<!hal.buffer>, %message : !vm.buffer, %allocator : !vm.ref<!hal.allocator>, %minimum_length : i64, %memory_types : i32, %buffer_usage : i32)
  vm.import private @hal.buffer_view.create(%buffer : !vm.ref<!hal.buffer>, %source_offset : i64, %source_length : i64, %element_type : i32, %encoding_type : i32, %shape : i64 ...) -> !vm.ref<!hal.buffer_view> attributes {nosideeffects}
  vm.import private @hal.buffer_view.assert(%buffer_view : !vm.ref<!hal.buffer_view>, %message : !vm.buffer, %element_type : i32, %encoding_type : i32, %shape : i64 ...)
  vm.import private @hal.buffer_view.buffer(%buffer_view : !vm.ref<!hal.buffer_view>) -> !vm.ref<!hal.buffer> attributes {nosideeffects}
  vm.import private @hal.command_buffer.create(%device : !vm.ref<!hal.device>, %modes : i32, %command_categories : i32, %queue_affinity : i64, %binding_capacity : i32) -> !vm.ref<!hal.command_buffer> attributes {minimum_version = 6 : i32}
  vm.import private @hal.command_buffer.finalize(%command_buffer : !vm.ref<!hal.command_buffer>)
  vm.import private @hal.command_buffer.execution_barrier(%command_buffer : !vm.ref<!hal.command_buffer>, %source_stage_mask : i32, %target_stage_mask : i32, %flags : i64)
  vm.import private @hal.command_buffer.dispatch(%command_buffer : !vm.ref<!hal.command_buffer>, %executable : !vm.ref<!hal.executable>, %entry_point : i32, %workgroup_x : i32, %workgroup_y : i32, %workgroup_z : i32, %flags : i64, %constants : i32 ..., %bindings : tuple<i32, i32, !vm.ref<!hal.buffer>, i64, i64> ...)
  vm.import private @hal.device.allocator(%device : !vm.ref<!hal.device>) -> !vm.ref<!hal.allocator> attributes {nosideeffects}
  vm.import private @hal.device.query.i64(%device : !vm.ref<!hal.device>, %category : !vm.buffer, %key : !vm.buffer) -> (i32, i64) attributes {nosideeffects}
  vm.import private @hal.device.queue.alloca(%device : !vm.ref<!hal.device>, %queue_affinity : i64, %wait_fence : !vm.ref<!hal.fence>, %signal_fence : !vm.ref<!hal.fence>, %pool : i64, %memory_types : i32, %buffer_usage : i32, %allocation_size : i64, %flags : i64) -> !vm.ref<!hal.buffer>
  vm.import private @hal.device.queue.execute.indirect(%device : !vm.ref<!hal.device>, %queue_affinity : i64, %wait_fence : !vm.ref<!hal.fence>, %signal_fence : !vm.ref<!hal.fence>, %command_buffer : !vm.ref<!hal.command_buffer>, %flags : i64, %binding_table : tuple<!vm.ref<!hal.buffer>, i64, i64> ...)
  vm.import private @hal.devices.count() -> i32 attributes {nosideeffects}
  vm.import private @hal.devices.get(%index : i32) -> !vm.ref<!hal.device> attributes {nosideeffects}
  vm.import private @hal.executable.create(%device : !vm.ref<!hal.device>, %queue_affinity : i64, %executable_format : !vm.buffer, %executable_data : !vm.buffer, %constants : !vm.buffer) -> !vm.ref<!hal.executable> attributes {nosideeffects}
  vm.import private @hal.fence.create(%device : !vm.ref<!hal.device>, %flags : i64) -> !vm.ref<!hal.fence>
  vm.import private @hal.fence.await(%timeout_millis : i32, %flags : i64, %fences : !vm.ref<!hal.fence> ...) -> i32 attributes {vm.yield}
  vm.rodata private @_utf8_input0_DCE99660CEB3F6B {alignment = 1 : i64} "input0"
  vm.rodata private @_utf8_tensor_FC1814BC4A58F22A {alignment = 1 : i64} "tensor"
  vm.func private @reduce(%arg0: !vm.ref<!hal.buffer_view>) -> !vm.ref<!hal.buffer_view> attributes {iree.reflection = {iree.abi.declaration = "sync func @reduce(%input0: tensor<8x64xf32>) -> (%output0: tensor<8xf32>)"}} {
    %c16 = vm.const.i32 16
    %c1 = vm.const.i32 1
    %c553648160 = vm.const.i32 553648160
    %c3075 = vm.const.i32 3075
    %c48 = vm.const.i32 48
    %c8 = vm.const.i64 8
    %c64 = vm.const.i64 64
    %c2048 = vm.const.i64 2048
    %c32 = vm.const.i64 32
    %zero = vm.const.i64.zero
    %c-1 = vm.const.i64 -1
    %null = vm.const.ref.zero : !vm.ref<!hal.fence>
    %c-1_0 = vm.const.i32 -1
    %__device_0 = vm.global.load.ref @__device_0 : !vm.ref<!hal.device>
    %__reduce_memoize_result_0_device_0 = vm.global.load.ref @__reduce_memoize_result_0_device_0 : !vm.ref<!hal.command_buffer>
    %_utf8_input0_DCE99660CEB3F6B = vm.const.ref.rodata @_utf8_input0_DCE99660CEB3F6B : !vm.buffer
    vm.call.variadic @hal.buffer_view.assert(%arg0, %_utf8_input0_DCE99660CEB3F6B, %c553648160, %c1, [%c8, %c64]) : (!vm.ref<!hal.buffer_view>, !vm.buffer, i32, i32, i64 ...)
    %ref = vm.call @hal.buffer_view.buffer(%arg0) {nosideeffects} : (!vm.ref<!hal.buffer_view>) -> !vm.ref<!hal.buffer>
    %ref_1 = vm.call @hal.device.allocator(%__device_0) {nosideeffects} : (!vm.ref<!hal.device>) -> !vm.ref<!hal.allocator>
    %_utf8_tensor_FC1814BC4A58F22A = vm.const.ref.rodata @_utf8_tensor_FC1814BC4A58F22A : !vm.buffer
    vm.call @hal.buffer.assert(%ref, %_utf8_tensor_FC1814BC4A58F22A, %ref_1, %c2048, %c16, %c3075) : (!vm.ref<!hal.buffer>, !vm.buffer, !vm.ref<!hal.allocator>, i64, i32, i32) -> ()
    %ref_2 = vm.call @hal.fence.create(%__device_0, %zero) : (!vm.ref<!hal.device>, i64) -> !vm.ref<!hal.fence>
    %ref_3 = vm.call @hal.device.queue.alloca(%__device_0, %c-1, %null, %ref_2, %zero, %c48, %c3075, %c32, %zero) : (!vm.ref<!hal.device>, i64, !vm.ref<!hal.fence>, !vm.ref<!hal.fence>, i64, i32, i32, i64, i64) -> !vm.ref<!hal.buffer>
    %ref_4 = vm.call @hal.fence.create(%__device_0, %zero) : (!vm.ref<!hal.device>, i64) -> !vm.ref<!hal.fence>
    vm.call.variadic @hal.device.queue.execute.indirect(%__device_0, %c-1, %ref_2, %ref_4, %__reduce_memoize_result_0_device_0, %zero, [(%ref, %zero, %c2048), (%ref_3, %zero, %c32)]) : (!vm.ref<!hal.device>, i64, !vm.ref<!hal.fence>, !vm.ref<!hal.fence>, !vm.ref<!hal.command_buffer>, i64, tuple<!vm.ref<!hal.buffer>, i64, i64> ...)
    %0 = vm.call.variadic @hal.fence.await(%c-1_0, %zero, [%ref_4]) : (i32, i64, !vm.ref<!hal.fence> ...) -> i32
    vm.cond_br %0, ^bb2, ^bb1
  ^bb1:  // pred: ^bb0
    %ref_5 = vm.call.variadic @hal.buffer_view.create(%ref_3, %zero, %c32, %c553648160, %c1, [%c8]) {nosideeffects} : (!vm.ref<!hal.buffer>, i64, i64, i32, i32, i64 ...) -> !vm.ref<!hal.buffer_view>
    vm.return %ref_5 : !vm.ref<!hal.buffer_view>
  ^bb2:  // pred: ^bb0
    vm.fail %0, "failed to wait on timepoint"
  }
  vm.export @reduce attributes {iree.abi.stub, iree.reflection = {iree.abi.declaration = "sync func @reduce(%input0: tensor<8x64xf32>) -> (%output0: tensor<8xf32>)"}}
  vm.export @__init
  vm.func private @__init() {
    %c1 = vm.const.i32 1
    %null = vm.const.ref.zero : !vm.buffer
    %c14 = vm.const.i32 14
    %c-1 = vm.const.i64 -1
    %c18 = vm.const.i32 18
    %zero = vm.const.i32.zero
    %zero_0 = vm.const.i64.zero
    %c1_1 = vm.const.i64 1
    %null_2 = vm.const.ref.zero : !vm.ref<!hal.device>
    %0 = vm.call @hal.devices.count() {nosideeffects} : () -> i32
    %1 = vm.ext.i32.i64.s %0 : i32 -> i64
    vm.br ^bb1(%zero_0, %zero_0, %null_2 : i64, i64, !vm.ref<!hal.device>)
  ^bb1(%2: i64, %3: i64, %4: !vm.ref<!hal.device>):  // 2 preds: ^bb0, ^bb4
    %rnz = vm.cmp.nz.ref %4 : !vm.ref<!hal.device>
    %5 = vm.xor.i32 %rnz, %c1 : i32
    %slt = vm.cmp.lt.i64.s %2, %1 : i64
    %6 = vm.and.i32 %5, %slt : i32
    vm.cond_br %6, ^bb2, ^bb5
  ^bb2:  // pred: ^bb1
    %7 = vm.trunc.i64.i32 %2 : i64 -> i32
    %ref = vm.call @hal.devices.get(%7) {nosideeffects} : (i32) -> !vm.ref<!hal.device>
    %_utf8_hal_device_id_C6650FF277232B5A = vm.const.ref.rodata @_utf8_hal_device_id_C6650FF277232B5A : !vm.buffer
    %_utf8_hip_2D25314D056B7F99 = vm.const.ref.rodata @_utf8_hip_2D25314D056B7F99 : !vm.buffer
    %8:2 = vm.call @hal.device.query.i64(%ref, %_utf8_hal_device_id_C6650FF277232B5A, %_utf8_hip_2D25314D056B7F99) {nosideeffects} : (!vm.ref<!hal.device>, !vm.buffer, !vm.buffer) -> (i32, i64)
    %nz = vm.cmp.nz.i64 %8#1 : i64
    %9 = vm.select.i32 %8#0, %nz, %zero : i32
    vm.cond_br %9, ^bb3, ^bb4(%zero : i32)
  ^bb3:  // pred: ^bb2
    %_utf8_hal_executable_format_E03EECB63A2AAF52 = vm.const.ref.rodata @_utf8_hal_executable_format_E03EECB63A2AAF52 : !vm.buffer
    %_utf8_rocm_hsaco_fb_1C72FE9185115983 = vm.const.ref.rodata @_utf8_rocm_hsaco_fb_1C72FE9185115983 : !vm.buffer
    %10:2 = vm.call @hal.device.query.i64(%ref, %_utf8_hal_executable_format_E03EECB63A2AAF52, %_utf8_rocm_hsaco_fb_1C72FE9185115983) {nosideeffects} : (!vm.ref<!hal.device>, !vm.buffer, !vm.buffer) -> (i32, i64)
    %nz_3 = vm.cmp.nz.i64 %10#1 : i64
    %11 = vm.select.i32 %10#0, %nz_3, %zero : i32
    vm.br ^bb4(%11 : i32)
  ^bb4(%12: i32):  // 2 preds: ^bb2, ^bb3
    %eq = vm.cmp.eq.i64 %3, %zero_0 : i64
    %13 = vm.select.i64 %12, %c1_1, %zero_0 : i64
    %14 = vm.add.i64 %3, %13 : i64
    %15 = vm.and.i32 %12, %eq : i32
    %ref_4 = vm.select.ref %15, %ref, %null_2 : !vm.ref<!hal.device>
    %16 = vm.add.i64 %2, %c1_1 : i64
    vm.br ^bb1(%16, %14, %ref_4 : i64, i64, !vm.ref<!hal.device>)
  ^bb5:  // pred: ^bb1
    vm.cond_br %5, ^bb6, ^bb7
  ^bb6:  // pred: ^bb5
    vm.fail %c18, "HAL device `__device_0` not found or unavailable: #hal.device.target<\22hip\22, [#hal.executable.target<\22rocm\22, \22rocm-hsaco-fb\22, {abi = \22hip\22, iree.encoding.resolver = #iree_gpu.gpu_encoding_resolver<>, iree_codegen.default_tuning_spec = #rocm.builtin.tuning_module<\22iree_default_tuning_spec_gfx942.mlir\22>, iree_codegen.target_info = #iree_gpu.target<arch = \22gfx942\22, features = \22\22, wgp = <compute =  fp64|fp32|fp16|int64|int32|int16|int8, storage =  b64|b32|b16|b8, subgroup =  shuffle|arithmetic, dot =  dp4xi8toi32, mma = [<MFMA_F32_16x16x16_BF16>, <MFMA_F32_32x32x8_BF16>, <MFMA_F32_16x16x32_F8E5M2FNUZ>, <MFMA_F32_16x16x32_F8E5M2FNUZ_F8E4M3FNUZ>, <MFMA_F32_16x16x32_F8E4M3FNUZ>, <MFMA_F32_16x16x32_F8E4M3FNUZ_F8E5M2FNUZ>, <MFMA_F32_32x32x16_F8E5M2FNUZ>, <MFMA_F32_32x32x16_F8E5M2FNUZ_F8E4M3FNUZ>, <MFMA_F32_32x32x16_F8E4M3FNUZ>, <MFMA_F32_32x32x16_F8E4M3FNUZ_F8E5M2FNUZ>, <MFMA_I32_16x16x32_I8>, <MFMA_I32_32x32x16_I8>, <MFMA_F64_16x16x4_F64>, <MFMA_F32_16x16x4_F32>, <MFMA_F32_16x16x16_F16>, <MFMA_F32_32x32x8_F16>], subgroup_size_choices = [64], max_workgroup_sizes = [1024, 1024, 1024], max_thread_count_per_workgroup = 1024, max_workgroup_memory_bytes = 65536, max_workgroup_counts = [2147483647, 2147483647, 2147483647], max_load_instruction_bits = 128, simds_per_wgp = 4, vgpr_space_bits = 16384, dma_sizes = [32]>>, ukernels = \22none\22}>]>"
  ^bb7:  // pred: ^bb5
    %_utf8_hal_executable_format_E03EECB63A2AAF52_5 = vm.const.ref.rodata @_utf8_hal_executable_format_E03EECB63A2AAF52 : !vm.buffer
    %_utf8_rocm_hsaco_fb_1C72FE9185115983_6 = vm.const.ref.rodata @_utf8_rocm_hsaco_fb_1C72FE9185115983 : !vm.buffer
    %17:2 = vm.call @hal.device.query.i64(%4, %_utf8_hal_executable_format_E03EECB63A2AAF52_5, %_utf8_rocm_hsaco_fb_1C72FE9185115983_6) {nosideeffects} : (!vm.ref<!hal.device>, !vm.buffer, !vm.buffer) -> (i32, i64)
    %nz_7 = vm.cmp.nz.i64 %17#1 : i64
    %18 = vm.select.i32 %17#0, %nz_7, %zero : i32
    %19 = vm.select.i64 %18, %zero_0, %c-1 : i64
    %eq_8 = vm.cmp.eq.i64 %19, %zero_0 : i64
    vm.global.store.ref %4, @__device_0 : !vm.ref<!hal.device>
    vm.cond_br %eq_8, ^bb8, ^bb9
  ^bb8:  // pred: ^bb7
    %reduce_dispatch_0_rocm_hsaco_fb = vm.const.ref.rodata @reduce_dispatch_0_rocm_hsaco_fb : !vm.buffer
    %ref_9 = vm.call @hal.executable.create(%4, %c-1, %_utf8_rocm_hsaco_fb_1C72FE9185115983_6, %reduce_dispatch_0_rocm_hsaco_fb, %null) {nosideeffects} : (!vm.ref<!hal.device>, i64, !vm.buffer, !vm.buffer, !vm.buffer) -> !vm.ref<!hal.executable>
    vm.global.store.ref %ref_9, @__device_0_executable_0_reduce_dispatch_0 : !vm.ref<!hal.executable>
    %ref_10 = vm.call @__reduce_memoize_apply() : () -> !vm.ref<!hal.command_buffer>
    vm.global.store.ref %ref_10, @__reduce_memoize_result_0_device_0 : !vm.ref<!hal.command_buffer>
    vm.return
  ^bb9:  // pred: ^bb7
    vm.fail %c14, "HAL device `__device_0` does not support any variant of executable `reduce_dispatch_0`; available formats: [rocm-hsaco-fb]"
  }
}

// -----// IR Dump After DropCompilerHintsPass (iree-util-drop-compiler-hints) //----- //
vm.module public @module {
  vm.global.ref private mutable @__device_0 : !vm.ref<!hal.device>
  vm.global.ref private mutable @__device_0_executable_0_reduce_dispatch_0 : !vm.ref<!hal.executable>
  vm.global.ref private mutable @__reduce_memoize_result_0_device_0 : !vm.ref<!hal.command_buffer>
  vm.rodata private @_utf8_hal_device_id_C6650FF277232B5A {alignment = 1 : i64} "hal.device.id"
  vm.rodata private @_utf8_hip_2D25314D056B7F99 {alignment = 1 : i64} "hip"
  vm.rodata private @_utf8_hal_executable_format_E03EECB63A2AAF52 {alignment = 1 : i64} "hal.executable.format"
  vm.rodata private @_utf8_rocm_hsaco_fb_1C72FE9185115983 {alignment = 1 : i64} "rocm-hsaco-fb"
  vm.rodata private @reduce_dispatch_0_rocm_hsaco_fb {alignment = 16 : i64, mime_type = "application/x-flatbuffers"} dense<"…"> : vector<5408xi8>
  vm.func private @__reduce_memoize_apply() -> !vm.ref<!hal.command_buffer> attributes {inlining_policy = #util.inline.never} {
    %c13 = vm.const.i32 13
    %c28 = vm.const.i32 28
    %null = vm.const.ref.zero : !vm.ref<!hal.buffer>
    %c1 = vm.const.i32 1
    %c8 = vm.const.i32 8
    %c2 = vm.const.i32 2
    %c3 = vm.const.i32 3
    %zero = vm.const.i32.zero
    %c32 = vm.const.i64 32
    %c2048 = vm.const.i64 2048
    %zero_0 = vm.const.i64.zero
    %c-1 = vm.const.i64 -1
    %__device_0 = vm.global.load.ref @__device_0 : !vm.ref<!hal.device>
    %__device_0_executable_0_reduce_dispatch_0 = vm.global.load.ref @__device_0_executable_0_reduce_dispatch_0 : !vm.ref<!hal.executable>
    %ref = vm.call @hal.command_buffer.create(%__device_0, %zero, %c3, %c-1, %c2) : (!vm.ref<!hal.device>, i32, i32, i64, i32) -> !vm.ref<!hal.command_buffer>
    vm.call.variadic @hal.command_buffer.dispatch(%ref, %__device_0_executable_0_reduce_dispatch_0, %zero, %c8, %c1, %c1, %zero_0, [], [(%zero, %zero, %null, %zero_0, %c2048), (%zero, %c1, %null, %zero_0, %c32)]) : (!vm.ref<!hal.command_buffer>, !vm.ref<!hal.executable>, i32, i32, i32, i32, i64, i32 ..., tuple<i32, i32, !vm.ref<!hal.buffer>, i64, i64> ...)
    vm.call @hal.command_buffer.execution_barrier(%ref, %c28, %c13, %zero_0) : (!vm.ref<!hal.command_buffer>, i32, i32, i64) -> ()
    vm.call @hal.command_buffer.finalize(%ref) : (!vm.ref<!hal.command_buffer>) -> ()
    vm.return %ref : !vm.ref<!hal.command_buffer>
  }
  vm.import private @hal.buffer.assert(%buffer : !vm.ref<!hal.buffer>, %message : !vm.buffer, %allocator : !vm.ref<!hal.allocator>, %minimum_length : i64, %memory_types : i32, %buffer_usage : i32)
  vm.import private @hal.buffer_view.create(%buffer : !vm.ref<!hal.buffer>, %source_offset : i64, %source_length : i64, %element_type : i32, %encoding_type : i32, %shape : i64 ...) -> !vm.ref<!hal.buffer_view> attributes {nosideeffects}
  vm.import private @hal.buffer_view.assert(%buffer_view : !vm.ref<!hal.buffer_view>, %message : !vm.buffer, %element_type : i32, %encoding_type : i32, %shape : i64 ...)
  vm.import private @hal.buffer_view.buffer(%buffer_view : !vm.ref<!hal.buffer_view>) -> !vm.ref<!hal.buffer> attributes {nosideeffects}
  vm.import private @hal.command_buffer.create(%device : !vm.ref<!hal.device>, %modes : i32, %command_categories : i32, %queue_affinity : i64, %binding_capacity : i32) -> !vm.ref<!hal.command_buffer> attributes {minimum_version = 6 : i32}
  vm.import private @hal.command_buffer.finalize(%command_buffer : !vm.ref<!hal.command_buffer>)
  vm.import private @hal.command_buffer.execution_barrier(%command_buffer : !vm.ref<!hal.command_buffer>, %source_stage_mask : i32, %target_stage_mask : i32, %flags : i64)
  vm.import private @hal.command_buffer.dispatch(%command_buffer : !vm.ref<!hal.command_buffer>, %executable : !vm.ref<!hal.executable>, %entry_point : i32, %workgroup_x : i32, %workgroup_y : i32, %workgroup_z : i32, %flags : i64, %constants : i32 ..., %bindings : tuple<i32, i32, !vm.ref<!hal.buffer>, i64, i64> ...)
  vm.import private @hal.device.allocator(%device : !vm.ref<!hal.device>) -> !vm.ref<!hal.allocator> attributes {nosideeffects}
  vm.import private @hal.device.query.i64(%device : !vm.ref<!hal.device>, %category : !vm.buffer, %key : !vm.buffer) -> (i32, i64) attributes {nosideeffects}
  vm.import private @hal.device.queue.alloca(%device : !vm.ref<!hal.device>, %queue_affinity : i64, %wait_fence : !vm.ref<!hal.fence>, %signal_fence : !vm.ref<!hal.fence>, %pool : i64, %memory_types : i32, %buffer_usage : i32, %allocation_size : i64, %flags : i64) -> !vm.ref<!hal.buffer>
  vm.import private @hal.device.queue.execute.indirect(%device : !vm.ref<!hal.device>, %queue_affinity : i64, %wait_fence : !vm.ref<!hal.fence>, %signal_fence : !vm.ref<!hal.fence>, %command_buffer : !vm.ref<!hal.command_buffer>, %flags : i64, %binding_table : tuple<!vm.ref<!hal.buffer>, i64, i64> ...)
  vm.import private @hal.devices.count() -> i32 attributes {nosideeffects}
  vm.import private @hal.devices.get(%index : i32) -> !vm.ref<!hal.device> attributes {nosideeffects}
  vm.import private @hal.executable.create(%device : !vm.ref<!hal.device>, %queue_affinity : i64, %executable_format : !vm.buffer, %executable_data : !vm.buffer, %constants : !vm.buffer) -> !vm.ref<!hal.executable> attributes {nosideeffects}
  vm.import private @hal.fence.create(%device : !vm.ref<!hal.device>, %flags : i64) -> !vm.ref<!hal.fence>
  vm.import private @hal.fence.await(%timeout_millis : i32, %flags : i64, %fences : !vm.ref<!hal.fence> ...) -> i32 attributes {vm.yield}
  vm.rodata private @_utf8_input0_DCE99660CEB3F6B {alignment = 1 : i64} "input0"
  vm.rodata private @_utf8_tensor_FC1814BC4A58F22A {alignment = 1 : i64} "tensor"
  vm.func private @reduce(%arg0: !vm.ref<!hal.buffer_view>) -> !vm.ref<!hal.buffer_view> attributes {iree.reflection = {iree.abi.declaration = "sync func @reduce(%input0: tensor<8x64xf32>) -> (%output0: tensor<8xf32>)"}} {
    %c16 = vm.const.i32 16
    %c1 = vm.const.i32 1
    %c553648160 = vm.const.i32 553648160
    %c3075 = vm.const.i32 3075
    %c48 = vm.const.i32 48
    %c8 = vm.const.i64 8
    %c64 = vm.const.i64 64
    %c2048 = vm.const.i64 2048
    %c32 = vm.const.i64 32
    %zero = vm.const.i64.zero
    %c-1 = vm.const.i64 -1
    %null = vm.const.ref.zero : !vm.ref<!hal.fence>
    %c-1_0 = vm.const.i32 -1
    %__device_0 = vm.global.load.ref @__device_0 : !vm.ref<!hal.device>
    %__reduce_memoize_result_0_device_0 = vm.global.load.ref @__reduce_memoize_result_0_device_0 : !vm.ref<!hal.command_buffer>
    %_utf8_input0_DCE99660CEB3F6B = vm.const.ref.rodata @_utf8_input0_DCE99660CEB3F6B : !vm.buffer
    vm.call.variadic @hal.buffer_view.assert(%arg0, %_utf8_input0_DCE99660CEB3F6B, %c553648160, %c1, [%c8, %c64]) : (!vm.ref<!hal.buffer_view>, !vm.buffer, i32, i32, i64 ...)
    %ref = vm.call @hal.buffer_view.buffer(%arg0) {nosideeffects} : (!vm.ref<!hal.buffer_view>) -> !vm.ref<!hal.buffer>
    %ref_1 = vm.call @hal.device.allocator(%__device_0) {nosideeffects} : (!vm.ref<!hal.device>) -> !vm.ref<!hal.allocator>
    %_utf8_tensor_FC1814BC4A58F22A = vm.const.ref.rodata @_utf8_tensor_FC1814BC4A58F22A : !vm.buffer
    vm.call @hal.buffer.assert(%ref, %_utf8_tensor_FC1814BC4A58F22A, %ref_1, %c2048, %c16, %c3075) : (!vm.ref<!hal.buffer>, !vm.buffer, !vm.ref<!hal.allocator>, i64, i32, i32) -> ()
    %ref_2 = vm.call @hal.fence.create(%__device_0, %zero) : (!vm.ref<!hal.device>, i64) -> !vm.ref<!hal.fence>
    %ref_3 = vm.call @hal.device.queue.alloca(%__device_0, %c-1, %null, %ref_2, %zero, %c48, %c3075, %c32, %zero) : (!vm.ref<!hal.device>, i64, !vm.ref<!hal.fence>, !vm.ref<!hal.fence>, i64, i32, i32, i64, i64) -> !vm.ref<!hal.buffer>
    %ref_4 = vm.call @hal.fence.create(%__device_0, %zero) : (!vm.ref<!hal.device>, i64) -> !vm.ref<!hal.fence>
    vm.call.variadic @hal.device.queue.execute.indirect(%__device_0, %c-1, %ref_2, %ref_4, %__reduce_memoize_result_0_device_0, %zero, [(%ref, %zero, %c2048), (%ref_3, %zero, %c32)]) : (!vm.ref<!hal.device>, i64, !vm.ref<!hal.fence>, !vm.ref<!hal.fence>, !vm.ref<!hal.command_buffer>, i64, tuple<!vm.ref<!hal.buffer>, i64, i64> ...)
    %0 = vm.call.variadic @hal.fence.await(%c-1_0, %zero, [%ref_4]) : (i32, i64, !vm.ref<!hal.fence> ...) -> i32
    vm.cond_br %0, ^bb2, ^bb1
  ^bb1:  // pred: ^bb0
    %ref_5 = vm.call.variadic @hal.buffer_view.create(%ref_3, %zero, %c32, %c553648160, %c1, [%c8]) {nosideeffects} : (!vm.ref<!hal.buffer>, i64, i64, i32, i32, i64 ...) -> !vm.ref<!hal.buffer_view>
    vm.return %ref_5 : !vm.ref<!hal.buffer_view>
  ^bb2:  // pred: ^bb0
    vm.fail %0, "failed to wait on timepoint"
  }
  vm.export @reduce attributes {iree.abi.stub, iree.reflection = {iree.abi.declaration = "sync func @reduce(%input0: tensor<8x64xf32>) -> (%output0: tensor<8xf32>)"}}
  vm.export @__init
  vm.func private @__init() {
    %c1 = vm.const.i32 1
    %null = vm.const.ref.zero : !vm.buffer
    %c14 = vm.const.i32 14
    %c-1 = vm.const.i64 -1
    %c18 = vm.const.i32 18
    %zero = vm.const.i32.zero
    %zero_0 = vm.const.i64.zero
    %c1_1 = vm.const.i64 1
    %null_2 = vm.const.ref.zero : !vm.ref<!hal.device>
    %0 = vm.call @hal.devices.count() {nosideeffects} : () -> i32
    %1 = vm.ext.i32.i64.s %0 : i32 -> i64
    vm.br ^bb1(%zero_0, %zero_0, %null_2 : i64, i64, !vm.ref<!hal.device>)
  ^bb1(%2: i64, %3: i64, %4: !vm.ref<!hal.device>):  // 2 preds: ^bb0, ^bb4
    %rnz = vm.cmp.nz.ref %4 : !vm.ref<!hal.device>
    %5 = vm.xor.i32 %rnz, %c1 : i32
    %slt = vm.cmp.lt.i64.s %2, %1 : i64
    %6 = vm.and.i32 %5, %slt : i32
    vm.cond_br %6, ^bb2, ^bb5
  ^bb2:  // pred: ^bb1
    %7 = vm.trunc.i64.i32 %2 : i64 -> i32
    %ref = vm.call @hal.devices.get(%7) {nosideeffects} : (i32) -> !vm.ref<!hal.device>
    %_utf8_hal_device_id_C6650FF277232B5A = vm.const.ref.rodata @_utf8_hal_device_id_C6650FF277232B5A : !vm.buffer
    %_utf8_hip_2D25314D056B7F99 = vm.const.ref.rodata @_utf8_hip_2D25314D056B7F99 : !vm.buffer
    %8:2 = vm.call @hal.device.query.i64(%ref, %_utf8_hal_device_id_C6650FF277232B5A, %_utf8_hip_2D25314D056B7F99) {nosideeffects} : (!vm.ref<!hal.device>, !vm.buffer, !vm.buffer) -> (i32, i64)
    %nz = vm.cmp.nz.i64 %8#1 : i64
    %9 = vm.select.i32 %8#0, %nz, %zero : i32
    vm.cond_br %9, ^bb3, ^bb4(%zero : i32)
  ^bb3:  // pred: ^bb2
    %_utf8_hal_executable_format_E03EECB63A2AAF52 = vm.const.ref.rodata @_utf8_hal_executable_format_E03EECB63A2AAF52 : !vm.buffer
    %_utf8_rocm_hsaco_fb_1C72FE9185115983 = vm.const.ref.rodata @_utf8_rocm_hsaco_fb_1C72FE9185115983 : !vm.buffer
    %10:2 = vm.call @hal.device.query.i64(%ref, %_utf8_hal_executable_format_E03EECB63A2AAF52, %_utf8_rocm_hsaco_fb_1C72FE9185115983) {nosideeffects} : (!vm.ref<!hal.device>, !vm.buffer, !vm.buffer) -> (i32, i64)
    %nz_3 = vm.cmp.nz.i64 %10#1 : i64
    %11 = vm.select.i32 %10#0, %nz_3, %zero : i32
    vm.br ^bb4(%11 : i32)
  ^bb4(%12: i32):  // 2 preds: ^bb2, ^bb3
    %eq = vm.cmp.eq.i64 %3, %zero_0 : i64
    %13 = vm.select.i64 %12, %c1_1, %zero_0 : i64
    %14 = vm.add.i64 %3, %13 : i64
    %15 = vm.and.i32 %12, %eq : i32
    %ref_4 = vm.select.ref %15, %ref, %null_2 : !vm.ref<!hal.device>
    %16 = vm.add.i64 %2, %c1_1 : i64
    vm.br ^bb1(%16, %14, %ref_4 : i64, i64, !vm.ref<!hal.device>)
  ^bb5:  // pred: ^bb1
    vm.cond_br %5, ^bb6, ^bb7
  ^bb6:  // pred: ^bb5
    vm.fail %c18, "HAL device `__device_0` not found or unavailable: #hal.device.target<\22hip\22, [#hal.executable.target<\22rocm\22, \22rocm-hsaco-fb\22, {abi = \22hip\22, iree.encoding.resolver = #iree_gpu.gpu_encoding_resolver<>, iree_codegen.default_tuning_spec = #rocm.builtin.tuning_module<\22iree_default_tuning_spec_gfx942.mlir\22>, iree_codegen.target_info = #iree_gpu.target<arch = \22gfx942\22, features = \22\22, wgp = <compute =  fp64|fp32|fp16|int64|int32|int16|int8, storage =  b64|b32|b16|b8, subgroup =  shuffle|arithmetic, dot =  dp4xi8toi32, mma = [<MFMA_F32_16x16x16_BF16>, <MFMA_F32_32x32x8_BF16>, <MFMA_F32_16x16x32_F8E5M2FNUZ>, <MFMA_F32_16x16x32_F8E5M2FNUZ_F8E4M3FNUZ>, <MFMA_F32_16x16x32_F8E4M3FNUZ>, <MFMA_F32_16x16x32_F8E4M3FNUZ_F8E5M2FNUZ>, <MFMA_F32_32x32x16_F8E5M2FNUZ>, <MFMA_F32_32x32x16_F8E5M2FNUZ_F8E4M3FNUZ>, <MFMA_F32_32x32x16_F8E4M3FNUZ>, <MFMA_F32_32x32x16_F8E4M3FNUZ_F8E5M2FNUZ>, <MFMA_I32_16x16x32_I8>, <MFMA_I32_32x32x16_I8>, <MFMA_F64_16x16x4_F64>, <MFMA_F32_16x16x4_F32>, <MFMA_F32_16x16x16_F16>, <MFMA_F32_32x32x8_F16>], subgroup_size_choices = [64], max_workgroup_sizes = [1024, 1024, 1024], max_thread_count_per_workgroup = 1024, max_workgroup_memory_bytes = 65536, max_workgroup_counts = [2147483647, 2147483647, 2147483647], max_load_instruction_bits = 128, simds_per_wgp = 4, vgpr_space_bits = 16384, dma_sizes = [32]>>, ukernels = \22none\22}>]>"
  ^bb7:  // pred: ^bb5
    %_utf8_hal_executable_format_E03EECB63A2AAF52_5 = vm.const.ref.rodata @_utf8_hal_executable_format_E03EECB63A2AAF52 : !vm.buffer
    %_utf8_rocm_hsaco_fb_1C72FE9185115983_6 = vm.const.ref.rodata @_utf8_rocm_hsaco_fb_1C72FE9185115983 : !vm.buffer
    %17:2 = vm.call @hal.device.query.i64(%4, %_utf8_hal_executable_format_E03EECB63A2AAF52_5, %_utf8_rocm_hsaco_fb_1C72FE9185115983_6) {nosideeffects} : (!vm.ref<!hal.device>, !vm.buffer, !vm.buffer) -> (i32, i64)
    %nz_7 = vm.cmp.nz.i64 %17#1 : i64
    %18 = vm.select.i32 %17#0, %nz_7, %zero : i32
    %19 = vm.select.i64 %18, %zero_0, %c-1 : i64
    %eq_8 = vm.cmp.eq.i64 %19, %zero_0 : i64
    vm.global.store.ref %4, @__device_0 : !vm.ref<!hal.device>
    vm.cond_br %eq_8, ^bb8, ^bb9
  ^bb8:  // pred: ^bb7
    %reduce_dispatch_0_rocm_hsaco_fb = vm.const.ref.rodata @reduce_dispatch_0_rocm_hsaco_fb : !vm.buffer
    %ref_9 = vm.call @hal.executable.create(%4, %c-1, %_utf8_rocm_hsaco_fb_1C72FE9185115983_6, %reduce_dispatch_0_rocm_hsaco_fb, %null) {nosideeffects} : (!vm.ref<!hal.device>, i64, !vm.buffer, !vm.buffer, !vm.buffer) -> !vm.ref<!hal.executable>
    vm.global.store.ref %ref_9, @__device_0_executable_0_reduce_dispatch_0 : !vm.ref<!hal.executable>
    %ref_10 = vm.call @__reduce_memoize_apply() : () -> !vm.ref<!hal.command_buffer>
    vm.global.store.ref %ref_10, @__reduce_memoize_result_0_device_0 : !vm.ref<!hal.command_buffer>
    vm.return
  ^bb9:  // pred: ^bb7
    vm.fail %c14, "HAL device `__device_0` does not support any variant of executable `reduce_dispatch_0`; available formats: [rocm-hsaco-fb]"
  }
}

// -----// IR Dump After OrdinalAllocationPass (iree-vm-ordinal-allocation) //----- //
vm.module public @module attributes {ordinal_counts = #vm.ordinal_counts<import_funcs = 17, export_funcs = 2, internal_funcs = 3, global_bytes = 0, global_refs = 3, rodatas = 7, rwdatas = 0>} {
  vm.global.ref private mutable @__device_0 {ordinal = 0 : i32} : !vm.ref<!hal.device>
  vm.global.ref private mutable @__device_0_executable_0_reduce_dispatch_0 {ordinal = 1 : i32} : !vm.ref<!hal.executable>
  vm.global.ref private mutable @__reduce_memoize_result_0_device_0 {ordinal = 2 : i32} : !vm.ref<!hal.command_buffer>
  vm.rodata private @_utf8_hal_device_id_C6650FF277232B5A {alignment = 1 : i64, ordinal = 0 : i32} "hal.device.id"
  vm.rodata private @_utf8_hip_2D25314D056B7F99 {alignment = 1 : i64, ordinal = 1 : i32} "hip"
  vm.rodata private @_utf8_hal_executable_format_E03EECB63A2AAF52 {alignment = 1 : i64, ordinal = 2 : i32} "hal.executable.format"
  vm.rodata private @_utf8_rocm_hsaco_fb_1C72FE9185115983 {alignment = 1 : i64, ordinal = 3 : i32} "rocm-hsaco-fb"
  vm.rodata private @reduce_dispatch_0_rocm_hsaco_fb {alignment = 16 : i64, mime_type = "application/x-flatbuffers", ordinal = 4 : i32} dense<"…"> : vector<5408xi8>
  vm.func private @__reduce_memoize_apply() -> !vm.ref<!hal.command_buffer> attributes {inlining_policy = #util.inline.never, ordinal = 0 : i32} {
    %c13 = vm.const.i32 13
    %c28 = vm.const.i32 28
    %null = vm.const.ref.zero : !vm.ref<!hal.buffer>
    %c1 = vm.const.i32 1
    %c8 = vm.const.i32 8
    %c2 = vm.const.i32 2
    %c3 = vm.const.i32 3
    %zero = vm.const.i32.zero
    %c32 = vm.const.i64 32
    %c2048 = vm.const.i64 2048
    %zero_0 = vm.const.i64.zero
    %c-1 = vm.const.i64 -1
    %__device_0 = vm.global.load.ref @__device_0 : !vm.ref<!hal.device>
    %__device_0_executable_0_reduce_dispatch_0 = vm.global.load.ref @__device_0_executable_0_reduce_dispatch_0 : !vm.ref<!hal.executable>
    %ref = vm.call @hal.command_buffer.create(%__device_0, %zero, %c3, %c-1, %c2) : (!vm.ref<!hal.device>, i32, i32, i64, i32) -> !vm.ref<!hal.command_buffer>
    vm.call.variadic @hal.command_buffer.dispatch(%ref, %__device_0_executable_0_reduce_dispatch_0, %zero, %c8, %c1, %c1, %zero_0, [], [(%zero, %zero, %null, %zero_0, %c2048), (%zero, %c1, %null, %zero_0, %c32)]) : (!vm.ref<!hal.command_buffer>, !vm.ref<!hal.executable>, i32, i32, i32, i32, i64, i32 ..., tuple<i32, i32, !vm.ref<!hal.buffer>, i64, i64> ...)
    vm.call @hal.command_buffer.execution_barrier(%ref, %c28, %c13, %zero_0) : (!vm.ref<!hal.command_buffer>, i32, i32, i64) -> ()
    vm.call @hal.command_buffer.finalize(%ref) : (!vm.ref<!hal.command_buffer>) -> ()
    vm.return %ref : !vm.ref<!hal.command_buffer>
  }
  vm.import private @hal.buffer.assert(%buffer : !vm.ref<!hal.buffer>, %message : !vm.buffer, %allocator : !vm.ref<!hal.allocator>, %minimum_length : i64, %memory_types : i32, %buffer_usage : i32) attributes {ordinal = 0 : i32}
  vm.import private @hal.buffer_view.create(%buffer : !vm.ref<!hal.buffer>, %source_offset : i64, %source_length : i64, %element_type : i32, %encoding_type : i32, %shape : i64 ...) -> !vm.ref<!hal.buffer_view> attributes {nosideeffects, ordinal = 1 : i32}
  vm.import private @hal.buffer_view.assert(%buffer_view : !vm.ref<!hal.buffer_view>, %message : !vm.buffer, %element_type : i32, %encoding_type : i32, %shape : i64 ...) attributes {ordinal = 2 : i32}
  vm.import private @hal.buffer_view.buffer(%buffer_view : !vm.ref<!hal.buffer_view>) -> !vm.ref<!hal.buffer> attributes {nosideeffects, ordinal = 3 : i32}
  vm.import private @hal.command_buffer.create(%device : !vm.ref<!hal.device>, %modes : i32, %command_categories : i32, %queue_affinity : i64, %binding_capacity : i32) -> !vm.ref<!hal.command_buffer> attributes {minimum_version = 6 : i32, ordinal = 4 : i32}
  vm.import private @hal.command_buffer.finalize(%command_buffer : !vm.ref<!hal.command_buffer>) attributes {ordinal = 5 : i32}
  vm.import private @hal.command_buffer.execution_barrier(%command_buffer : !vm.ref<!hal.command_buffer>, %source_stage_mask : i32, %target_stage_mask : i32, %flags : i64) attributes {ordinal = 6 : i32}
  vm.import private @hal.command_buffer.dispatch(%command_buffer : !vm.ref<!hal.command_buffer>, %executable : !vm.ref<!hal.executable>, %entry_point : i32, %workgroup_x : i32, %workgroup_y : i32, %workgroup_z : i32, %flags : i64, %constants : i32 ..., %bindings : tuple<i32, i32, !vm.ref<!hal.buffer>, i64, i64> ...) attributes {ordinal = 7 : i32}
  vm.import private @hal.device.allocator(%device : !vm.ref<!hal.device>) -> !vm.ref<!hal.allocator> attributes {nosideeffects, ordinal = 8 : i32}
  vm.import private @hal.device.query.i64(%device : !vm.ref<!hal.device>, %category : !vm.buffer, %key : !vm.buffer) -> (i32, i64) attributes {nosideeffects, ordinal = 9 : i32}
  vm.import private @hal.device.queue.alloca(%device : !vm.ref<!hal.device>, %queue_affinity : i64, %wait_fence : !vm.ref<!hal.fence>, %signal_fence : !vm.ref<!hal.fence>, %pool : i64, %memory_types : i32, %buffer_usage : i32, %allocation_size : i64, %flags : i64) -> !vm.ref<!hal.buffer> attributes {ordinal = 10 : i32}
  vm.import private @hal.device.queue.execute.indirect(%device : !vm.ref<!hal.device>, %queue_affinity : i64, %wait_fence : !vm.ref<!hal.fence>, %signal_fence : !vm.ref<!hal.fence>, %command_buffer : !vm.ref<!hal.command_buffer>, %flags : i64, %binding_table : tuple<!vm.ref<!hal.buffer>, i64, i64> ...) attributes {ordinal = 11 : i32}
  vm.import private @hal.devices.count() -> i32 attributes {nosideeffects, ordinal = 12 : i32}
  vm.import private @hal.devices.get(%index : i32) -> !vm.ref<!hal.device> attributes {nosideeffects, ordinal = 13 : i32}
  vm.import private @hal.executable.create(%device : !vm.ref<!hal.device>, %queue_affinity : i64, %executable_format : !vm.buffer, %executable_data : !vm.buffer, %constants : !vm.buffer) -> !vm.ref<!hal.executable> attributes {nosideeffects, ordinal = 14 : i32}
  vm.import private @hal.fence.create(%device : !vm.ref<!hal.device>, %flags : i64) -> !vm.ref<!hal.fence> attributes {ordinal = 15 : i32}
  vm.import private @hal.fence.await(%timeout_millis : i32, %flags : i64, %fences : !vm.ref<!hal.fence> ...) -> i32 attributes {ordinal = 16 : i32, vm.yield}
  vm.rodata private @_utf8_input0_DCE99660CEB3F6B {alignment = 1 : i64, ordinal = 5 : i32} "input0"
  vm.rodata private @_utf8_tensor_FC1814BC4A58F22A {alignment = 1 : i64, ordinal = 6 : i32} "tensor"
  vm.func private @reduce(%arg0: !vm.ref<!hal.buffer_view>) -> !vm.ref<!hal.buffer_view> attributes {iree.reflection = {iree.abi.declaration = "sync func @reduce(%input0: tensor<8x64xf32>) -> (%output0: tensor<8xf32>)"}, ordinal = 1 : i32} {
    %c16 = vm.const.i32 16
    %c1 = vm.const.i32 1
    %c553648160 = vm.const.i32 553648160
    %c3075 = vm.const.i32 3075
    %c48 = vm.const.i32 48
    %c8 = vm.const.i64 8
    %c64 = vm.const.i64 64
    %c2048 = vm.const.i64 2048
    %c32 = vm.const.i64 32
    %zero = vm.const.i64.zero
    %c-1 = vm.const.i64 -1
    %null = vm.const.ref.zero : !vm.ref<!hal.fence>
    %c-1_0 = vm.const.i32 -1
    %__device_0 = vm.global.load.ref @__device_0 : !vm.ref<!hal.device>
    %__reduce_memoize_result_0_device_0 = vm.global.load.ref @__reduce_memoize_result_0_device_0 : !vm.ref<!hal.command_buffer>
    %_utf8_input0_DCE99660CEB3F6B = vm.const.ref.rodata @_utf8_input0_DCE99660CEB3F6B : !vm.buffer
    vm.call.variadic @hal.buffer_view.assert(%arg0, %_utf8_input0_DCE99660CEB3F6B, %c553648160, %c1, [%c8, %c64]) : (!vm.ref<!hal.buffer_view>, !vm.buffer, i32, i32, i64 ...)
    %ref = vm.call @hal.buffer_view.buffer(%arg0) {nosideeffects} : (!vm.ref<!hal.buffer_view>) -> !vm.ref<!hal.buffer>
    %ref_1 = vm.call @hal.device.allocator(%__device_0) {nosideeffects} : (!vm.ref<!hal.device>) -> !vm.ref<!hal.allocator>
    %_utf8_tensor_FC1814BC4A58F22A = vm.const.ref.rodata @_utf8_tensor_FC1814BC4A58F22A : !vm.buffer
    vm.call @hal.buffer.assert(%ref, %_utf8_tensor_FC1814BC4A58F22A, %ref_1, %c2048, %c16, %c3075) : (!vm.ref<!hal.buffer>, !vm.buffer, !vm.ref<!hal.allocator>, i64, i32, i32) -> ()
    %ref_2 = vm.call @hal.fence.create(%__device_0, %zero) : (!vm.ref<!hal.device>, i64) -> !vm.ref<!hal.fence>
    %ref_3 = vm.call @hal.device.queue.alloca(%__device_0, %c-1, %null, %ref_2, %zero, %c48, %c3075, %c32, %zero) : (!vm.ref<!hal.device>, i64, !vm.ref<!hal.fence>, !vm.ref<!hal.fence>, i64, i32, i32, i64, i64) -> !vm.ref<!hal.buffer>
    %ref_4 = vm.call @hal.fence.create(%__device_0, %zero) : (!vm.ref<!hal.device>, i64) -> !vm.ref<!hal.fence>
    vm.call.variadic @hal.device.queue.execute.indirect(%__device_0, %c-1, %ref_2, %ref_4, %__reduce_memoize_result_0_device_0, %zero, [(%ref, %zero, %c2048), (%ref_3, %zero, %c32)]) : (!vm.ref<!hal.device>, i64, !vm.ref<!hal.fence>, !vm.ref<!hal.fence>, !vm.ref<!hal.command_buffer>, i64, tuple<!vm.ref<!hal.buffer>, i64, i64> ...)
    %0 = vm.call.variadic @hal.fence.await(%c-1_0, %zero, [%ref_4]) : (i32, i64, !vm.ref<!hal.fence> ...) -> i32
    vm.cond_br %0, ^bb2, ^bb1
  ^bb1:  // pred: ^bb0
    %ref_5 = vm.call.variadic @hal.buffer_view.create(%ref_3, %zero, %c32, %c553648160, %c1, [%c8]) {nosideeffects} : (!vm.ref<!hal.buffer>, i64, i64, i32, i32, i64 ...) -> !vm.ref<!hal.buffer_view>
    vm.return %ref_5 : !vm.ref<!hal.buffer_view>
  ^bb2:  // pred: ^bb0
    vm.fail %0, "failed to wait on timepoint"
  }
  vm.export @reduce attributes {iree.abi.stub, iree.reflection = {iree.abi.declaration = "sync func @reduce(%input0: tensor<8x64xf32>) -> (%output0: tensor<8xf32>)"}, ordinal = 0 : i32}
  vm.export @__init attributes {ordinal = 1 : i32}
  vm.func private @__init() attributes {ordinal = 2 : i32} {
    %c1 = vm.const.i32 1
    %null = vm.const.ref.zero : !vm.buffer
    %c14 = vm.const.i32 14
    %c-1 = vm.const.i64 -1
    %c18 = vm.const.i32 18
    %zero = vm.const.i32.zero
    %zero_0 = vm.const.i64.zero
    %c1_1 = vm.const.i64 1
    %null_2 = vm.const.ref.zero : !vm.ref<!hal.device>
    %0 = vm.call @hal.devices.count() {nosideeffects} : () -> i32
    %1 = vm.ext.i32.i64.s %0 : i32 -> i64
    vm.br ^bb1(%zero_0, %zero_0, %null_2 : i64, i64, !vm.ref<!hal.device>)
  ^bb1(%2: i64, %3: i64, %4: !vm.ref<!hal.device>):  // 2 preds: ^bb0, ^bb4
    %rnz = vm.cmp.nz.ref %4 : !vm.ref<!hal.device>
    %5 = vm.xor.i32 %rnz, %c1 : i32
    %slt = vm.cmp.lt.i64.s %2, %1 : i64
    %6 = vm.and.i32 %5, %slt : i32
    vm.cond_br %6, ^bb2, ^bb5
  ^bb2:  // pred: ^bb1
    %7 = vm.trunc.i64.i32 %2 : i64 -> i32
    %ref = vm.call @hal.devices.get(%7) {nosideeffects} : (i32) -> !vm.ref<!hal.device>
    %_utf8_hal_device_id_C6650FF277232B5A = vm.const.ref.rodata @_utf8_hal_device_id_C6650FF277232B5A : !vm.buffer
    %_utf8_hip_2D25314D056B7F99 = vm.const.ref.rodata @_utf8_hip_2D25314D056B7F99 : !vm.buffer
    %8:2 = vm.call @hal.device.query.i64(%ref, %_utf8_hal_device_id_C6650FF277232B5A, %_utf8_hip_2D25314D056B7F99) {nosideeffects} : (!vm.ref<!hal.device>, !vm.buffer, !vm.buffer) -> (i32, i64)
    %nz = vm.cmp.nz.i64 %8#1 : i64
    %9 = vm.select.i32 %8#0, %nz, %zero : i32
    vm.cond_br %9, ^bb3, ^bb4(%zero : i32)
  ^bb3:  // pred: ^bb2
    %_utf8_hal_executable_format_E03EECB63A2AAF52 = vm.const.ref.rodata @_utf8_hal_executable_format_E03EECB63A2AAF52 : !vm.buffer
    %_utf8_rocm_hsaco_fb_1C72FE9185115983 = vm.const.ref.rodata @_utf8_rocm_hsaco_fb_1C72FE9185115983 : !vm.buffer
    %10:2 = vm.call @hal.device.query.i64(%ref, %_utf8_hal_executable_format_E03EECB63A2AAF52, %_utf8_rocm_hsaco_fb_1C72FE9185115983) {nosideeffects} : (!vm.ref<!hal.device>, !vm.buffer, !vm.buffer) -> (i32, i64)
    %nz_3 = vm.cmp.nz.i64 %10#1 : i64
    %11 = vm.select.i32 %10#0, %nz_3, %zero : i32
    vm.br ^bb4(%11 : i32)
  ^bb4(%12: i32):  // 2 preds: ^bb2, ^bb3
    %eq = vm.cmp.eq.i64 %3, %zero_0 : i64
    %13 = vm.select.i64 %12, %c1_1, %zero_0 : i64
    %14 = vm.add.i64 %3, %13 : i64
    %15 = vm.and.i32 %12, %eq : i32
    %ref_4 = vm.select.ref %15, %ref, %null_2 : !vm.ref<!hal.device>
    %16 = vm.add.i64 %2, %c1_1 : i64
    vm.br ^bb1(%16, %14, %ref_4 : i64, i64, !vm.ref<!hal.device>)
  ^bb5:  // pred: ^bb1
    vm.cond_br %5, ^bb6, ^bb7
  ^bb6:  // pred: ^bb5
    vm.fail %c18, "HAL device `__device_0` not found or unavailable: #hal.device.target<\22hip\22, [#hal.executable.target<\22rocm\22, \22rocm-hsaco-fb\22, {abi = \22hip\22, iree.encoding.resolver = #iree_gpu.gpu_encoding_resolver<>, iree_codegen.default_tuning_spec = #rocm.builtin.tuning_module<\22iree_default_tuning_spec_gfx942.mlir\22>, iree_codegen.target_info = #iree_gpu.target<arch = \22gfx942\22, features = \22\22, wgp = <compute =  fp64|fp32|fp16|int64|int32|int16|int8, storage =  b64|b32|b16|b8, subgroup =  shuffle|arithmetic, dot =  dp4xi8toi32, mma = [<MFMA_F32_16x16x16_BF16>, <MFMA_F32_32x32x8_BF16>, <MFMA_F32_16x16x32_F8E5M2FNUZ>, <MFMA_F32_16x16x32_F8E5M2FNUZ_F8E4M3FNUZ>, <MFMA_F32_16x16x32_F8E4M3FNUZ>, <MFMA_F32_16x16x32_F8E4M3FNUZ_F8E5M2FNUZ>, <MFMA_F32_32x32x16_F8E5M2FNUZ>, <MFMA_F32_32x32x16_F8E5M2FNUZ_F8E4M3FNUZ>, <MFMA_F32_32x32x16_F8E4M3FNUZ>, <MFMA_F32_32x32x16_F8E4M3FNUZ_F8E5M2FNUZ>, <MFMA_I32_16x16x32_I8>, <MFMA_I32_32x32x16_I8>, <MFMA_F64_16x16x4_F64>, <MFMA_F32_16x16x4_F32>, <MFMA_F32_16x16x16_F16>, <MFMA_F32_32x32x8_F16>], subgroup_size_choices = [64], max_workgroup_sizes = [1024, 1024, 1024], max_thread_count_per_workgroup = 1024, max_workgroup_memory_bytes = 65536, max_workgroup_counts = [2147483647, 2147483647, 2147483647], max_load_instruction_bits = 128, simds_per_wgp = 4, vgpr_space_bits = 16384, dma_sizes = [32]>>, ukernels = \22none\22}>]>"
  ^bb7:  // pred: ^bb5
    %_utf8_hal_executable_format_E03EECB63A2AAF52_5 = vm.const.ref.rodata @_utf8_hal_executable_format_E03EECB63A2AAF52 : !vm.buffer
    %_utf8_rocm_hsaco_fb_1C72FE9185115983_6 = vm.const.ref.rodata @_utf8_rocm_hsaco_fb_1C72FE9185115983 : !vm.buffer
    %17:2 = vm.call @hal.device.query.i64(%4, %_utf8_hal_executable_format_E03EECB63A2AAF52_5, %_utf8_rocm_hsaco_fb_1C72FE9185115983_6) {nosideeffects} : (!vm.ref<!hal.device>, !vm.buffer, !vm.buffer) -> (i32, i64)
    %nz_7 = vm.cmp.nz.i64 %17#1 : i64
    %18 = vm.select.i32 %17#0, %nz_7, %zero : i32
    %19 = vm.select.i64 %18, %zero_0, %c-1 : i64
    %eq_8 = vm.cmp.eq.i64 %19, %zero_0 : i64
    vm.global.store.ref %4, @__device_0 : !vm.ref<!hal.device>
    vm.cond_br %eq_8, ^bb8, ^bb9
  ^bb8:  // pred: ^bb7
    %reduce_dispatch_0_rocm_hsaco_fb = vm.const.ref.rodata @reduce_dispatch_0_rocm_hsaco_fb : !vm.buffer
    %ref_9 = vm.call @hal.executable.create(%4, %c-1, %_utf8_rocm_hsaco_fb_1C72FE9185115983_6, %reduce_dispatch_0_rocm_hsaco_fb, %null) {nosideeffects} : (!vm.ref<!hal.device>, i64, !vm.buffer, !vm.buffer, !vm.buffer) -> !vm.ref<!hal.executable>
    vm.global.store.ref %ref_9, @__device_0_executable_0_reduce_dispatch_0 : !vm.ref<!hal.executable>
    %ref_10 = vm.call @__reduce_memoize_apply() : () -> !vm.ref<!hal.command_buffer>
    vm.global.store.ref %ref_10, @__reduce_memoize_result_0_device_0 : !vm.ref<!hal.command_buffer>
    vm.return
  ^bb9:  // pred: ^bb7
    vm.fail %c14, "HAL device `__device_0` does not support any variant of executable `reduce_dispatch_0`; available formats: [rocm-hsaco-fb]"
  }
}

